data/ctc_model.pth (torch_old, 566991 bytes, 34 tensors)

layer1.0.weight f4 [32, 3, 3, 3]
000000 a4 58 d9 3d 04 77 08 3d 16 45 1e be 99 d7 08 3d
       0.1061261 0.033316627 -0.15456042 0.033408735
000010 6b 31 1a 3d 8a f4 9c 3d 0b 45 5a bd 55 5c 12 bc
       0.037644785 0.076638296 -0.0532885 -0.0089331465
000020 2e 08 b0 bd 22 b5 7d 3e be 16 3e bd a0 e5 33 be
       -0.0859531 0.24776128 -0.046408407 -0.17568064
000030 08 3f f5 3d 3d 81 24 be 20 25 13 3e 8c 38 95 bd
       0.11974913 -0.16064925 0.14369631 -0.07286176
000040 f2 6b 91 3d 1e ed 13 be a0 c6 1d be b4 af 27 3e
       0.07100667 -0.14445922 -0.154078 0.16375619
000050 f6 18 b8 3d 6f d6 fa 3d a1 fc 4e be 76 b0 49 be
       0.08989136 0.12247931 -0.20213558 -0.19696221
000060 92 95 9b 3d 63 68 b6 bc 0d 32 ed 3d bd be 2a be
       0.07596888 -0.022266572 0.11581812 -0.16674323
000070 13 7a 08 be 00 93 f4 3d 7c ca 4c 3e 97 46 52 3e
       -0.13327818 0.119421005 0.19999117 0.2053474
000080 03 c9 1b 3d 8f 44 1f bd 1f df 06 be d9 0c 26 be
       0.038033497 -0.038883742 -0.13171051 -0.16215838
000090 d3 b0 f5 bd d8 b9 a4 bd c6 cf 49 bd f6 20 2b 3e
       -0.11996617 -0.080432594 -0.049270414 0.16711792
0000a0 d9 8c 47 bd 1d 14 6e 3e ed 8b f1 bc 93 1a ae ba
       -0.048718307 0.2324986 -0.029485667 -0.0013283066
0000b0 9d 74 59 be f6 50 d3 3d 23 fc 3e be 08 f0 b3 3b
       -0.2123589 0.103181764 -0.1865087 0.0054912604
0000c0 4f e1 aa bd eb 4b de 3c 53 23 84 3e cc a4 23 3d
       -0.083437555 0.02713581 0.258082 0.039952084
0000d0 0c b0 76 3d 18 1c 66 be 12 0f fc 3c 28 d6 63 3a
       0.060226485 -0.22471654 0.030768905 0.00086912746
0000e0 ff c1 37 bd d7 f7 66 3c 97 a7 74 be 63 c3 a8 bc
       -0.044862743 0.014097176 -0.23892055 -0.02060098
0000f0 fd dc 5a bd 58 1f 16 3e ef 0d a3 3e 27 2f 03 be
       -0.053433407 0.14660394 0.31846568 -0.12810956
000100 bf 3a b6 bd 4e 39 45 be db cf 19 bd c0 8d 26 3d
       -0.08897924 -0.19260141 -0.037551742 0.040662527
000110 c9 30 e4 3c 76 f2 a0 bd 0d 94 fb 3b 38 f0 85 3e
       0.027855294 -0.07858746 0.007677561 0.26159835
000120 85 c9 66 3b b9 12 0e be 4e 33 91 3d c9 ac 3a 3d
       0.003521533 -0.1387433 0.07089864 0.045574937
000130 c5 8e 32 3c a0 10 88 3d 3f 70 15 bd 58 52 13 be
       0.010898297 0.06643796 -0.036484 -0.1438688
000140 6c dd 7f 3e 15 64 ca bd 04 4f 3a 3e 47 91 03 3e
       0.2498681 -0.098823704 0.18194205 0.12848388
000150 1d 36 53 be 8b 90 c7 bd 1c 64 e8 3d 6e 5c a2 bd
       -0.20626111 -0.09744366 0.11347219 -0.07927786
000160 ef a9 34 3e b8 09 d5 bd ec d4 ca bd 01 b5 07 3e
       0.1764295 -0.10402244 -0.09903893 0.13252641
000170 1c 69 85 3d 17 21 f1 be 81 de 88 3e b3 9e dc 3d
       0.06514189 -0.47095558 0.26732257 0.10772457
000180 86 63 b4 bc 66 c6 97 bd 6c fb 99 3d 2a fe db ba
       -0.022020113 -0.074108884 0.07518658 -0.0016784121
000190 9d 6d 2c 3e 4a 39 e3 3d 54 20 ec bd aa 38 10 be
       0.16838689 0.110949114 -0.115296036 -0.14084116
0001a0 d8 4b e3 bd df 4e 3b be 41 64 3d 3e 8b 62 6d 3d
       -0.110984504 -0.18291806 0.18495275 0.057955306
0001b0 34 ab 27 be 70 78 b0 3d 02 32 09 3e c3 d7 d6 bd
       -0.16373903 0.08616722 0.13397983 -0.10490372
0001c0 38 4a cf 3c 26 43 04 3e 38 9a 9e 3d 87 2f 4f be
       0.025303945 0.1291624 0.07744259 -0.20232974
0001d0 e3 9d 01 3e 11 ca a6 b9 de e8 d4 bd 77 b0 7a 3e
       0.12657885 -0.00031812539 -0.103959784 0.24481378
0001e0 7c 56 16 be d9 34 af 3d 1e 53 7f 3e b9 8b 05 be
       -0.14681429 0.08555002 0.2493405 -0.13041581
0001f0 43 28 7e 3d d5 fa 46 bd 19 d2 5f 3d 51 c2 03 be
       0.062050115 -0.048579056 0.054643724 -0.12867095
000200 16 81 a8 3d 63 10 ba bc a8 55 2f 3e ab c0 76 3d
       0.08227746 -0.022712892 0.17122519 0.060242336
000210 98 20 b4 bd 4e 59 bd bd 6a c7 e2 bc 72 c3 ac 3d
       -0.08795279 -0.09245549 -0.027682979 0.08435716
000220 4b 3e 96 be c2 e2 2a bd 0c eb 6b bd 46 03 06 be
       -0.293444 -0.04172016 -0.057597205 -0.13087186
000230 fb e5 47 3c 7a f1 27 3e 3d 41 f8 bc fd 09 c8 3d
       0.012200828 0.1640071 -0.030304546 0.0976753
000240 72 0b a9 bd b1 3f 94 3d f9 1e d6 bd 77 98 08 3e
       -0.08254136 0.07238711 -0.10455126 0.1333941
000250 79 8e 0d 3e 73 e9 8e bd 0d b4 51 be c9 3c 2d 3d
       0.1382388 -0.06978121 -0.2047884 0.042294297
000260 3f dc 28 3d 99 f5 04 be 81 92 86 be a2 77 31 bc
       0.041225668 -0.12984313 -0.2628365 -0.010831745
000270 38 58 ed 3d a5 7b e1 3c 8f 32 1e be fe a9 b0 3d
       0.11589092 0.027524779 -0.15448974 0.086261734
000280 0e 2f 1a be 89 e6 3a 3e 1e 34 a3 bd 8a 4c 28 bc
       -0.15057012 0.18252005 -0.07968925 -0.010272155
000290 70 c5 17 be aa 9f ac 3d aa cc ac 3d 17 e7 99 3e
       -0.1482141 0.08428891 0.08437474 0.3005912
0002a0 34 e8 10 be 1d 4a 05 3e eb d0 4e be 0d f8 ab bd
       -0.14151078 0.13016553 -0.20196883 -0.08396921
0002b0 4d 6e 9f bd 54 c0 37 be d3 52 29 bd 1e 49 bf 3e
       -0.0778471 -0.17944461 -0.041338753 0.3736047
0002c0 c7 68 bc 3e 37 f2 d5 bd 9a 76 7e 3c a6 4f 6d be
       0.3679869 -0.104465894 0.0155312065 -0.23174915
0002d0 12 ba fa bd 53 81 a3 3d aa da 16 be 95 79 9c 3d
       -0.12242521 0.07983651 -0.14731851 0.076403774
0002e0 03 81 2b 3e 43 c3 c7 3c 53 83 1d bd 0b 14 6c bd
       0.16748433 0.0243851 -0.03845532 -0.057636302
0002f0 a3 05 73 3c c5 73 3c bd 7c 31 86 3e 68 2d 2f be
       0.014832887 -0.046008844 0.2620963 -0.17107165
000300 36 3d 0f 3e 52 d5 6b 3d 3c 39 6c bd 9e 08 3b 3d
       0.13988194 0.057576485 -0.05767177 0.045662515
000310 a8 70 20 be 85 e5 85 bc 6f 70 93 3e c4 80 2b 3c
       -0.15667975 -0.016344795 0.28796718 0.010467712
000320 a7 e4 3a be 46 f2 20 3e 8b 1e bf bd b0 19 1c be
       -0.18251286 0.1571742 -0.093319975 -0.15244174
000330 98 f3 be bd ed 67 2a 3e 98 29 5e 3c ff 8c 3d 3e
       -0.093238056 0.16641207 0.013559721 0.18510817
000340 42 be 47 bd 34 41 d0 3c 74 61 9f 3d de be fc 3c
       -0.04876543 0.025421716 0.077822596 0.030852731
000350 81 fd 13 3d de 25 46 be a2 f4 ad bc 1a a9 24 3d
       0.036130432 -0.19350383 -0.021234814 0.04020033
000360 f3 bf 68 be af 10 03 3d 9c d5 22 3e f2 e7 54 3e
       -0.22729473 0.031998333 0.15901798 0.20791605
000370 3e 13 66 3e f1 19 d7 be 76 dd 70 bb 8b 08 f4 bd
       0.22468278 -0.4201198 -0.0036753095 -0.11915692
000380 e1 cd 7a be a9 e3 11 be 4d 9c ba 3d f0 83 1a 3e
       -0.24492599 -0.14247002 0.09111843 0.15089393
000390 00 00 24 3e 63 33 9f 3e b7 4e 23 bf e0 77 14 3d
       0.16015625 0.31093892 -0.63791984 0.036247134
0003a0 d7 ac 8f be cf 66 ef be 23 22 83 bd e8 4f 0f bd
       -0.28061554 -0.46758124 -0.064029954 -0.034988314
0003b0 f5 b8 44 3e 1d be 2e bd 80 2c 49 3d 63 9f 84 be
       0.1921118 -0.042661775 0.049114704 -0.25902852
0003c0 bc b8 9b 3d 94 98 1f bc 7e a7 78 bd 9a 1c 29 3e
       0.07603595 -0.009740967 -0.060706608 0.16514817
0003d0 79 b5 9c bd 62 e8 a8 ba 6f 34 e8 3c ac 56 37 be
       -0.07651801 -0.0012886638 0.028345315 -0.17904156
0003e0 57 14 35 bc d4 96 f0 bc dc 17 ca bd a7 4e 2e 3e
       -0.011052213 -0.029368795 -0.09867832 0.17022191
0003f0 34 7f 8b 3e b6 02 65 be 4f ab ea bd 28 0f 32 3e
       0.27245486 -0.22364315 -0.11458456 0.17388594

layer1.0.bias f4 [32]
000000 1a 1f c5 3d 38 a4 1b 3e f1 4f cd be 71 0f 07 bd
       0.09625073 0.15199363 -0.40100053 -0.03297371
000010 3a e5 3e be 84 41 6c bd e8 73 11 bb f0 f6 68 be
       -0.1864213 -0.057679668 -0.002219433 -0.22750449
000020 a5 8f a1 39 5c e4 18 3d 65 43 6b 3e ba 67 e1 bd
       0.00030815337 0.037327155 0.22974928 -0.110061124
000030 a4 fc 2d be c8 6e b5 bc 98 8c 2d bd 9d ae e7 be
       -0.16990906 -0.022147551 -0.04237041 -0.45250407
000040 b6 f0 07 3d b6 0d 17 3e 20 87 a6 3d d2 2b d5 bd
       0.033188544 0.14751324 0.08131242 -0.10408749
000050 89 84 36 bd 37 28 5c 3d a8 9a 07 3c e6 27 8a 3d
       -0.04455999 0.05374929 0.008276619 0.06745891
000060 57 b6 01 be fd 60 c1 bd aa 1e 0a 3e bd d8 36 be
       -0.12667213 -0.09442327 0.1348826 -0.17856117
000070 06 56 34 be f0 5f 9a bd 87 34 be bd e5 78 20 bc
       -0.1761094 -0.0753783 -0.092873625 -0.0097944485

layer1.2.weight f4 [32, 32, 3, 4]
000000 38 62 0e bd ac a6 05 3d 0b 9c b0 3d e0 ff a5 bb
       -0.034761637 0.032629654 0.08623513 -0.005065903
000010 f3 e5 91 3d 6a 1f 6c 3c 68 ad ba bc 31 ae 5a bd
       0.071239375 0.014411787 -0.022787765 -0.053388778
000020 56 ad ba bd b6 5b df 3b a9 e9 5f bd 7c 46 23 3d
       -0.091150925 0.0068163527 -0.054666195 0.03986214
000030 aa 3b 34 3e ab 45 19 3e b6 72 4d bc 7c 8f 92 bd
       0.17600885 0.14967982 -0.012539556 -0.07156274
000040 d6 3c fa 3d 2a e8 a8 bd da ae de bd 2c 41 57 be
       0.12218635 -0.08247407 -0.10873194 -0.21020955
000050 50 71 b6 be b1 1c 16 3e 4f 4f 54 3d b2 96 f7 bd
       -0.35633326 0.14659382 0.051833447 -0.1208929
000060 97 45 94 be 44 90 4b 3d fa c7 84 3e 16 28 39 3d
       -0.28959343 0.04969813 0.2593382 0.045204245
000070 9f 7c 2b 3e 56 8d 87 3e 19 68 bc 3c a0 7e f2 bd
       0.16746758 0.26475018 0.022998856 -0.11840558
000080 3d bc 5d 3d 92 5a 14 3c 24 ac 19 be 0e cd fe bd
       0.054134596 0.009054797 -0.15007073 -0.12441455
000090 3a dd 73 3c 94 5e dc ba 69 ab c2 3c d5 93 bd 3d
       0.0148842875 -0.0016812854 0.023763375 0.09256712
0000a0 60 51 9a 3d e9 9f 14 3e 25 87 0c 3e 34 f2 00 3e
       0.07535052 0.14514126 0.13723429 0.12592393
0000b0 a1 6d 7c bb 8e f5 13 3e 2c 47 a6 3b 93 54 3c be
       -0.0038517492 0.1444914 0.0050744023 -0.18391638
0000c0 17 9f ae bd 33 4e 9b bd ed 68 88 bd 95 1d 97 bc
       -0.08526438 -0.07583275 -0.06660638 -0.018446723
0000d0 9c 13 51 3d 52 d5 f3 3d b4 00 90 3c a2 29 34 bc
       0.05104409 0.11905922 0.01757846 -0.010996254
0000e0 e3 3d 30 bc c7 5f d6 bd c4 f3 64 bd e7 74 c0 3d
       -0.010756942 -0.10467487 -0.055896536 0.09397297
0000f0 13 b4 f7 3c 59 8d ed 3c 19 3c 60 3d c4 ed cf bd
       0.030237233 0.028998064 0.054744814 -0.10152772
000100 4d c4 29 3d 57 e6 e9 bc 1a 0b 88 3c d8 e7 45 bd
       0.041446973 -0.028552217 0.016606856 -0.048316807
000110 40 07 18 bb 5c 59 ce bb b8 92 38 bc 73 07 40 3d
       -0.002319768 -0.0062972736 -0.011265449 0.046882104
000120 18 ec 82 bd 23 a5 f3 3d ba 32 e0 3d 49 2f 26 be
       -0.063926876 0.11896732 0.10947175 -0.16228975
000130 94 cd 3a be 34 ab 0e be df 3e 8b bd 3f 5c 7a be
       -0.18242484 -0.13932496 -0.06799101 -0.24449252
000140 8e 56 ab 3d be 3f 88 3d 35 1d 00 be 26 dc ac bd
       0.08366118 0.06652783 -0.12511142 -0.084404275
000150 ee 4e 03 bd 9e ef d9 bd f4 41 ca bc d2 7c b4 bc
       -0.032057695 -0.106414065 -0.024689652 -0.022032175
000160 c4 ca 82 3d da 37 16 be 77 03 aa 3c 23 b5 a0 3d
       0.06386331 -0.14669743 0.020753605 0.07847049
000170 37 45 d8 bc 6d 1f ad 3c 27 d0 92 bd 3a 3a d5 bd
       -0.026400192 0.021133149 -0.07168608 -0.104114965
000180 1a 66 0a 3e ac 08 fe 3d 96 7c df 3c 4e e1 84 bd
       0.13515511 0.12403998 0.027281087 -0.06488286
000190 14 a0 d6 3d a8 05 99 3d 9f 4e 54 3d 6a 69 64 bd
       0.10479751 0.07471782 0.05183279 -0.055764593
0001a0 ec a7 d1 3d c3 d1 ca 3d 2c bf 76 bc 45 7c e8 bd
       0.10237107 0.0990329 -0.015060227 -0.113518275
0001b0 45 e2 27 bd 45 81 92 3d da 28 9d 3b d0 e2 87 3c
       -0.04098727 0.071535625 0.0047961297 0.016587645
0001c0 6d 5a 9c 3d 85 ef 3d 3d 74 0a 4a 3e 96 1b a0 bb
       0.07634435 0.046371 0.1973055 -0.004886101
0001d0 c9 f2 dc 3a 14 f2 80 bc ec 98 49 3c 26 ad cf bd
       0.0016857024 -0.015740432 0.012304526 -0.10140447
0001e0 97 b0 91 bd 43 85 3f be 9d 75 c3 bd 4e e3 49 bd
       -0.0711376 -0.18703179 -0.09543917 -0.04928904
0001f0 72 26 a6 bd 1e 9c 74 bd 77 f7 5f bd 4e 0f 61 bd
       -0.081128016 -0.059719197 -0.05467936 -0.054946236
000200 a1 b2 d4 bb 63 c8 84 3d 60 b0 f8 3c 67 c8 18 bd
       -0.006491021 0.06483533 0.03035754 -0.037300494
000210 69 17 89 bd ca d7 28 be 64 23 02 be b1 01 99 be
       -0.06693918 -0.16488567 -0.12708813 -0.29884103
000220 ed a6 15 be 87 bd 20 be 5b f1 e7 bd 53 b9 8d bd
       -0.14614458 -0.15697299 -0.11325332 -0.069201134
000230 bc 57 1b bd 81 4c 3a bd ae 4b 43 3d c4 bf ae 3c
       -0.037925467 -0.045483116 0.047679596 0.021331675
000240 7d ff 23 be ab 00 a4 3d 6e e1 71 3e 1f 33 e8 bd
       -0.1601543 0.0800794 0.23621151 -0.113378756
000250 e5 45 3c 3d 39 ee d2 bc f6 c6 ae bd c2 60 e1 bd
       0.045965094 -0.025748359 -0.085340425 -0.11004783
000260 da 49 a3 bb 9f 8c 27 bc d6 06 88 bd b4 18 2e bc
       -0.004983169 -0.010226398 -0.06641929 -0.010626007
000270 47 80 87 3d 85 b4 a9 3d 78 4f a0 3d 2e 9e 3a 3d
       0.06616264 0.082863845 0.078276575 0.04556101
000280 b0 22 da bc 2d 57 79 3a ac 7f 29 3e 22 5b d9 3d
       -0.026627868 0.00095115864 0.16552609 0.10613085
000290 a6 c4 01 be 33 74 ed bd 99 62 3f be b4 6f f3 bd
       -0.12672672 -0.11594429 -0.18689956 -0.1188654
0002a0 bf fa 3f 3d 3d df 25 be ac 1f c1 bd 36 a1 96 3c
       0.04686999 -0.1619844 -0.09429869 0.018387418
0002b0 39 88 4f 3c 1a f5 09 3d 67 03 a4 3d 1d 7d b3 3d
       0.012666755 0.033681013 0.080084614 0.08764098
0002c0 59 4a 6a 3d 17 c5 bb 3d 99 73 3a 3d 0d 3a e9 3b
       0.05719981 0.09168451 0.0455204 0.007117516
0002d0 6c 4e 89 bd 25 5f 60 be 50 a4 39 be 13 03 9f bd
       -0.06704411 -0.21911295 -0.18129086 -0.07764258
0002e0 db 4b ee bd 2d e2 8c 3c 85 65 94 3d 76 21 39 bd
       -0.11635562 0.017197693 0.07245926 -0.045197926
0002f0 d4 93 5a 3b 67 d6 eb 3d f4 e1 50 3e 39 c6 2a 3e
       0.0033352273 0.115155034 0.20398694 0.16677178
000300 a8 f2 0e bd c2 b0 35 bd 42 73 d4 3d 8b a6 57 3e
       -0.034899384 -0.044358023 0.10373546 0.21059625
000310 ca 29 1e be 0e 91 44 be 46 1d 6f bd 65 92 d6 bc
       -0.15445629 -0.19195959 -0.058377527 -0.026192853
000320 c0 c1 49 3c c1 63 a3 3d df 1b 10 bd 78 fc 02 be
       0.01231426 0.07978011 -0.03518283 -0.12791622
000330 de 31 bd bd f5 4b 9b bd 7f a2 83 3c 97 c5 57 3d
       -0.09238027 -0.07582847 0.016068695 0.05267867
000340 9b 03 3e 3d 13 c1 19 bc ea b6 a3 bb 0e 05 56 bd
       0.046390157 -0.009384411 -0.0049961703 -0.052250914
000350 27 58 ee 3d 59 69 58 3d b4 ad f3 bc 40 82 2c bd
       0.116379075 0.052834842 -0.029745914 -0.042116404
000360 c4 44 ce bb 4f 62 c5 3d a8 31 d7 3c a0 40 96 3c
       -0.0062948186 0.096378915 0.026268795 0.018341362
000370 0d 57 ca 3d d7 30 23 bb 8b 1a 89 3d ee 6d da 3b
       0.09879885 -0.0024900937 0.06694516 0.0066659367
000380 91 81 1d be 5b 14 08 be b2 5f 84 3d fa 11 88 bc
       -0.15381457 -0.13289015 0.06463565 -0.016610134
000390 ad ce f4 bd 4c 63 75 bd 9f 28 a9 3c a3 43 d3 bd
       -0.11953483 -0.05990915 0.020649252 -0.10315635
0003a0 b6 a8 a3 3d c6 50 95 3e a2 34 d8 3d be 89 46 bd
       0.079911634 0.29163188 0.10556914 -0.048471205
0003b0 81 97 1a 3e 76 7f 9a 3d 52 94 9d 3c 68 19 52 bc
       0.15096857 0.075438425 0.019235764 -0.01282344
0003c0 8e da a1 3c 01 70 1f 3d 6a 2b 48 bd 7d 4d ba bd
       0.019757535 0.038925175 -0.048869528 -0.09096811
0003d0 95 11 a0 3c 95 b3 82 3d 78 5e ac bc bc e4 39 3c
       0.019539634 0.06381909 -0.02104114 0.011346038
0003e0 c2 fe be 3d 17 2e 0b 3e f5 a0 ba bd 19 0f 60 bd
       0.09325935 0.135918 -0.09112731 -0.0547019
0003f0 64 d9 4f 3e 28 4b 59 3e 3e 75 59 be f2 03 04 be
       0.20297772 0.21220076 -0.2123613 -0.1289213

layer1.2.bias f4 [32]
000000 5a 5a c3 3d d5 a0 d2 bd 0e f8 82 bd c3 7c 4b be
       0.095387176 -0.102845825 -0.06394969 -0.19871812
000010 b1 39 ad bd 06 59 16 3e 58 90 0b 3e bf 60 f4 3c
       -0.084582694 0.14682397 0.13629282 0.029831288
000020 fe 13 c4 3c 27 1b 4e 3c 6a a7 8f 3e 29 32 3e 3e
       0.023935314 0.012579716 0.28057414 0.18573822
000030 e5 90 4c bd 68 89 da bd 7e 48 01 be 10 b9 dc 3c
       -0.04994287 -0.106707394 -0.1262531 0.026943713
000040 16 fd 51 be 13 7d 3b be a9 92 96 3d e1 d4 df bd
       -0.20506701 -0.18309431 0.07352192 -0.10929275
000050 45 3d 11 3d 86 44 6a 3c e1 56 a1 bc 91 04 09 3e
       0.03545882 0.014298564 -0.019694747 0.13380648
000060 6e a7 e6 bd 09 9a e3 bd 7b a1 2b bd 0b a8 ce bd
       -0.112624034 -0.11113364 -0.041902047 -0.100906454
000070 25 7f 5e 3d b0 16 20 bc 78 51 6e 3d 1d 3e f2 3d
       0.054320473 -0.009771034 0.058183163 0.118282534

layer1.3.weight f4 [32]
000000 6d 7d d4 3e 45 fc 09 3f 7e 3c ff 3e 57 a3 0f 3f
       0.41501942 0.5390056 0.4985084 0.5610861
000010 0c b9 36 3f 85 08 19 3f 77 8d 1a 3f 40 b5 d7 3e
       0.7137611 0.59778625 0.6037211 0.4213047
000020 cc 64 1d 3f b6 38 0b 3f cb a1 d9 3e ee a2 0a 3f
       0.6148193 0.5438341 0.4250625 0.5415486
000030 08 81 1a 3f 0f 93 f1 3e 0c 93 2d 3f 75 88 69 3f
       0.60353136 0.4718251 0.678025 0.9122384
000040 4d 7e 46 3f 96 9b 40 3f 8d 97 43 3f 20 36 15 3f
       0.7753647 0.75237405 0.76403123 0.58285713
000050 82 f3 36 3f 5d 74 90 3e ae c9 0d 3f bf 44 46 3f
       0.71465313 0.28213778 0.55385864 0.7744865
000060 c7 03 09 3f c2 a3 05 3f aa 51 15 3f 0f 10 10 3f
       0.5352139 0.52203 0.58327734 0.56274503
000070 bf 57 28 3f fb 2c 41 3f f3 4a e1 3e eb 07 bb 3e
       0.6575889 0.7545926 0.44002494 0.36529478

layer1.3.bias f4 [32]
000000 54 72 ad be a2 ea e9 3c 1d bd 45 be 20 f6 53 be
       -0.33876288 0.028554264 -0.19310422 -0.20699358
000010 ed 34 5f be 5e be 13 be 00 a3 8d be 23 b4 03 be
       -0.21797533 -0.14428088 -0.27663422 -0.12861685
000020 29 d4 b0 be b3 b7 54 be 52 50 01 bd f2 df 5a bc
       -0.34536865 -0.207732 -0.03157074 -0.013359057
000030 46 30 d7 be 0b 25 ff bd 61 1e b8 bd 69 a5 81 be
       -0.42029017 -0.12458237 -0.08990169 -0.2532151
000040 cd 4d 83 be ed 6a db be 4b 57 54 be d9 0f d0 be
       -0.25645295 -0.42855015 -0.20736425 -0.4063709
000050 dd 3c 4d be 79 47 4c bc 75 eb 1a be cc 5d 24 be
       -0.20042749 -0.012468212 -0.15128882 -0.16051406
000060 f7 96 8f be 2f 4a 26 be cc 40 13 3e 08 7c 0b be
       -0.28044865 -0.16239236 0.14380187 -0.13621533
000070 19 1b 87 bd de f2 90 be 50 59 ac bd 98 e8 b8 bd
       -0.06596965 -0.28310293 -0.084154725 -0.09028739

layer1.3.running_mean f4 [32]
000000 31 d3 0e 3d f4 44 56 3d 60 d2 ce be cc 5c 00 bf
       0.034869377 0.052311853 -0.40394878 -0.50141597
000010 14 98 97 be c3 65 fb bd 09 8a 89 3d 61 97 94 be
       -0.29608214 -0.12275269 0.06715781 -0.29021743
000020 84 3a ce be 80 25 7b be 47 3a 09 be d6 9f dd 3e
       -0.4027902 -0.24526024 -0.13401137 0.43286008
000030 a0 50 68 be a0 e9 8b be 80 6a 54 be 1f 97 cc bd
       -0.22687006 -0.2732668 -0.20743752 -0.099897616
000040 dc 4a 8d be 0c c2 1c bf c2 81 8d be fa 2f be be
       -0.27596176 -0.6123359 -0.2763806 -0.37145978
000050 9b cf a2 3e 11 5b 73 be f1 8d 0e bf 1a a4 6f 3e
       0.31799015 -0.23765208 -0.55685335 0.23402444
000060 da 4c 5c be 0d 4c f6 be 72 90 b7 3e ab 55 87 be
       -0.21513692 -0.48104897 0.3585239 -0.26432547
000070 93 f1 22 3f 2a 88 3b bd 09 14 27 3f ff c6 50 3e
       0.63649863 -0.045784153 0.65264946 0.20388411

layer1.3.running_var f4 [32]
000000 e9 ae c1 3c a9 43 49 3d 28 27 14 3d 2c 2a 53 3d
       0.023642974 0.04913679 0.036170155 0.05155389
000010 10 8a 91 3d 97 f5 3b 3d 4e 49 1d 3d 10 66 da 3d
       0.071064115 0.04588851 0.038399987 0.10663998
000020 31 78 2e 3d 93 a4 5a 3d fd f0 a7 3d d0 43 9e 3d
       0.042595092 0.053379606 0.08200262 0.07727778
000030 5b 30 17 3d e4 8c 0a 3d af 2c 1e 3e 03 88 bc 3d
       0.03691135 0.03382577 0.15446733 0.0920563
000040 05 9a a5 3d 13 ec 09 3d 9f 88 8f 3d 0c 86 13 3d
       0.080860175 0.033672404 0.0700848 0.03601651
000050 d8 f9 a2 3d aa ec 85 3d fd be ff 3d d4 0e 0b 3e
       0.0795781 0.06539281 0.124876 0.13579875
000060 78 5f c1 3c 6a 6d 41 3d ef 92 9e 3d 6f a4 60 3d
       0.023605093 0.047223486 0.07742869 0.054844316
000070 a2 f1 c6 3d 30 a8 98 3d 50 9e 21 3e 14 a8 73 3d
       0.097140566 0.07453954 0.15783048 0.059486464

layer2.0.weight f4 [32, 32, 3, 3]
000000 1d f1 07 3e 5f af 97 be 99 e4 a8 be 11 dc f0 3d
       0.13275571 -0.29625985 -0.32986906 0.11760724
000010 ba 5a 83 be e5 1e 58 be 8c 49 49 3e eb f0 b2 bd
       -0.25655156 -0.21105535 0.19656962 -0.08737358
000020 87 b0 03 be c1 f9 16 3c 4f e8 0f be 04 67 82 be
       -0.12860309 0.009214819 -0.14053462 -0.2546922
000030 35 3f cd bd ea e4 31 be ed e8 57 be 12 44 db 3d
       -0.100218214 -0.1737248 -0.21084948 0.10706343
000040 56 d0 f6 bc 72 50 aa bd 17 c1 8b 3d e6 fa bf 3d
       -0.03012864 -0.08316125 0.06823938 0.09374027
000050 8c 52 a7 3d f5 bf 74 bd 1b 0e 21 bd 91 da 8b 3d
       0.081700414 -0.059753377 -0.039320093 0.068287976
000060 d6 9d 5f 3d db 4d 92 3c 2d 3a 4a bd 62 52 24 bd
       0.054593883 0.01785939 -0.049371887 -0.04011763
000070 a1 6a 02 3d 60 d9 22 3e 1e ce 52 ba 32 f4 68 3d
       0.03183997 0.15903234 -0.0008041578 0.056873508
000080 43 f5 bf 3b 3b fb 43 bd 04 3f fd 3d af c9 30 3c
       0.005858095 -0.047847014 0.12365535 0.010790273
000090 c0 2b 9a 3d b4 d2 4b bd 51 8e c8 bd bb e2 dd bb
       0.07527876 -0.04976149 -0.0979277 -0.006771413
0000a0 63 d5 c7 bd 42 4a 9f bc 28 fb e7 3c 88 07 9d 3d
       -0.09757497 -0.019444589 0.028318003 0.07667452
0000b0 a7 ce 87 3e 6b 1d 08 3b 2a 98 40 bd 4c 2f e8 bb
       0.2652485 0.0020769488 -0.047020115 -0.0070857164
0000c0 c8 52 b6 3c 6b 12 2d be 3d b8 50 bc a7 0d 51 3d
       0.02225627 -0.16901557 -0.012739238 0.05103841
0000d0 ff bc 65 bd 7d 5a e6 bd 6f c7 88 3d c9 f3 a6 bd
       -0.056088444 -0.11247728 0.06678664 -0.08151967
0000e0 22 cd 1e bc 78 ea 2f bc 25 ed 39 3d 63 40 d7 bd
       -0.009692462 -0.010737054 0.045392174 -0.10510328
0000f0 78 b5 88 bc a2 21 fb 3d ce b4 85 bc 48 5d b2 ba
       -0.016688094 0.12262274 -0.016321566 -0.0013608122
000100 3c 51 f4 3d 47 0a eb 3b 34 37 f4 3c 25 f3 2d bd
       0.11929557 0.007172856 0.02981148 -0.04246821
000110 60 45 47 3d 9b b8 79 3d 7e be e0 3c 75 2b f6 3c
       0.048650146 0.06096707 0.027434584 0.030050019
000120 d3 60 aa 3d d8 2b dd 3c cb 00 6a 3b 59 f7 18 bd
       0.08319249 0.026998445 0.003570604 -0.037345264
000130 ba 7f 4b 3d b6 a1 63 3b 75 50 e8 3d b2 df ab 3d
       0.049682356 0.0034733838 0.11343471 0.08392276
000140 48 60 1c be 21 28 74 ba 27 93 ff 3d 4e 0e 80 bd
       -0.15271103 -0.0009313841 0.12479239 -0.062527284
000150 bb 20 d1 3c 3f 2f 0c be 6e 26 22 be ce a4 d6 bd
       0.025528302 -0.13689898 -0.15834972 -0.10480653
000160 60 6e 0a be 56 fd d5 bd fb 85 44 ba 79 39 4d 3d
       -0.13518667 -0.104487106 -0.0007496771 0.05010364
000170 31 25 cf 3c 2d 25 1b bd d9 88 cd bc f9 44 dd 3d
       0.025286289 -0.03787725 -0.025089668 0.10804171
000180 38 8b be 3d 35 00 83 bc db 5e 20 3e 9e f6 a1 bc
       0.093038976 -0.01599131 0.15661184 -0.019770917
000190 24 c9 ea bd 81 31 af be e4 ef 46 3d c7 76 ac be
       -0.11464146 -0.34217456 0.04856862 -0.3368437
0001a0 2d 30 f8 be 80 5b 3f bd c2 f8 35 be d6 60 56 be
       -0.48474255 -0.04671812 -0.17770675 -0.20935377
0001b0 ef 36 0d 3d 0c 57 2c be 25 ce 0b 3e 77 55 9d 3d
       0.034476217 -0.16830081 0.13652857 0.07682317
0001c0 32 64 22 3d 46 b5 48 3d 03 9a c5 3d 2a f5 5f 3d
       0.039646335 0.049001 0.09648516 0.054677166
0001d0 5b 7c 2f 3e 37 1a 4c be 56 8e 2a bc 11 d4 18 3e
       0.17137282 -0.19931875 -0.010409912 0.14924647
0001e0 42 41 35 be b0 8a 2b bd bb 82 a6 3b 44 84 a4 bd
       -0.17700675 -0.04188031 0.0050815023 -0.0803304
0001f0 7a da 8c bc f8 37 89 3d fa 5e 87 3d 24 e3 88 3d
       -0.017194021 0.06700128 0.06609912 0.06683949
000200 b7 4c ed 3d ce a5 31 bc 4d f9 aa bc 5a e8 1b 3e
       0.11586898 -0.010842754 -0.020870829 0.15225354
000210 3f 48 8f 3d 8b d0 7f 3d 6f da b6 3d b1 dc b7 bd
       0.06996202 0.06245474 0.08928382 -0.089776404
000220 e7 4b c5 bd eb b1 17 be 69 dc 37 bc b9 82 0b be
       -0.09633618 -0.14813964 -0.0112219835 -0.13624085
000230 bd 61 73 be 3d 50 63 bd 7f 32 b8 bd bd ee 0a be
       -0.23767753 -0.055496443 -0.08994006 -0.13567634
000240 c8 50 c3 3d d8 6e 6c 3c b5 cf ca be 32 18 3e 3d
       0.09536892 0.014430724 -0.39611593 0.046409793
000250 57 59 c7 bc 7a c1 1d bc 1b 6e 40 bd f3 5a 87 3d
       -0.024334593 -0.009628648 -0.046980005 0.06609144
000260 9c af a4 bc b5 c5 d7 3c 47 67 11 bc 34 f7 ba bc
       -0.020103268 0.026339391 -0.008874721 -0.022822954
000270 8e 52 28 3d 81 50 ae bc d4 90 dc 3c 5b e1 28 bc
       0.041094355 -0.021278622 0.026924528 -0.010307635
000280 0f 3e ba 3b 98 d5 7c 3c c8 b2 9a 3d 11 97 8b bd
       0.0056836675 0.015431784 0.07553631 -0.06815923
000290 5a 8d 8e bb ec a3 e7 3c d9 97 b5 3c b6 09 00 be
       -0.0043503465 0.028276406 0.022167133 -0.12503704
0002a0 d3 9e b2 3c 1b 10 9d 3d a4 f3 85 bb 44 3d f9 39
       0.021804249 0.076690875 -0.004087882 0.00047538627
0002b0 86 5e a9 bd 49 d2 2a 3e f3 7d 45 3c 84 23 6f bb
       -0.08269982 0.1668178 0.012053954 -0.0036489675
0002c0 19 e6 62 3d 7a db e3 3d c1 1c 2e 3e e4 32 23 3e
       0.05539522 0.11125846 0.17003156 0.15937382
0002d0 f7 8e bf bd 8c 58 0e 3d 1b 2a b7 bd a8 b0 f3 bd
       -0.0935344 0.034752414 -0.08943578 -0.11898929
0002e0 e2 73 f6 bd 92 08 5b be 7b 4b 06 be 3c 61 a8 bd
       -0.12033822 -0.21389988 -0.13114731 -0.08221671
0002f0 01 ae 1b 3d fd bb 83 3e 0d ad b5 3d d7 d5 b2 3d
       0.03800774 0.2572936 0.088708974 0.08732193
000300 80 e9 13 3e 56 09 10 bd 92 c7 67 bd 50 31 3f 3d
       0.14444542 -0.035165153 -0.05658681 0.046677887
000310 ab 21 fd bb 03 d5 46 3d 9c a9 ea 3d a2 0e a0 3c
       -0.007724961 0.048542988 0.11458132 0.019538227
000320 ef f2 77 3d 0b 7a b8 3d 7e 96 a3 3d 9b de 19 3e
       0.060534414 0.09007653 0.079876885 0.15026323
000330 f5 ab 7a bc 5a 68 fc bd f0 ad 82 bd d3 28 81 3d
       -0.015299787 -0.12324591 -0.06380832 0.06306615
000340 c2 1f 33 be 33 dd d8 bb 8a 8d b7 bd b9 87 40 3d
       -0.17492583 -0.006618166 -0.08962543 0.047004435
000350 26 45 8e be 33 e9 70 bc bb b2 fd bc c4 f1 7d bd
       -0.2778713 -0.0147040365 -0.030969014 -0.061998144
000360 7a 55 e8 3d f4 42 8d bd 5f ab c9 3b 2e b5 86 3d
       0.11344428 -0.06897536 0.006154462 0.06577526
000370 17 9b 0f be 5f 9b 0b be a2 96 d1 3c 0c 73 0e 3e
       -0.14024006 -0.13633488 0.025584523 0.13911074
000380 ea c9 0b 3d 61 95 ad bd a4 b4 e9 3b e1 2e 1a 3e
       0.034128107 -0.084757574 0.0071321297 0.15056945
000390 0e 63 f1 bc 44 e8 d3 bd 4f 86 f9 3c f1 8f 06 bd
       -0.029466178 -0.103470355 0.030459551 -0.032852117
0003a0 e5 6b 05 3d 99 43 c3 bb e8 86 d7 3c b8 84 a7 bd
       0.0325736 -0.005958986 0.026309446 -0.08179611
0003b0 f3 f0 37 be e9 b5 f0 bb 20 60 a7 be 1b 27 dc bd
       -0.17963009 -0.007345904 -0.32690525 -0.10749646
0003c0 8e 95 ed 3c 80 11 2c bd 6c 7a 9b 3c 69 73 82 3d
       0.029001977 -0.042008877 0.018979274 0.06369669
0003d0 bc 55 50 3d 41 4d 13 be e9 c5 b5 3c 74 23 f1 3d
       0.050863013 -0.14384939 0.022189097 0.1177434
0003e0 77 c8 b2 bd 2d 15 2c 3d ac 3a 34 3e 1e c7 dd 3d
       -0.08729642 0.042012382 0.17600507 0.10828994
0003f0 c3 59 0d 3d e3 5c 05 be c3 67 1e bd fe be 42 bc
       0.03450943 -0.13023715 -0.038673174 -0.011886356

layer2.0.bias f4 [32]
000000 24 4f 9e 3d 4a 84 45 bc f1 63 80 3e ec 5b ff bc
       0.077299386 -0.012055466 0.2507625 -0.031171761
000010 f9 61 4d 3d a5 08 13 3d 6f 11 63 3e 0e 2d 1c 3e
       0.050142262 0.035896916 0.22174619 0.15251562
000020 90 78 20 3e 10 34 37 bd c4 1f 03 3e d3 ca 8e 3c
       0.15670991 -0.044727385 0.12805086 0.017430698
000030 e8 4e 2c be 5b 9d ae 3c 6f c6 a8 3d d0 f6 b7 3b
       -0.16826975 0.021315267 0.08240973 0.005614139
000040 68 b0 5d 3d 14 36 fb bc 07 40 82 3d 6b 81 86 3d
       0.054123312 -0.030665435 0.063598685 0.06567653
000050 37 0b 04 3e 3f d5 8b 3c 59 f1 bf 3d fc d9 74 3d
       0.12894903 0.017069457 0.09372205 0.0597782
000060 3f ed 83 bd 8e 1f 6d bd 12 9b e5 3d a3 dc 3d 3c
       -0.064417355 -0.05789142 0.11211218 0.011588248
000070 d3 55 90 3c 12 7b 51 3d c3 2f 80 3c 6f 84 2b be
       0.01761905 0.05114276 0.015647775 -0.16749738

layer2.2.weight f4 [32, 32, 4, 3]
000000 09 1f e3 3a 50 8c f9 3b 53 1d 82 3d 84 c4 ce bd
       0.0017327975 0.0076156035 0.063532494 -0.10096076
000010 95 a9 65 be a7 2c 1d be 13 2b 0c be 7e e0 50 be
       -0.22427972 -0.15349065 -0.13688307 -0.20398137
000020 f9 06 28 bd 2a 0d a9 bd fb 03 ff bd ac 53 6e bd
       -0.041022275 -0.08254464 -0.12451931 -0.058185264
000030 e8 89 8b bc 72 81 64 3d 37 34 dd 3d 11 70 6a bd
       -0.017033532 0.05578751 0.10800975 -0.05723578
000040 32 cd b9 3d 67 4f b7 3d 82 7c d5 3d 9b 39 65 3e
       0.09072341 0.08950692 0.104241386 0.22385256
000050 f0 f1 1b 3e 37 d5 1e 3e 24 b4 97 3e 4f 2f 81 3e
       0.1522901 0.15511023 0.29629624 0.25231406
000060 69 d4 e8 bc 8a 2a 12 bd e0 5f 22 bd 61 f6 98 bd
       -0.028421598 -0.0356851 -0.039642215 -0.07468868
000070 c6 45 ba bd e9 e2 7b bd 12 ae 91 bc a9 e6 03 3d
       -0.090953395 -0.061495695 -0.017783199 0.032202397
000080 b3 02 c0 3d 0e 18 1a bd 0d 51 08 be 16 e8 cc bd
       0.09375515 -0.037620597 -0.13312168 -0.100052044
000090 0c 5c 1d 3e 7b 21 6c 3e ab 13 b3 3d 6c 7a 32 3c
       0.15367144 0.23059647 0.08743986 0.010893445
0000a0 76 3d 45 3e 25 59 a0 3d de db a0 3c 8b 21 e9 3d
       0.19261727 0.07829503 0.01963609 0.11383351
0000b0 4d dd 3f 3d ff 8c 81 3d 4b f2 29 3e 9d 1f e2 3d
       0.04684191 0.06325721 0.16596334 0.11041186
0000c0 98 b2 1a bd 4b 64 0a bd 6b 89 09 3e 97 1c c5 bc
       -0.037767977 -0.033787053 0.13431327 -0.024061484
0000d0 5e 0b b1 3d a1 e0 5c 3d 14 cf f2 bc ca 4e c2 3d
       0.08644746 0.05392516 -0.029639758 0.09487684
0000e0 66 58 c6 3d 5e 6e 93 3d c9 17 91 3e c5 6e 9c 3e
       0.096848294 0.07198785 0.2833846 0.3055326
0000f0 0b 4f bd 3d 69 57 8c 3d 4d 0b 9a 3c 9e 0f a6 3d
       0.09243592 0.0685261 0.018804217 0.081084475
000100 27 2e 25 3e 13 9c 60 3d 0c 60 13 3e 4a b7 02 bc
       0.16130887 0.054836344 0.14392108 -0.00797827
000110 ff ad aa bd 93 05 f3 3d 1e 5f 86 bc fe 4e 42 bd
       -0.08333968 0.118662976 -0.016402777 -0.047438614
000120 35 40 23 3d ad 05 e6 3d 08 34 a9 3c 00 68 7e bc
       0.039856154 0.11231551 0.020654693 -0.015527725
000130 f9 4f 13 bd a0 c6 25 bd 00 77 d3 3d 5c 51 00 3e
       -0.03596494 -0.040472627 0.10325432 0.12531036
000140 f3 39 81 3d a7 4a 55 bd 73 97 ac 3d 81 73 91 3d
       0.06309881 -0.052073147 0.08427324 0.07102109
000150 dc 1a a5 3c 35 5d 74 3c 68 a7 d1 3c 0a 2d b5 3d
       0.02015441 0.0149148 0.02559252 0.08846481
000160 dd 23 d1 bc b7 f6 a2 3d 57 85 e7 3c d3 aa 0b bd
       -0.025529796 0.07957213 0.028261824 -0.034098458
000170 db e8 0b 3e 8d d6 88 bc 89 6b 86 3b e4 ff 40 3d
       0.13663046 -0.016703868 0.0041021747 0.047119036
000180 3a 94 f3 bd eb aa 16 be 23 3d 15 bd a9 c6 01 bc
       -0.11893506 -0.14713638 -0.036435258 -0.007920899
000190 d2 63 01 bd 5a 57 c2 bd ce f0 2d 3c ce aa cb 3d
       -0.031589337 -0.09489317 0.010616494 0.09944688
0001a0 c5 d4 93 3d 13 f1 c9 3d 31 fb 4f 3e ec 03 db 3d
       0.07218317 0.098604344 0.20310666 0.106941074
0001b0 27 5e b3 3d 6d 88 0d 3d 8e 2b 71 3d e2 32 b1 3d
       0.087581925 0.034553934 0.058879428 0.08652283
0001c0 d6 a4 dd 3d 1b 81 e5 3c 1e bd 94 3c cb 52 1d 3e
       0.108224556 0.028015664 0.018156584 0.15363614
0001d0 e3 1a bb 3d 80 94 23 be 67 e6 f2 bc 6f 7d 07 3e
       0.091359876 -0.15974617 -0.02965088 0.13231443
0001e0 0e 6f 1d bd 42 51 dc be 69 7f 71 be 54 26 9a 3c
       -0.038435988 -0.43030745 -0.2358376 0.018817104
0001f0 20 c9 8c bd ee 7a e1 bd 3f 66 04 3e a7 a4 31 3d
       -0.06874299 -0.11009775 0.12929629 0.043369915
000200 24 48 15 bd 17 d2 29 bb d9 d6 95 bd fd a5 39 be
       -0.03644575 -0.0025912577 -0.073163696 -0.18129726
000210 30 8c ab bb 81 a4 84 bd 45 50 2b bc 3c 56 6a bd
       -0.0052352175 -0.06476689 -0.0104561495 -0.057211146
000220 66 74 cc bd f1 d7 8b 3d 84 6e 54 bd c5 6e ba bd
       -0.09983139 0.06828297 -0.05186321 -0.09103159
000230 3f ba 2a bc 96 00 24 be 33 40 22 be 45 fc 4b bd
       -0.010420381 -0.16015849 -0.15844803 -0.04980113
000240 e2 0a 0a bd a7 1a 03 be cb 1c d9 bd 7d 74 a1 bc
       -0.033701785 -0.12803136 -0.10601195 -0.019708866
000250 95 05 da bd 95 0d 0b be c0 77 b7 3c d4 59 d9 bd
       -0.10645596 -0.135794 0.022395968 -0.106128365
000260 f6 54 01 be 70 3b 14 be 93 3f 62 be 57 fe 0b be
       -0.12630066 -0.14475799 -0.22094564 -0.13671242
000270 c2 dd 1f 3e 5d 1f 04 3e 9b 60 59 3d f3 52 e6 3c
       0.15611938 0.12902589 0.053070646 0.028115725
000280 60 56 cb 3c 90 3f a6 bc 0a 74 39 bd d9 c2 0d 3d
       0.02482146 -0.02029398 -0.04527668 0.03460965
000290 30 40 2a 3e 31 cb 9a bc 7b dc 8b 3d 03 5e e4 3d
       0.16626048 -0.018895717 0.06829163 0.11150744
0002a0 0a f0 af 3d 34 eb 73 3c b7 3a aa bd 72 ba a0 3d
       0.08590706 0.01488762 -0.0831198 0.078480616
0002b0 57 90 89 3d 27 f2 72 bd 70 0b e6 bb 94 69 11 bc
       0.06716984 -0.059312966 -0.0070204064 -0.008875269
0002c0 cc f9 88 3c 7b 96 75 bd 9e 99 cc bc 1f 34 02 3d
       0.016720675 -0.059957962 -0.024975594 0.031787988
0002d0 99 10 8d bd 20 f8 b8 3b c4 59 5d bd 48 c9 09 be
       -0.068879314 0.005644813 -0.054040685 -0.13455689
0002e0 97 a0 e0 bd 85 63 44 3c 72 87 02 be 04 ce 73 bd
       -0.1096813 0.011986618 -0.12746981 -0.059522644
0002f0 f0 68 23 3d bd ec 1e 3d 57 bd bc 3d b0 bf 63 3d
       0.039894998 0.03879999 0.09215801 0.05560273
000300 91 b1 61 be 3b 2a 3a be 83 2b ea bd c1 79 36 be
       -0.22040392 -0.18180172 -0.114340805 -0.17819883
000310 ac 53 9a bd b9 94 53 bd 73 b6 18 3d 76 56 53 3c
       -0.075354904 -0.051655505 0.037283372 0.012899032
000320 f1 59 8d 3d 4d d8 0b 3e 82 ff 87 3d 1c 5f 03 3c
       0.069019206 0.13656731 0.06640531 0.008018281
000330 b2 7b 38 3e a8 e5 f7 3d 4b ac 51 3d d4 46 8c 3d
       0.18015936 0.1210435 0.051189702 0.06849447
000340 99 43 d0 3c d6 89 0b bd dc 2c 0e 3d 8c a4 c7 bb
       0.025422858 -0.034066997 0.03471075 -0.0060926136
000350 15 60 f2 bd 62 73 27 3e 2e d8 93 3d 34 71 ab bc
       -0.118347324 0.16352609 0.072189674 -0.020928003
000360 b7 78 28 be 6c c8 b2 be 83 47 e8 bd 04 df f2 bd
       -0.16452299 -0.34918535 -0.11341765 -0.11858943
000370 28 a1 c0 be a6 5c ce bd 01 8e 39 bd fd 18 89 be
       -0.37622952 -0.10076265 -0.04530144 -0.26776877
000380 aa d5 2a be 19 3b ca bd c0 21 f7 bd bf 6d d5 bd
       -0.16683069 -0.09874553 -0.12066984 -0.10421323
000390 e9 9c 8c bd 52 e4 d6 3d 64 10 c2 3d ac 11 b0 3d
       -0.06865866 0.104927674 0.094757825 0.08597121
0003a0 b7 b6 61 3e 5b 3d 2a bc 6a 18 ae 3d 97 81 01 3e
       0.22042356 -0.010390605 0.0850075 0.12647091
0003b0 1f 58 b2 3d b6 37 2c 3e c4 de 42 3e 59 4c 53 3d
       0.08708214 0.16818127 0.19030291 0.051586483
0003c0 0a 5a 51 be 24 94 2e bd 76 c9 c5 3c 36 54 86 be
       -0.20444503 -0.042621747 0.024143916 -0.26236123
0003d0 85 3c 88 bd 25 64 16 3e 02 3c da bd 7c 28 6f be
       -0.06652168 0.1468664 -0.10655977 -0.23355287
0003e0 a1 01 79 bc 24 c7 70 be 54 b6 59 be 45 12 90 bd
       -0.015198142 -0.23513466 -0.21260959 -0.07034735
0003f0 ee cc 1e 3e d0 fc bb 3d 53 30 5b 3c 7a 70 f5 3d
       0.15507862 0.091790795 0.013378221 0.11984344

layer2.2.bias f4 [32]
000000 46 6b 99 bd 91 84 a0 bc 1a e2 4e bc ba 5b a9 bd
       -0.07491164 -0.019594463 -0.012627149 -0.082694486
000010 28 c6 6c 3d a0 0a d9 bb e3 f5 4f 3c c0 7d fc bc
       0.057806164 -0.006623581 0.012692901 -0.030821681
000020 6b 82 9a bc 07 d6 97 bd 13 4c c1 3c 6f b5 0c 3d
       -0.018861016 -0.07413869 0.023595845 0.034352716
000030 7e 4b 64 3d 37 70 01 3e 12 89 1a bd 0b 31 c4 3c
       0.055736057 0.12640463 -0.037728377 0.023949167
000040 14 93 ee 3d d5 42 e8 3c 6c 9c 1f bd 7d a3 5e 3d
       0.11649147 0.02835218 -0.038967535 0.054355133
000050 21 91 9c bd 3b 9b 87 bd da 70 7d bd a9 49 bc 3d
       -0.07644869 -0.06621405 -0.0618752 0.09193737
000060 cf de 37 3b b8 25 3e bc e3 8e 1e bd 48 46 ef bd
       0.0028056388 -0.011605673 -0.038710486 -0.11683327
000070 fe d4 83 3d 3e ac 00 3c b4 6f bc bd 28 4c 0b 3e
       0.064371094 0.007853566 -0.09200993 0.1360327

layer2.3.weight f4 [32]
000000 46 24 04 3f d2 9e d5 3e e2 c6 12 3f 47 d2 27 3f
       0.5161785 0.41722733 0.5733472 0.6555523
000010 2c 2f 1e 3f 74 06 da 3e 31 c9 1e 3f 10 12 96 3e
       0.6179073 0.42583048 0.62025744 0.29310656
000020 21 52 1c 3f c2 87 26 3f a1 4c f5 3e e2 ba a8 3e
       0.6106282 0.650509 0.47910026 0.3295508
000030 33 79 b8 3e 86 91 e5 3e ef 46 28 3f 16 96 f7 3e
       0.36029968 0.44837588 0.65733236 0.48356694
000040 e9 14 de 3e f1 5c 26 3f d0 6c c2 3e 87 1a bf 3e
       0.43375328 0.6498557 0.37973642 0.37324926
000050 e7 cf 92 3e af ce a4 3e 6d 19 0b 3f a0 21 8d 3e
       0.28674242 0.32188937 0.5433567 0.27564716
000060 17 9c be 3e 34 ab 38 3f 92 3a bb 3e 48 dc 9d 3e
       0.37228462 0.72136235 0.36568123 0.30832124
000070 84 74 17 3f 89 74 11 3f f9 68 0b 3f c5 14 40 3f
       0.59162164 0.56818444 0.5445705 0.7503169

layer2.3.bias f4 [32]
000000 d6 74 85 bd 2c 24 c4 bd aa 0c 1b 3e 6f ae 6f bd
       -0.06516425 -0.09577212 0.1514155 -0.058515962
000010 a7 a0 3e be 3d 0f 44 3d 6f 14 da bd 31 52 f2 bb
       -0.18615972 0.047866095 -0.10648429 -0.007395052
000020 e4 79 e3 bd 29 2c 0f 3c 55 96 03 3d 74 8b 81 3c
       -0.11107233 0.008738556 0.03212579 0.015813567
000030 e5 34 3d be 9a dc aa bd 33 0e a8 bd c7 9a af 3d
       -0.18477209 -0.08342858 -0.08205833 0.08574443
000040 01 d7 ce bd 16 8c 82 3b 97 64 c3 bd 00 d1 7d 3c
       -0.100996025 0.0039839847 -0.0954067 0.015491724
000050 ee cb b8 bd cb 43 27 3e 2e c1 60 be 46 fd a8 3c
       -0.090232715 0.16334455 -0.21948692 0.020628583
000060 fc 0e 06 be 2b 82 06 be 00 46 d4 bd a6 a6 a0 bd
       -0.13091654 -0.13135593 -0.10364914 -0.07844286
000070 6a 5a ce 3d a8 12 74 bd d1 49 f0 bd 53 12 a8 bd
       0.10075839 -0.059588104 -0.11732829 -0.0820662

layer2.3.running_mean f4 [32]
000000 a1 22 32 be 6b 30 9c be 30 8b 57 3e b2 35 c4 bf
       -0.17396022 -0.3050569 0.2104919 -1.5328887
000010 15 38 c8 be cd a5 12 bf fa 55 7d be 34 7c 8f bf
       -0.39105287 -0.5728424 -0.24739829 -1.1209779
000020 4f 12 d5 be 92 d7 99 be bf 45 19 bf 17 30 13 bf
       -0.4161553 -0.3004728 -0.5987205 -0.57495254
000030 f0 92 3f bf b0 5c 09 bf 41 a5 4c bf c5 3a d4 bd
       -0.74833584 -0.53657055 -0.7993966 -0.10362772
000040 39 41 15 be fd ee 32 bf ab 75 fb bd 43 39 11 bf
       -0.14575662 -0.6989592 -0.12278303 -0.56728
000050 35 df 5f bf 1c aa 69 bf 54 6f e7 be 88 71 ab bf
       -0.8744996 -0.9127519 -0.45202124 -1.3394022
000060 5b 08 b1 be 57 38 5e bf 44 2d 55 bf 35 04 35 bf
       -0.34576687 -0.8680472 -0.83272195 -0.70709544
000070 5c 1f 2c be 41 db d7 be 0d 60 65 bf 1d 4d 2f bf
       -0.16808838 -0.42159465 -0.89599687 -0.6847704

layer2.3.running_var f4 [32]
000000 a7 bd 31 3f 86 b5 55 3f 36 6b c6 3f 6e d0 d4 3f
       0.6943001 0.8348011 1.5501468 1.6626108
000010 f5 eb 42 3f e9 18 56 3f 82 a9 2b 3f d3 cd 0a 3f
       0.7614129 0.8363176 0.67055523 0.5422031
000020 7c df 9a 3f 29 2c 74 3f b1 fb 63 3f f0 e0 24 3f
       1.2099452 0.95379883 0.89055926 0.6440573
000030 09 10 20 3f 18 ed 64 3f 89 af d2 3f 35 1f 7f 3f
       0.6252447 0.89424276 1.6459819 0.99656993
000040 9a af 5b 3f bb f0 97 3f 4b 0e 55 3f 38 fd 61 3f
       0.8581482 1.187034 0.83224934 0.88277006
000050 f9 4e 43 3f 50 15 00 3f c8 38 4c 3f 41 c7 e6 3e
       0.7629238 0.5003252 0.7977414 0.45073894
000060 7c 8e 45 3f 9a c4 b8 3f b0 2f fe 3e 0d 35 17 3f
       0.7717054 1.4434998 0.49645758 0.59065324
000070 45 45 d0 3f 91 a7 6d 3f 4d aa 6d 3f a8 a4 ab 3f
       1.6271139 0.9283381 0.92837983 1.3409624

layer3.0.weight f4 [32, 32, 3, 3]
000000 fd da 1b 3d 73 cf f6 bd 4b 00 e3 bd 2e e4 84 bb
       0.03805064 -0.120512865 -0.1108404 -0.0040555215
000010 b9 73 d7 3d 9c f7 6b bd aa 2c cd bc cc de 6d bd
       0.10520119 -0.057609186 -0.025045712 -0.058073804
000020 6c fa 79 bd 96 b9 fb bd 97 86 29 be e7 c5 2b bd
       -0.061029837 -0.12291257 -0.16555248 -0.04193678
000030 f4 a8 6c bd 61 b8 66 be bc 27 76 bc cf f6 6d 3d
       -0.057778314 -0.22531272 -0.015024122 0.058096703
000040 79 b4 70 be 61 4f ad 3d a2 ab 10 bc d9 b8 17 3e
       -0.23506345 0.08462406 -0.008829983 0.14816608
000050 a4 a0 d0 3c d0 bf 90 bd 16 2a 2a 3e 76 eb 2b 3d
       0.025467224 -0.07067835 0.16617617 0.0419726
000060 d6 87 99 3d f2 4a 28 3e d7 54 09 3d a4 b2 e2 bd
       0.07496612 0.1643484 0.033528175 -0.11069229
000070 35 a7 0b bc 78 c2 0b 3e 3d 8d 74 ba a7 84 3b 3e
       -0.008523752 0.13648403 -0.00093289075 0.18312322
000080 8a 6a 68 3d c5 e4 60 3d 28 92 10 3e 42 e7 bf bd
       0.05674223 0.05490567 0.14118254 -0.09370281
000090 af c7 58 be 8b 6a 5a be 96 22 bd bd e8 5d ab be
       -0.21169923 -0.21329705 -0.09235112 -0.33470082
0000a0 b4 7d a8 bd c6 2a 34 3d 03 4c e2 bd ad 08 a4 bd
       -0.08227101 0.043986104 -0.11049654 -0.08009467
0000b0 e9 91 35 be 59 53 95 3d 0b 7c 29 3e a5 99 29 3d
       -0.17731442 0.07291288 0.16551225 0.041406292
0000c0 d0 86 b9 3c a4 23 5c 3d 74 83 75 3e 77 46 64 3e
       0.022647291 0.053744927 0.23975927 0.22292505
0000d0 9c d0 aa 3e 49 dc e3 3c 05 41 22 bd 15 65 5b be
       0.3336228 0.027815001 -0.03961279 -0.21425278
0000e0 eb 88 e1 bb 48 00 10 be 6a 69 14 be af fd da bd
       -0.006882777 -0.14062607 -0.14493337 -0.106929176
0000f0 72 a7 a9 3d 22 b3 9d be 58 70 6b be 4a 5c e0 bd
       0.08283891 -0.3080073 -0.22992074 -0.10955103
000100 2c 43 f2 be d7 e8 cf bd 07 e5 29 3e 31 49 2a 3e
       -0.47316873 -0.101518326 0.16591273 0.16629483
000110 8c e0 0b 3e 46 18 b3 3d b1 dd 70 3e 12 68 0c 3e
       0.13659877 0.08744864 0.23522069 0.13711575
000120 c8 a3 5a be 01 ee 16 3e 4f 62 95 3b 62 eb 5a 3d
       -0.2135154 0.14739229 0.0045588384 0.053447135
000130 3b 8c 01 3e 07 a2 78 3d e7 8f 73 bd 19 04 49 be
       0.1265115 0.060701396 -0.059463408 -0.1963047
000140 a5 b4 75 3b 28 7c 4d 3c 38 0a 1c bc ea fe da bd
       0.0037491706 0.012541808 -0.009523921 -0.10693152
000150 48 65 34 bd c7 b9 23 3e 06 1b af bc 7e f2 ed bc
       -0.0440419 0.15988837 -0.02137519 -0.029046293
000160 96 21 e1 be 05 42 60 3e 67 52 a4 3d 8a ca 17 be
       -0.43970937 0.21900184 0.080235295 -0.14823356
000170 be 26 fe bc c2 8b eb 3c 3b 26 c8 3c 82 8b f9 bb
       -0.031024333 0.028753165 0.024432292 -0.0076155076
000180 b9 ce f5 bb 27 0e 38 be f7 72 80 bb db 9e ee 3d
       -0.00750145 -0.17974149 -0.003919955 0.11651393
000190 7f 89 97 be e9 7c e2 bd 95 3b 7a be 81 f9 92 bd
       -0.2959709 -0.11058981 -0.24436791 -0.07176495
0001a0 27 5a cd 3c 55 e1 29 bd 78 71 8c 3e 95 98 ff bd
       0.025067402 -0.04147466 0.2743032 -0.124802746
0001b0 93 96 97 be 10 07 f5 bd 49 ab 3d 3e 82 46 d2 bd
       -0.29607067 -0.11964238 0.18522371 -0.102673545
0001c0 70 7b 0d be b9 6c ba 3b 97 3f 1d be d4 a7 c4 bd
       -0.13816619 0.0056892303 -0.15356289 -0.09602323
0001d0 30 98 b6 bb fe 8c 00 be ea 87 95 bb 8d ed ba 3d
       -0.0055723414 -0.12553784 -0.0045633214 0.091273405
0001e0 22 34 59 3e cf f4 d2 3a c5 8e e6 bc a2 da 41 3e
       0.21211293 0.0016094687 -0.02814425 0.18931058
0001f0 75 dd 01 3e 50 69 19 3e d7 92 1d 3b ed a9 52 be
       0.12682135 0.1498158 0.0024043822 -0.20572634
000200 a9 05 22 3d 02 45 80 3c a7 28 31 bd 28 18 b6 bd
       0.03955618 0.015657905 -0.04325166 -0.08891326
000210 75 54 97 3b d4 88 be bd 22 51 34 bd 0c 29 23 bb
       0.0046182224 -0.09303442 -0.044022687 -0.0024896292
000220 0a 29 ea 3d f5 41 38 be 44 fd 65 bd d1 c1 c4 3c
       0.11433609 -0.1799391 -0.056149736 0.0240182
000230 78 09 52 3d 0c d3 4a be 1b b5 b8 bd 89 ca af 3d
       0.05127856 -0.1980707 -0.09018918 0.085835524
000240 2e 85 24 be fc f3 42 be 97 d6 cf 3c 02 7a 34 be
       -0.16066429 -0.19038385 0.02537088 -0.17624667
000250 21 ad 75 be a1 ab f8 bc 44 44 45 bc 20 a7 e3 be
       -0.23991825 -0.030355277 -0.012040202 -0.44463444
000260 9c 6d 8b 39 e4 07 47 bd dc 87 10 3d 02 5a 40 3d
       0.0002659381 -0.04859151 0.035285816 0.04696084
000270 70 66 0c bd df 81 0f bc a4 5d 29 3d df 76 a7 bc
       -0.03427738 -0.008758991 0.04134907 -0.020442424
000280 48 3a 31 be 4d c5 f2 3d 68 3d 1b bd 85 31 c2 bd
       -0.17307389 0.118540384 -0.03790036 -0.09482101
000290 50 d1 6c 3d 02 d9 c7 3d b9 aa 69 be b9 23 25 bc
       0.057816803 0.09758188 -0.22819032 -0.010079318
0002a0 55 0a 9f 3d af e4 37 be 92 e0 18 3e c1 1f ca 3d
       0.077656426 -0.1795833 0.14929417 0.09869338
0002b0 37 03 07 3d 66 49 06 3e a7 ac af bd 60 00 5f 3c
       0.03296205 0.13113937 -0.08577853 0.013610929
0002c0 d7 86 79 3e 89 07 16 bd de 34 84 3e df 8f 1e 3e
       0.24367844 -0.03662828 0.25821584 0.1548457
0002d0 e3 1c 26 be 86 7c 2c 3d 2d 80 55 3d cc d5 b4 3d
       -0.16221957 0.042110942 0.05212419 0.08829841
0002e0 19 23 6d bc 42 ca 62 3c 23 c4 54 bc 6e 23 de bd
       -0.0144737 0.013842167 -0.012986216 -0.108466014
0002f0 b5 b3 7e 3d 2c fc 99 be c5 81 bd 3d 63 42 1f bd
       0.0621831 -0.30075204 0.09253267 -0.03888167
000300 f8 bf b2 bd 67 95 f0 3b ba 96 97 bc 4a e2 56 3d
       -0.087280214 0.007342029 -0.01850449 0.0524619
000310 02 9f a3 3d 4a 27 11 be aa 4d 8e 3c 3b 16 58 3d
       0.07989313 -0.14175144 0.017371017 0.052755576
000320 6f d2 5c 3d 90 89 1c be 15 7c c7 be 8e 6a 6d 3d
       0.053911623 -0.15286851 -0.38961855 0.057962947
000330 18 8c 0c bc 21 05 39 be 70 69 06 3e 2d 41 3e be
       -0.008578323 -0.18068363 0.13126159 -0.1857955
000340 b8 58 94 bd e5 45 0c bd cb bf 3c 3d 56 0d 3a 3e
       -0.07243484 -0.034246344 0.046081346 0.1816915
000350 4d 0c 93 bd 41 18 f1 bd c7 56 54 bb b0 78 3a 3e
       -0.071800806 -0.11772204 -0.0032400356 0.18210101
000360 60 47 42 be da 90 66 3d e0 3e 64 bd 12 58 bc bd
       -0.1897254 0.056290485 -0.055724025 -0.091964856
000370 af 67 ed bd 9f 4d a6 bd e1 4e 2e be f3 8f ee bd
       -0.11592042 -0.08120274 -0.17022277 -0.1164855
000380 f4 a1 95 bd 12 dd 6e 3d 16 b7 7d 3e 11 fb 0d 3e
       -0.07306281 0.058316298 0.24776873 0.13865305
000390 35 7c b3 bd bd 82 80 3b 88 70 2a bd 22 c7 54 bd
       -0.08763925 0.003921835 -0.041611224 -0.05194772
0003a0 53 c5 70 be e2 56 0a be c8 dd 2a be b8 89 57 be
       -0.23512773 -0.13509706 -0.16686165 -0.2104863
0003b0 cb 4f 25 be b3 17 c5 bd d6 3a 4a be a9 0f 6e bd
       -0.1614372 -0.09623661 -0.19749007 -0.058120403
0003c0 f4 f5 2b 3c 70 60 a7 bd 26 1a 85 3d 73 03 e2 3c
       0.0104956515 -0.08172691 0.06499128 0.027589535
0003d0 47 7d 3d 3d f0 1d 3a 3d 03 f3 da 3d 8b 12 d7 bc
       0.046262052 0.045438707 0.10690882 -0.02625396
0003e0 4f 24 35 3d 67 0e 99 3b 27 a1 35 be e4 68 22 be
       0.04422408 0.0046709063 -0.17737256 -0.15860325
0003f0 7b 28 9e bc cc a3 48 3d b3 a6 8c bd 8d ca d9 3c
       -0.019306412 0.048984334 -0.06867733 0.026585842

layer3.0.bias f4 [32]
000000 ae 48 6b bd a2 cd a5 3d 0e 4f 04 bc ff 61 7c 3d
       -0.05744236 0.08095862 -0.008075489 0.061616894
000010 5a 50 28 3e 48 47 4b 3e a9 d3 ca 3d 2a 8c ff 3d
       0.16436902 0.1985141 0.09903652 0.12477906
000020 86 41 07 bd 2d db 94 3d 46 47 a7 3d 36 e7 01 bd
       -0.033021472 0.07268367 0.08167891 -0.03171464
000030 16 55 10 3d da d9 47 3d d9 41 a9 3c 9d 9c 1f 3c
       0.035237394 0.048791744 0.020661281 0.009741929
000040 e9 99 d4 bb 51 12 68 3d c1 f2 b6 3d 3d 44 63 3e
       -0.006488074 0.056658093 0.089330204 0.22194
000050 43 ca 51 bd f3 8b f4 bc cc 34 59 3e 49 60 88 3c
       -0.051218282 -0.02985189 0.21211547 0.016647475
000060 7c 94 34 3d 29 8c 31 bc 70 b4 71 bc 55 ec c9 bb
       0.04408692 -0.010836639 -0.014752492 -0.006162206
000070 b0 3e 12 3e 49 2f 7f 3d 6b 21 a7 3d 33 14 86 3d
       0.14281726 0.062300954 0.08160671 0.065468214
