data/net_new.pth (torch_old, 566991 bytes, 34 tensors)

layer1.0.weight f4 [32, 3, 3, 3]
000000 bf e9 b7 3d ff 80 13 3c f5 3a 3a be 82 23 9a 3d
       0.089801304 0.009002923 -0.18186553 0.07526304
000010 e1 2e 92 3d 14 50 ac 3d 49 8d e3 bc 9e 1e a2 bc
       0.07137848 0.08413711 -0.027777331 -0.01978999
000020 ed 48 c2 bd db 0e 6e 3e 7a 7e 1b bd d6 fc 2b be
       -0.09486566 0.23247854 -0.037962414 -0.16795668
000030 bc e2 db 3d 1b c9 05 be 5d c1 31 3e 83 53 03 be
       0.107366055 -0.13064997 0.17358918 -0.12824826
000040 0e 1c 09 3d c2 a5 08 be 5f d8 20 be ea ae 1e 3e
       0.03347402 -0.13344482 -0.15707539 0.15496412
000050 ca a2 ae 3d 51 2a 0f 3e 4e 92 3f be a2 9e 3c be
       0.08527143 0.13980986 -0.18708155 -0.18419889
000060 00 5b 79 3d dc 67 68 bd 78 55 f3 3d 2a 91 39 be
       0.0608778 -0.056739673 0.11881536 -0.18121782
000070 62 17 bd bd 23 b0 19 3e 04 8b 4f 3e 64 64 32 3e
       -0.092329755 0.15008597 0.20267874 0.17421108
000080 61 7b 4d 3b bd 54 75 bd 59 4d e9 bd f8 e3 11 be
       0.0031354057 -0.059895266 -0.11391706 -0.1424712
000090 3a b6 e2 bd 22 a6 30 bc 0c 03 1d bd 48 3c 1a 3e
       -0.11069913 -0.010781797 -0.038332984 0.15062058
0000a0 60 f8 cd bd d0 11 24 3e 43 16 42 bd fc 53 0b 3d
       -0.100571394 0.1602242 -0.04738451 0.03401564
0000b0 65 09 42 be af 62 d9 3d 07 b7 18 be 0a 6d bd 3c
       -0.18948896 0.106145255 -0.1491357 0.023123283
0000c0 b0 0c 9f bd 55 b8 93 ba dd 78 5a 3e 20 77 de 3c
       -0.07766092 -0.0011270145 0.21335168 0.027156413
0000d0 a7 22 a5 3d 81 12 5b be 9e 89 de bb 33 2e ca bc
       0.0806325 -0.21393777 -0.0067913076 -0.024680233
0000e0 38 42 e2 bc a6 8e a3 3c c4 fa 75 be d2 5f 3f bd
       -0.027619466 0.019965481 -0.2402144 -0.04672224
0000f0 02 04 85 3c 0a eb 30 3e 33 aa 83 3e 99 da b2 bd
       0.016237263 0.1727716 0.2571579 -0.087331004
000100 5f 42 4c bd 0c 24 ef bd 8a 38 49 bd e9 06 62 3c
       -0.049867984 -0.11676797 -0.049126185 0.013795593
000110 4e 10 ff bb 7e 8b a1 bd 06 d5 1f bd e5 c3 1c 3e
       -0.007783926 -0.07887934 -0.039021514 0.15309103
000120 7c 37 4a bc 70 3b 27 be 3c 47 d5 3d e4 76 6f 3d
       -0.01234233 -0.16331267 0.104139775 0.058462992
000130 20 dc a5 3c e3 c6 90 3d a7 8d 30 bc 88 0e 05 be
       0.020246565 0.07069185 -0.01077596 -0.12993824
000140 3a 4b 5a 3e 2d fb 02 be 39 9b 1f 3e c9 4f 17 3e
       0.21317759 -0.12791128 0.15586556 0.1477653
000150 20 04 42 be cc 63 e4 bd b0 bc 00 3e 22 5a ac bd
       -0.18946886 -0.11151847 0.12571979 -0.08415629
000160 37 4a 27 3e fb 7c a4 bd 5a aa a9 bd e0 0e 80 3d
       0.16336904 -0.08031651 -0.08284445 0.06252837
000170 77 e9 ad 3c 4c fd bc be 63 3f 73 3e 9a a7 ac 3d
       0.021229489 -0.36912 0.23754649 0.08430405
000180 29 d0 5d 3d 38 d1 cb bd e2 78 9c 3d 90 ed af 3c
       0.054153595 -0.09952015 0.07640244 0.021475583
000190 8c 1f 1a 3e e5 64 e7 3d bd 0e c1 bd 23 49 31 be
       0.15051097 0.11298541 -0.09426639 -0.17313056
0001a0 00 2a ff bd 7e 4e 2c be 9f 34 3c 3e 38 0f cb 3d
       -0.12459183 -0.16826817 0.18379448 0.09915012
0001b0 b3 56 1c be d7 68 a6 3d 71 fd dc 3d 54 6f b4 bd
       -0.15267448 0.08125465 0.107905276 -0.08810297
0001c0 9d fc f4 3c d2 ab fb 3d 9e 34 9f 3d ed 7d 55 be
       0.029905612 0.122886315 0.07773708 -0.20848818
0001d0 f5 32 01 3e fe e5 4d bb 73 5e f8 bd 2e cb 4c 3e
       0.12617095 -0.0031417604 -0.1212739 0.19999382
0001e0 18 9f 0e be 6d 68 a4 3d ae 6e 67 3e 43 ab 05 be
       -0.13927877 0.0802773 0.22600815 -0.13053612
0001f0 23 cc 69 3d c8 cb 6a bd 4e 4a 92 3d 28 db fb bd
       0.057079446 -0.057323247 0.07143079 -0.1229766
000200 46 11 a0 3d cd 71 d4 bb 63 12 35 3e 1d 93 84 3d
       0.07815795 -0.0064832927 0.17682795 0.06473372
000210 80 50 c8 bd c0 6b ea bd cd 85 28 bd de 08 0b 3e
       -0.09780979 -0.11446333 -0.041143227 0.13577601
000220 2c 53 58 be 86 f8 28 bd 4e c8 cd bd d8 ea 1f be
       -0.21125478 -0.041252635 -0.10047971 -0.1561693
000230 17 3e ea 3c 3a 64 18 3e be 11 05 bd 2b c8 c7 3d
       0.02859406 0.14881983 -0.032487623 0.09754976
000240 a2 ca 9c bc 46 40 e1 3d bc 03 f2 bd 98 7c f9 3d
       -0.019139592 0.10998587 -0.118171185 0.121819675
000250 e3 0e da 3d da 4d 60 bd d7 15 41 be 4b 7c 4e 3d
       0.10647371 -0.054761745 -0.18855987 0.050411504
000260 b8 8e 5d 3d 2c a0 26 be 93 aa 44 be dd 03 0e bd
       0.054091185 -0.16272038 -0.19205694 -0.034671653
000270 54 86 af 3d 22 03 5b 3d 3c 9c ff bd 6e 9c 82 3d
       0.08570543 0.053469785 -0.12480971 0.06377493
000280 a3 bf 10 be 29 22 27 3e 8c b5 a1 bd 95 b2 13 3d
       -0.14135604 0.16321625 -0.078959554 0.03605898
000290 eb 05 ce bd 7f a2 6c 3d 5e 5a be 3c d0 4a 69 3e
       -0.100597225 0.057772156 0.02323645 0.22782445
0002a0 24 43 04 be ae cd 1c 3e 0a 55 34 be b7 a7 9f bd
       -0.12916237 0.15312836 -0.17610565 -0.07795661
0002b0 e9 80 ea bc 6e 0d 04 be c6 3f aa bd 5d 05 95 3e
       -0.028625922 -0.12895748 -0.08312945 0.29105654
0002c0 15 de 90 3e 97 9f a2 bd 26 ec 4b 3d c2 96 40 be
       0.28294435 -0.079405956 0.049785756 -0.1880751
0002d0 85 37 00 be 31 e5 01 3e ee 29 00 be 4d d1 7d 3d
       -0.12521179 0.12685086 -0.12515995 0.061967183
0002e0 d5 6e 07 3e f1 2b 38 bd 30 85 e9 bc ed e6 e4 bc
       0.13225873 -0.04496378 -0.028505892 -0.027942145
0002f0 21 dd fe 3c d8 08 d5 bd 06 b3 6d 3e 76 9e 2b be
       0.031111302 -0.104020774 0.23212823 -0.16759667
000300 bc f6 09 3e 3d e4 5e 3d 32 7c 12 bd 41 31 c8 3d
       0.13473028 0.054416884 -0.035762973 0.097750194
000310 61 d6 1a be 93 9b f8 bb e1 ad 67 3e 73 e5 c4 bc
       -0.15120842 -0.0075869053 0.22624923 -0.024035191
000320 1a 7d 26 be 69 cc 03 3e 2c 32 fc bd 2e 42 07 be
       -0.1625866 0.12870945 -0.12314257 -0.1320884
000330 61 2f 80 bd 3d 05 13 3e a7 8b be 3c 68 c1 12 3e
       -0.06259037 0.14357467 0.02325995 0.14331591
000340 1e 24 83 bd c1 12 81 3d 72 57 8c 3d 59 b3 b1 3c
       -0.06403373 0.06302405 0.06852616 0.021691965
000350 49 16 96 3d fe 0b 31 be a2 f7 34 bd f1 d5 3f 3d
       0.07328469 -0.17289731 -0.044181474 0.04683489
000360 02 c7 63 be dd 2c 7b 3d df b3 04 3e 6d 93 54 3e
       -0.22243884 0.06132208 0.1295924 0.20759363
000370 9a ef 04 3e 4f 4a 98 be c9 c3 ce bc b0 d6 c5 bd
       0.12982026 -0.29744193 -0.025239842 -0.09660089
000380 76 0b 83 be 25 b5 f9 bd 12 1a 9b 3d 9f e1 18 3d
       -0.25594682 -0.12192754 0.07573332 0.037324544
000390 5d d7 28 3e f1 58 27 3e d4 29 e6 be 29 3e a2 3c
       0.16488405 0.16342522 -0.44953787 0.01980503
0003a0 79 76 77 be aa 6d cc be a6 f9 03 bd cc 1f 93 bc
       -0.24166287 -0.39927417 -0.032220505 -0.017959498
0003b0 4b dd 29 3e 9f b8 2c bc 44 93 49 bd d5 0a 14 be
       0.16588323 -0.010542064 -0.04921271 -0.14457257
0003c0 fb f1 a4 3d a5 26 59 bc b9 13 c1 bd 2c f6 d5 3d
       0.080539666 -0.0132538425 -0.0942759 0.10447344
0003d0 03 05 1b bd 91 b1 be 3c 8d b2 2e bb 30 e9 e7 bd
       -0.037846576 0.02327803 -0.0026656718 -0.11323774
0003e0 6b bc 2c bd bc 04 3d bc c9 80 74 bd 7b 51 bf 3d
       -0.042171877 -0.011536773 -0.05969313 0.09341713
0003f0 a1 58 63 3e d9 73 52 be e2 78 e4 bd 52 67 28 3e
       0.22201778 -0.20552005 -0.11155869 0.16445664

layer1.0.bias f4 [32]
000000 32 17 03 3e ac 3f 16 3e a5 cf 89 be 75 6b 0f bd
       0.12801817 0.14672726 -0.26916233 -0.03501459
000010 44 0c db bd e5 58 95 bd e4 e1 b5 bb 0f b3 c7 bd
       -0.10695699 -0.07292346 -0.00555061 -0.097509496
000020 91 39 8c 3c b5 a8 36 3d eb c3 45 3e 75 93 d4 bd
       0.017117294 0.044594485 0.19313018 -0.10379688
000030 9d 69 0e be 1e 35 d9 bc c8 cb 0a bd 66 1f 86 be
       -0.13907476 -0.026514586 -0.033885747 -0.2619583
000040 8f a9 d6 3c e7 65 f5 3d 9f 49 19 3e 66 df dc bd
       0.026203899 0.11982327 0.1496949 -0.10784797
000050 ca 2f 90 bd 71 ff 45 3d 18 fd 76 3c 47 6f 63 3d
       -0.07040365 0.04833931 0.015074991 0.055526044
000060 22 f8 86 bd c4 bf 90 bd af c4 0d 3e 0c d4 ef bd
       -0.06590296 -0.070678264 0.1384456 -0.117103666
000070 5e 00 04 be 60 95 83 bd c1 61 48 bd 91 5d 37 bb
       -0.12890765 -0.064249754 -0.04892135 -0.0027979354

layer1.2.weight f4 [32, 32, 3, 4]
000000 e8 0f 35 3c 6e d5 0f 3d 1f 9b 30 3d 8c 1f 11 bd
       0.011051156 0.03511565 0.043116685 -0.035430476
000010 1c b6 12 3d 65 e4 c3 bb 2a 2e 7d ba f9 2f 02 bd
       0.035818204 -0.0059781545 -0.0009658063 -0.03178403
000020 48 9b a7 bd cd 85 54 bb 7a 53 9b bd 33 3b c1 3c
       -0.081839144 -0.0032428384 -0.07584281 0.023587799
000030 61 83 f0 3d 3a 26 98 3d 2a 21 c7 3b ee 73 a9 bc
       0.117438085 0.07429166 0.0060769515 -0.020685162
000040 88 a7 06 3e f6 54 0c bd 53 2c e3 bd 1d 89 ff bd
       0.13149846 -0.034260713 -0.110924385 -0.12477324
000050 fb 58 0b be a8 fe 98 3d 74 49 8f bc 5e 68 fc bd
       -0.13608162 0.07470447 -0.01749108 -0.12324594
000060 67 7e e6 bd bd be b7 3d aa b9 01 3e ab 9e de 3c
       -0.11254578 0.08971927 0.12668481 0.027175268
000070 e0 ee 33 3e cb 5a 1d 3e 25 63 f1 bb 8b 6f d3 bd
       0.17571592 0.15366666 -0.0073665553 -0.103240095
000080 fd cb 9e 3d 21 f5 4c 3d 93 25 d0 bd a7 6e 6c bd
       0.077537514 0.05003846 -0.10163417 -0.057722714
000090 26 82 c2 3c 9e 3f 13 b9 75 bd 7f 3c f0 d7 8e 3d
       0.0237437 -0.00014042712 0.015609135 0.069747806
0000a0 53 6f af 3d c3 3a 8c 3d ba 41 ca 3d 4f aa 61 3d
       0.08566155 0.068471454 0.098758176 0.05509406
0000b0 0d b9 29 bc f1 c4 18 3d 06 6e ac 3c 53 bc 8e bd
       -0.010359061 0.037297193 0.021048557 -0.06969514
0000c0 10 fb 58 bc 51 55 20 bd 59 f8 c8 bc 4a 27 ea 3c
       -0.013243452 -0.039143864 -0.024532484 0.028583188
0000d0 23 a5 80 3c 04 20 18 3d 0d a0 f5 bb 34 fc aa bc
       0.015703743 0.037139907 -0.007495886 -0.020872213
0000e0 c9 9f 0a bc a3 47 a5 bd 23 5c b1 bd 93 2a 03 3d
       -0.008460947 -0.08070304 -0.08660152 0.032023024
0000f0 88 7d 75 3d ea 7a 23 3c 61 ce 9b 3c 0b e3 20 bd
       0.05993417 0.009978035 0.019019308 -0.039279025
000100 89 e3 43 3c 3d 5c 3a bb f9 ae 77 bb 0f 2e 78 bd
       0.011956104 -0.0028436326 -0.00377935 -0.0605908
000110 dd 71 a9 bb d9 3b a9 3c 93 e1 bf bc b7 a0 6b bc
       -0.0051710443 0.02065842 -0.023422992 -0.014381579
000120 b9 d3 e0 3c ad c5 ba 3d ed 28 c0 3d 4f 01 af bd
       0.027444707 0.09119735 0.09382806 -0.085451715
000130 af 5c 8a bd 99 80 72 bd 95 07 22 3c 68 02 a4 bd
       -0.06755959 -0.05920467 0.009889503 -0.080082715
000140 d1 f1 47 3d ae b8 23 3d d3 04 4b 3c b8 ca 32 bc
       0.0488146 0.039971046 0.012391287 -0.01091259
000150 66 8b 94 bc 04 74 c1 bd 6b 58 a0 3b 67 57 68 3a
       -0.018132877 -0.09445956 0.0048933527 0.00088631216
000160 37 c7 3d bc 8e bd 20 bd 7f b5 6e 3d b7 e3 bd 3b
       -0.011583141 -0.039243273 0.058278557 0.005794968
000170 b2 e3 3b 3c 8f 77 44 3c 97 7c b4 bc ab 66 01 bd
       0.011467861 0.011991396 -0.022032065 -0.031592052
000180 e9 c0 61 3d 90 d7 91 3d 20 07 a1 3d 2a ac 50 3c
       0.055115614 0.071211934 0.07862687 0.01273636
000190 1a 7a 0e 3d 64 57 3a 3d 3a 05 90 3d 22 d3 f6 bc
       0.034784414 0.0454935 0.07032247 -0.030129973
0001a0 b4 28 72 3d ba 28 07 3e ba b8 1e 3d 7b 10 4d bd
       0.05912085 0.1319913 0.038750388 -0.050064545
0001b0 e5 78 1b bd 04 2a 39 3d e0 ea 3d 3d 90 59 9d bb
       -0.03795709 0.045206085 0.046366572 -0.0048019364
0001c0 39 1a 16 3c 3f 14 da 3c dc 90 e1 3d 84 bf de bc
       0.009161525 0.026620982 0.11013958 -0.027190931
0001d0 ea 78 61 bc 96 d5 64 bd 59 f6 a9 bd 47 9c 8f bd
       -0.013761738 -0.055867754 -0.0829894 -0.070122294
0001e0 41 8f 15 bd f9 8e e4 bd 0a 3f 90 bd ad f8 14 bd
       -0.03651357 -0.11160082 -0.07043274 -0.03636997
0001f0 6f 21 85 bd 6a 95 15 3a 78 4d af bc e5 0b 99 bc
       -0.065005176 0.00057061634 -0.021399245 -0.01868243
000200 f3 25 37 bc 2e e8 98 ba d6 56 b2 3c 24 63 cb bb
       -0.011178481 -0.0011665875 0.021769922 -0.006206887
000210 c8 76 82 bd eb 09 1d be 19 cf c8 bd da bf 11 be
       -0.06370312 -0.15335815 -0.09805126 -0.14233342
000220 e5 24 e4 bd e0 57 ea bd 82 4e 00 bd 05 52 86 bc
       -0.111398496 -0.11442542 -0.03132487 -0.016396532
000230 a1 dd 92 3c fc 7b 03 bd 41 cf f2 3c 56 da 6b bc
       0.017927947 -0.032100663 0.029639842 -0.014395317
000240 06 61 c7 bc 5c ad e8 bb 16 1a 39 3d 48 fd 6c bd
       -0.024338257 -0.007100744 0.045190893 -0.057858735
000250 fb eb be bc 6e 67 4d bd 00 4f 26 bd 40 35 2c bd
       -0.023305884 -0.050147466 -0.040602684 -0.04204297
000260 d5 e3 3c bc 87 ee 75 bd cf cf 25 bd 94 54 90 bc
       -0.011528929 -0.06004193 -0.040481385 -0.017618455
000270 fc b6 b7 3c b3 5f 60 3d b9 10 80 3d e9 8b 70 3c
       0.022426121 0.054778766 0.062531896 0.014681795
000280 dd 68 c4 3c ff 5d ab 3b e1 7c d8 3d e0 f5 1e 3d
       0.023975784 0.005229711 0.10570694 0.038808703
000290 84 45 15 bc 6d a6 52 bc f1 81 b1 bd d1 5c 2e bd
       -0.009110812 -0.012857062 -0.086673625 -0.042568985
0002a0 78 cd 23 bc b7 6d fc bd 68 f0 3e bd 7f cd 2a bb
       -0.009997718 -0.12325614 -0.046615988 -0.0026062427
0002b0 7e 7c ba 3c 63 d3 60 3c 4a 3f 28 3d 31 15 8d 3d
       0.02276444 0.0137222735 0.041075982 0.068888076
0002c0 b7 ea 9e 3d 9f af 49 3d e2 ed 59 3b 5d 3a 0d 3b
       0.07759612 0.04923975 0.0033253361 0.002154968
0002d0 00 96 9d bd 24 f2 e8 bd b1 3d 6f bd 8d a4 bd 3c
       -0.07694626 -0.1137431 -0.058408443 0.023149753
0002e0 44 e5 85 bd 60 96 1c 3d ea 53 55 3d 7c e4 17 3c
       -0.065378696 0.038229346 0.05208198 0.0092707835
0002f0 a8 ae 40 bd 8a 60 c6 3d ff ba ad 3d 5a c6 a4 3d
       -0.047041565 0.09686382 0.08482932 0.08045645
000300 d3 a3 a0 3b f3 eb 32 bb b4 8c a3 3d ce a1 93 3d
       0.004902342 -0.0027301281 0.07985821 0.07208596
000310 73 f4 4e bd ce 20 c3 bd 33 e9 c8 3c b7 46 05 bd
       -0.050526094 -0.095277414 0.02452526 -0.032538142
000320 86 25 17 3c 0b d0 c4 3c 67 4b 30 bc a5 70 7d bd
       0.009225255 0.024024984 -0.010760165 -0.061875004
000330 1b a2 90 bd 4b b8 8d bc 40 6c 2b 3c 99 2b e9 3c
       -0.07062169 -0.017299792 0.0104628205 0.028463172
000340 cd 7a 7e 3c 58 ee 2b bd 94 2d df bc 24 82 7f bd
       0.015532208 -0.04197535 -0.027243413 -0.06237997
000350 ec b2 ae 3d 40 1a 0f 3d 4d b6 9a bb a3 62 c3 bc
       0.085302204 0.034937143 -0.004721439 -0.023850745
000360 6d 71 39 3d 3f f1 c8 3d 0b f5 29 3d 4c 38 9e bc
       0.045274187 0.09811639 0.041493457 -0.019313954
000370 31 30 8c 3d bc 61 30 bb 96 8d e1 3c a0 06 01 b6
       0.06845129 -0.0026913723 0.027533334 -1.9226354e-06
000380 29 e3 c1 bd 3b f4 40 bd 1a 5b a9 3c 46 f0 f3 bb
       -0.094671555 -0.047107916 0.020673323 -0.0074444143
000390 36 e0 5a bd d6 2e e0 bc b3 33 4e bc 00 61 b0 bd
       -0.05343648 -0.027366083 -0.012585568 -0.08612251
0003a0 24 03 d6 3d ec 26 33 3e 7c 78 e0 3c cf bb c8 bd
       0.10449818 0.17495316 0.027401201 -0.09801447
0003b0 3a cc dd 3d 50 22 c5 3d 54 ad 36 3d a3 5e f1 3b
       0.10829969 0.09625685 0.044598892 0.007366018
0003c0 27 0d ca bb a7 ea 9b bc c4 88 71 bd c1 96 82 bd
       -0.0061661187 -0.01903279 -0.05896832 -0.0637641
0003d0 59 74 aa 3d 3d 27 86 3d a9 75 10 bd 64 6e 66 3c
       0.08322973 0.06550453 -0.03526846 0.014064405
0003e0 2a f0 b2 3d 77 64 a1 3d 03 79 c9 bd d3 29 e1 ba
       0.08737214 0.0788049 -0.09837534 -0.0017178602
0003f0 55 f5 e5 3d b5 88 bd 3d 73 eb cb bd fd bb 1a bd
       0.11228434 0.092545904 -0.09957018 -0.037776936

layer1.2.bias f4 [32]
000000 98 49 70 bb 69 a4 3c bb e1 95 3d bc 60 30 d4 bd
       -0.003666496 -0.002878452 -0.011571378 -0.10360789
000010 ce 1e f2 bc f6 d0 bc 3d 12 66 b3 3d 67 89 92 3b
       -0.029555704 0.09219544 0.08759703 0.004471946
000020 86 0f f2 3c 6f 07 8f 3d 85 17 02 3e 2b d7 bc 3d
       0.029548418 0.0698384 0.12704284 0.092207275
000030 5d 1e 94 3d ad 61 97 bd bf 15 2f bd b1 cc ac 3d
       0.07232354 -0.07391677 -0.042745348 0.08437479
000040 41 02 03 be 8d e8 83 bd 23 bb 71 3d 7d 0f fb ba
       -0.12793829 -0.0644084 0.059016358 -0.0019154396
000050 21 05 79 3d c0 51 97 3c 41 51 89 bb e7 b9 31 3d
       0.060795907 0.018471599 -0.0041905944 0.04339018
000060 11 ad 9a bd fb 14 43 bd 88 03 af bc d8 01 88 bd
       -0.07552541 -0.04762743 -0.021363989 -0.06640977
000070 33 38 c6 bb 7f ed 7c 3c fc 6b 28 3c 2e 73 7d 3d
       -0.00604918 0.015437483 0.010279652 0.061877422

layer1.3.weight f4 [32]
000000 1b 5a a2 3e 5e a4 0e 3f 93 11 e3 3e b6 88 1c 3f
       0.3170937 0.55719554 0.44349346 0.61146104
000010 80 57 56 3f db 06 1a 3f 7b 25 27 3f de b6 f6 3e
       0.83727264 0.6016671 0.65291566 0.48186392
000020 b8 fb 26 3f 4d 0c 0c 3f de 8e cb 3e 0f 8e 14 3f
       0.6522784 0.5470627 0.39757437 0.58029264
000030 c6 94 22 3f f3 f5 d4 3e 8c 78 41 3f 3b 90 71 3f
       0.6350826 0.41593894 0.75574565 0.94360703
000040 7e aa 4d 3f 6b ee 58 3f f7 2b 4c 3f a3 0b 19 3f
       0.80338275 0.84738797 0.79754585 0.5978338
000050 bd 4e 2f 3f 9f d1 5d 3e d4 1c 00 3f 45 0f 4d 3f
       0.6847952 0.21661995 0.5004399 0.80101424
000060 37 42 0a 3f dc 3c 08 3f bb 45 1c 3f 38 37 08 3f
       0.54007286 0.53217864 0.610439 0.5320926
000070 7a 99 33 3f a4 4c 4f 3f 06 28 e3 3e 95 84 79 3e
       0.7015606 0.8097632 0.44366473 0.24366982

layer1.3.bias f4 [32]
000000 63 3b 1f be 69 73 3c bb 15 d6 17 be 6d 69 1e be
       -0.15549998 -0.0028755313 -0.1482776 -0.15469904
000010 bd d1 0a be d1 71 f1 bd f6 4b 03 be 1e ff ac bd
       -0.13556571 -0.11789287 -0.12821946 -0.08447097
000020 17 44 8e be ab ac d9 bd e8 54 58 bd 7e 44 75 3b
       -0.27786323 -0.10628637 -0.052815348 0.0037424858
000030 ae f5 8a be c8 21 38 bd 69 d8 73 bd 91 98 39 be
       -0.27140564 -0.04495409 -0.059532557 -0.18124606
000040 db e0 1e be 26 e5 9a be dd b2 22 be bf 5b 57 be
       -0.15515463 -0.3025295 -0.15888543 -0.21031092
000050 68 1f d4 bd de 06 4b 3c 32 32 8d bd 1c 55 d8 bd
       -0.10357553 0.012391774 -0.068943396 -0.10563108
000060 94 d8 58 be 9e 73 ff bd 73 12 ea 3c 11 e6 a5 bd
       -0.21176368 -0.12473224 0.02857325 -0.08100522
000070 39 f8 24 bd da 51 57 be 8d f3 83 bd 2d 2c 1a bd
       -0.040275786 -0.21027318 -0.06442938 -0.037639786

layer1.3.running_mean f4 [32]
000000 1c e5 c4 bb 8a 62 02 3e 15 e1 59 be 70 d2 88 be
       -0.0060087573 0.12732902 -0.21277268 -0.2672305
000010 4b 64 1a be ec b0 b8 bd 4b 9e e8 3c b9 fe b6 be
       -0.15077321 -0.0901812 0.028395792 -0.35741213
000020 98 0f 64 be 72 c3 4d 3d cd 8e 83 bd 3c 64 86 3e
       -0.22271574 0.05023522 -0.064237215 0.26248348
000030 ce b8 9b bd a1 1d 66 be 62 b2 5e be bd 0c 12 bd
       -0.07603608 -0.2247224 -0.21747735 -0.03565668
000040 39 39 c2 bd 5e 14 a5 be 38 01 33 be ab 65 13 be
       -0.094835706 -0.322421 -0.17480934 -0.14394252
000050 fc 57 a1 3e 52 a7 65 be 87 50 92 be 7d 0b 0d 3e
       0.3151244 -0.22427109 -0.28577062 0.13773914
000060 76 ae 05 be 87 22 55 be 08 c9 6b 3e 8e d3 53 be
       -0.13054833 -0.20813952 0.23025906 -0.2068617
000070 9c 05 98 3e fe f6 88 3d 64 43 8b 3e 5b c5 6c 3e
       0.2969178 0.06687735 0.27199852 0.2312216

layer1.3.running_var f4 [32]
000000 95 fa dd 3b 8a 09 3a 3c 1a 5e 13 3c df 0f 88 3c
       0.0067742565 0.011354813 0.0089946035 0.01660913
000010 4b e1 cb 3c a0 f9 47 3c 7c 09 40 3c a0 1b 02 3d
       0.024887701 0.012205511 0.011721011 0.031764627
000020 9d f5 57 3c 4c d0 83 3c c1 c7 a4 3c 8f 23 a0 3c
       0.013181117 0.016090535 0.020114781 0.019548206
000030 b6 da 35 3c 82 34 2d 3c d2 3f 2c 3d 74 9c ca 3c
       0.011099508 0.010571601 0.04205305 0.024732806
000040 c9 8e d7 3c 8b c1 2a 3c 0a ab 7a 3c 06 b2 57 3c
       0.026313202 0.010422121 0.015299568 0.013165003
000050 e4 8c a2 3c cf 23 a0 3c 87 31 ff 3c ba e4 34 3d
       0.019842573 0.019548325 0.031151546 0.044163443
000060 58 76 e7 3b c1 66 12 3c 66 85 8a 3c 35 7c 80 3c
       0.007063668 0.008935631 0.016909312 0.015684227
000070 4f 6d e2 3c 20 8d ab 3c 52 a1 3b 3d 90 17 8e 3c
       0.027640013 0.020941317 0.045808144 0.01734522

layer2.0.weight f4 [32, 32, 3, 3]
000000 6a d1 87 3d 21 de f3 bd ff 1c 43 be 0d 91 b7 3d
       0.066317394 -0.11907602 -0.1905403 0.08963213
000010 1b 6b de bd 77 fc ef bd 1b 05 16 3e 4d 40 13 3c
       -0.108602725 -0.11718076 0.14650385 0.0089874985
000020 16 a2 76 bd 7b f5 5e 3b 81 22 bc bd 6a 0a 2f be
       -0.06021317 0.003402083 -0.091862686 -0.17093816
000030 46 7f 8c bd 51 96 a2 bd 4a 63 b4 bd 9c 91 7c 3d
       -0.06860213 -0.07938827 -0.088080004 0.0616623
000040 77 cd 64 bd f1 7f a1 bd fa 7a ae 3d af 1c de 3c
       -0.05586001 -0.07885731 0.0851955 0.027113287
000050 aa c3 bd 3d 20 96 c4 3c c3 71 b2 bc 1e 3f 50 bc
       0.092658356 0.023997366 -0.021782761 -0.012710361
000060 07 9d 7a 3d ab 6d a0 3c 21 03 8f bb 7e a0 80 3a
       0.06118491 0.019583544 -0.0043643867 0.0009813455
000070 8f bb 34 3b 0e c7 b7 3d 5d e3 23 3c 38 a0 c5 3c
       0.0027577614 0.089735135 0.010002938 0.02412425
000080 3a 25 df bc 08 ab ad bb 2f 95 c5 3d 99 21 06 bd
       -0.02723943 -0.0052999295 0.09647595 -0.032746885
000090 70 83 75 3d 4b fb 12 3c ab e8 b9 bb 2a ca b9 3c
       0.0599398 0.008971046 -0.005673488 0.022679407
0000a0 d9 f7 27 bd aa cf ad bb 97 40 41 3c 39 e5 e1 3b
       -0.04100785 -0.0053042965 0.011795185 0.0068937805
0000b0 fd dc e6 3d fe 3a 31 3c 73 48 c1 bc 0e 81 8f 3c
       0.11272619 0.0108172875 -0.023594117 0.017517593
0000c0 b0 25 06 3d bb d5 d8 bd f8 ef 24 3c 3c 5e f7 3c
       0.032750785 -0.10587641 0.010066979 0.030196302
0000d0 d5 57 1b bc 99 c1 b8 bd 06 b5 82 3d 7b 16 49 bd
       -0.00948139 -0.09021301 0.06382184 -0.049093705
0000e0 bb 92 05 3d 39 21 c3 bc 55 b6 94 3c 85 c8 b5 bd
       0.032610636 -0.023819553 0.018153349 -0.08876137
0000f0 29 0b 15 bc 45 79 6f 3d 79 6b c6 38 1a 8f dd 3c
       -0.009096899 0.05846526 9.461394e-05 0.027045775
000100 0c 5a cd 3d 36 f1 3a 3d 3b 9d 79 bb 40 35 32 bd
       0.10026941 0.045640193 -0.0038088101 -0.043507814
000110 fa d1 63 3d 6a 3c c7 3c 5b 62 0e 3d d0 63 10 bb
       0.05562017 0.0243208 0.034761768 -0.002203215
000120 6c 09 59 bb 3c fe ac bc f8 17 c8 3c ba e6 93 bd
       -0.0033117188 -0.021117322 0.024425492 -0.07221742
000130 eb 36 19 3d ee 9c 57 3c 77 14 06 3d f2 42 0f 3d
       0.03740589 0.013159974 0.03273436 0.034975953
000140 bc bf 68 bd 1b 15 b0 3c a0 92 38 3d c8 47 87 bc
       -0.056823477 0.021494439 0.045061707 -0.01651372
000150 80 60 97 3c e2 c4 c2 bd ab c4 03 be 5b 01 30 bd
       0.018478632 -0.09510209 -0.12867992 -0.042970043
000160 76 02 08 be 12 94 64 bd 35 1c b2 3b 95 51 00 3d
       -0.13282189 -0.055805273 0.0054354914 0.031327803
000170 ba 5b 97 3d 6c 62 77 bd 00 65 1a bd 44 e6 29 3d
       0.07390542 -0.060396597 -0.037693977 0.041479364
000180 71 1b 18 3d aa 19 ae 3c da a0 ea 3d a9 29 32 3c
       0.037135545 0.021252472 0.11456461 0.01087419
000190 c9 80 b1 bd 95 fe 71 be d8 c6 b3 3c 8a 52 8a be
       -0.08667142 -0.23632272 0.021945402 -0.27016097
0001a0 e8 cc 80 be 6e 1c 10 3d 35 e4 ea bd 8a 3c e2 bd
       -0.2515633 0.035183363 -0.11469308 -0.11046703
0001b0 dd 86 7b 3c 14 05 c9 bd f8 80 7c 3d 0d b4 2e 3d
       0.015351978 -0.09815422 0.06164643 0.04265218
0001c0 02 90 e2 3b 2a 68 84 3d ce 25 45 3d 06 9d 3c 3d
       0.0069141397 0.0646518 0.048131756 0.046048187
0001d0 4d 96 f7 3d 83 b6 02 be 9f d2 eb bc 78 82 d4 3d
       0.120892145 -0.12764935 -0.028786955 0.103764474
0001e0 8f ed c5 bd 68 ca 4a bc d8 de 1d 3c 9e f4 99 bd
       -0.09664451 -0.012377359 0.00963565 -0.0751736
0001f0 70 16 0a bb 78 ba 60 3d ae 25 c1 3b 5f 46 85 3d
       -0.0021070503 0.05486533 0.0058943843 0.06507563
000200 6c 7b 8a 3d b4 ce 22 bc ae e0 ad 3c 4c 2b c8 3d
       0.06761822 -0.009936977 0.0212253 0.09773883
000210 ad e6 cd 3c cb 60 5c 3d 80 9c 41 3d ea f4 52 bd
       0.025134409 0.053803246 0.04726839 -0.0515031
000220 41 03 d1 bd bf 92 f9 bd 1f 75 5d bb d4 1d 8d bd
       -0.10205699 -0.12186193 -0.0033791733 -0.06890455
000230 e4 9d 40 be ea 32 b7 bc 77 47 49 bd a2 eb ac bd
       -0.1881023 -0.022363145 -0.04914042 -0.08443381
000240 a9 e0 a4 3d 9a 9e 6e bc 15 a4 5d be 1b 8b 45 3d
       0.08050663 -0.014564181 -0.21644624 0.048228364
000250 eb 3d 43 bd c3 0b ac bc 34 a1 6f bd dc 50 b0 3c
       -0.04766647 -0.021001702 -0.058503345 0.021522932
000260 84 a8 54 bd a3 e5 da bc 7c df 2b bc 83 c5 02 3c
       -0.05191852 -0.026720827 -0.010490295 0.007981661
000270 03 02 4b 3c 9c ab f1 bc b4 95 29 3c 68 73 d7 bc
       0.012390616 -0.029500775 0.010350633 -0.026300147
000280 5c 7b 75 bc 86 75 a6 3a 86 6c b9 3c 2c d8 23 bd
       -0.014983024 0.001269982 0.022634756 -0.04000108
000290 22 75 d1 bc 73 b1 37 3c e3 31 3d 3d 01 0b dc bd
       -0.025568549 0.011211741 0.046190154 -0.10744286
0002a0 5c c0 c5 bc b6 d1 8d 3d 02 3b e0 bc 99 03 53 3d
       -0.024139576 0.06924765 -0.027371887 0.051517103
0002b0 af 20 0d bd 49 17 b8 3d 7d 0f 8b 3c 87 43 13 3c
       -0.034454998 0.08988816 0.016975159 0.008988268
0002c0 0d 3e 59 3d 65 74 21 3d e7 ef dd 3d 38 03 f4 3d
       0.05303769 0.039417643 0.10836773 0.119146764
0002d0 55 b8 05 bd b7 19 6c bd 90 a0 a5 bd dd 90 fb bc
       -0.032646496 -0.05764171 -0.080872655 -0.030708725
0002e0 bf ce e2 bc f0 e0 20 be 42 a2 7d bd dc b7 d8 bc
       -0.027686475 -0.15710807 -0.06192232 -0.026454858
0002f0 1a b1 87 3d b8 31 ff 3d 99 1b fc ba c7 3f bb 3d
       0.06625576 0.12460655 -0.0019234299 0.09143024
000300 04 1e d2 3d c7 e4 83 bd db 32 08 bd 01 82 9f 3c
       0.10259631 -0.0644012 -0.033251625 0.01947117
000310 6d 91 66 3a 13 a2 02 3c fe a8 bf 3d 5e ea a1 3c
       0.0008795474 0.007973212 0.093584046 0.019765075
000320 26 ea 66 3c 76 35 5c 3d 3b c8 22 3d 98 a1 27 3d
       0.014093911 0.05376192 0.039741736 0.040925592
000330 26 3b 7a 3d 2a 40 26 bd 47 30 b0 bd 55 e1 31 3d
       0.061091565 -0.040588535 -0.08602958 0.043427784
000340 4e 02 e1 bd 8a 44 76 bd e4 98 97 bd 81 ad 2e 3b
       -0.10986768 -0.060123958 -0.074022084 0.002665371
000350 4e 4b 27 be 54 61 12 bd 18 2f 82 bd d4 e8 86 bd
       -0.1633732 -0.03573735 -0.06356639 -0.06587377
000360 d5 b1 69 3d 9b 0d 46 bd 5d 58 f1 3c b8 ae 4f 3d
       0.05705436 -0.04835282 0.02946108 0.050703734
000370 c2 10 99 bd 03 0e c4 bc d7 87 aa 3d 6d c0 b8 3d
       -0.074738994 -0.023932463 0.08326691 0.09021077
000380 81 b8 aa 3d 90 21 b3 bc cc 83 8c 3c 64 96 d3 3d
       0.083359726 -0.02186659 0.01715269 0.10331419
000390 07 cc 02 bc 2f 85 f8 bc c2 90 f7 bb 5e 62 e2 bb
       -0.007983214 -0.030336944 -0.0075550983 -0.006908699
0003a0 fa 4d 45 3d 58 c1 53 bc 80 37 37 3c bc f5 9d bd
       0.048170067 -0.012924515 0.011182666 -0.07712886
0003b0 fd 54 a3 bd 28 02 6a 3b b2 1e 4b be dd df 9c bd
       -0.079751946 0.0035706852 -0.19835928 -0.07659886
0003c0 11 d8 2a 3d 77 ef 58 bd 2e ef 36 bc 23 83 c1 3c
       0.041709963 -0.052962746 -0.011165423 0.023622101
0003d0 1a 99 06 3d d7 00 8d bd 37 af ae 3c 02 50 0b 3d
       0.032860853 -0.06884926 0.021323783 0.03401185
0003e0 91 9c 21 bd fb 94 67 3d c8 72 dd 3d bd 0d 92 3d
       -0.039455954 0.056538563 0.108129084 0.071315266
0003f0 26 8c f2 3c 84 a0 11 be 67 a3 ea bd a4 db 68 bb
       0.029607844 -0.14221388 -0.11456948 -0.0035531307

layer2.0.bias f4 [32]
000000 65 c4 0e 3d ec e4 b1 bc 86 50 09 3e 94 4d ee bc
       0.034855265 -0.021715604 0.13409624 -0.029089727
000010 8b 1f c3 3b d2 f5 db 3c 70 d6 0a 3e 40 03 51 3d
       0.005954688 0.026850615 0.13558364 0.05102849
000020 aa b5 70 3d 0a b2 11 bd f9 7d dc 3d 56 77 38 bc
       0.058767 -0.035570182 0.10766215 -0.011258921
000030 d7 64 a9 bd 23 65 6b 3b 87 e6 e0 3c 7f 82 2e bc
       -0.08271187 0.0035918436 0.027453674 -0.01065123
000040 ac 2c a0 3c 73 6b 70 bd 44 10 9a 3d d7 d5 44 3d
       0.019552551 -0.05869622 0.07522634 0.048055496
000050 ed 12 7f 3d b6 e0 94 bb 7e 22 5c 3d cc 62 09 3d
       0.06227391 -0.004543389 0.05374383 0.033541486
000060 35 89 b1 bd 37 b4 5c bd b6 b7 73 3d a6 d7 cd 3c
       -0.08668748 -0.053882804 0.059501372 0.025127243
000070 67 51 98 3c 86 c7 ce 3c ec 53 a3 3c 7a 81 de bd
       0.018593503 0.025241625 0.019937478 -0.108645394

layer2.2.weight f4 [32, 32, 4, 3]
000000 b8 9e 76 3c 96 20 9a bc 71 03 08 3b 6d 30 95 bd
       0.01505249 -0.018814366 0.0020754004 -0.07284627
000010 3f 93 1b be 48 26 6b bd 94 56 d3 bd 43 59 11 be
       -0.15192889 -0.057409555 -0.10319248 -0.14194207
000020 b7 e5 b4 bc 9b 08 1c bd ed 9c d8 bd 82 48 68 bd
       -0.022082193 -0.038094144 -0.10576806 -0.056709774
000030 d5 91 5d 3c b5 69 8d 3d 24 40 9b 3d b0 37 39 3d
       0.013523539 0.06904928 0.07580593 0.045219123
000040 da 06 b0 3d 3b cc 94 3d 0b 5b 83 3d 45 6f fa 3d
       0.08595057 0.07265516 0.064138494 0.12228254
000050 b5 c8 9c 3d 81 a5 9c 3d c8 2d 22 3e 91 3c ee 3d
       0.07655469 0.07648755 0.15837777 0.11632646
000060 da 6f a4 b9 6c bb 97 3b a5 9d 99 bc b3 02 74 bd
       -0.00031363853 0.0046304967 -0.018751929 -0.059572887
000070 ff 0d 77 bd 2f 94 61 bd c2 de ba 3c f5 dc b9 3c
       -0.060316082 -0.05507296 0.022811297 0.022688368
000080 49 89 8b 3d a5 fd 1e bd da 7b 89 bd f8 05 5b bd
       0.068132944 -0.038816113 -0.06713076 -0.05347249
000090 1d 41 53 3d 62 51 ec 3d 8c 5c 8c 3d 8a ed 8a 3b
       0.05157577 0.1153896 0.068535894 0.0042397426
0000a0 23 c0 aa 3d 7f 7e 58 3d 3b e9 e6 3c 5e fb aa 3d
       0.083374284 0.05285501 0.028187385 0.08348726
0000b0 32 54 d3 3c 2a 62 72 bc 7c 2d f0 3d a9 1d a8 3d
       0.025796983 -0.014793912 0.117274255 0.08208782
0000c0 8b eb d9 bc 78 4c b5 bb 81 11 d4 3c 1f 6c 81 3c
       -0.026601573 -0.0055327974 0.025887253 0.015798626
0000d0 33 5c 37 3d f0 4b 75 3d 2d 80 98 bc 5c d6 5a 3d
       0.044765662 0.059886873 -0.018615806 0.053427085
0000e0 18 b8 93 3d f9 03 e6 3c b6 c1 2d 3e cc 6d 21 3e
       0.072128475 0.028078066 0.16968426 0.1576454
0000f0 14 0c e3 3d 68 78 43 3d ca 10 93 3b 20 31 f0 3d
       0.11086288 0.04772225 0.0044880854 0.1172812
000100 e0 cb f7 3d b7 39 0d 3d 8b c3 a2 3d 51 7b e4 3c
       0.12099433 0.03447887 0.07947453 0.027890833
000110 80 c7 1f bd 3e a8 7d 3d b1 21 bd 3c 48 ce 06 bd
       -0.039008617 0.061928026 0.023087354 -0.03291157
000120 eb d5 e0 3c 9d f6 42 3d 82 62 f1 3c 44 8f da bb
       0.027445754 0.04759847 0.029465917 -0.0066699106
000130 37 24 14 bd e6 7e d1 bc db 7e 1c 3d 4e f2 76 3d
       -0.03616735 -0.025573205 0.038206916 0.060289674
000140 b6 e8 18 3d eb 8c 1b bb b7 be 42 3d 94 2e 37 3d
       0.037331305 -0.0023735117 0.04754516 0.044722155
000150 81 ae 43 3d b7 4c e3 3b cf e9 01 bc ac 68 74 3c
       0.04777384 0.0069366354 -0.0079292795 0.014917534
000160 4c 4f 9b bd ab 1d 1e bd 11 b9 53 bb cc 7f 92 bd
       -0.07583484 -0.038602512 -0.0032306353 -0.071532816
000170 a6 13 6c 3a 23 99 69 3b 10 33 93 bc 47 8a bb 3c
       0.00090056134 0.0035644255 -0.017968684 0.022893084
000180 b8 16 a6 bd 74 e9 82 bd 27 7b f6 bc 8a 4b ab bb
       -0.08109802 -0.06392184 -0.03008802 -0.005227511
000190 6d 01 21 3b 95 c5 7e bd cd ad d8 3b 77 ba a5 3d
       0.00245675 -0.062200148 0.0066125155 0.08092206
0001a0 31 2c da 3b e8 3a 86 3d 33 50 0d 3e 5f b6 a1 3d
       0.0066581 0.06554204 0.13800125 0.07896113
0001b0 72 a4 e8 3c 39 b1 13 3b 6f 1a 11 3d c5 06 2e 3d
       0.028398726 0.0022536053 0.0354256 0.042486925
0001c0 a1 27 55 3d b8 62 dc 3c c9 43 06 3c 20 f4 f3 3d
       0.052039746 0.026902542 0.008194872 0.119117975
0001d0 10 99 8b 3d 19 7b bf bd e7 31 b8 bb ad 25 bd 3d
       0.06816304 -0.09349651 -0.005621183 0.09235702
0001e0 6d 0a ec bc b3 87 68 be f8 bb 14 be 14 f6 fb bc
       -0.028813565 -0.22708015 -0.1452483 -0.030756988
0001f0 45 91 bc bc d9 f5 a8 bd 7a d8 9a 3d eb 1d b2 3c
       -0.023018489 -0.08250017 0.07560821 0.021742782
000200 1f fd 15 bd b3 b5 f4 3c 7a 4e da bc 49 00 ba bd
       -0.03661835 0.029871797 -0.026648749 -0.09082086
000210 3e bf 37 3d 54 45 5c bd 72 2c 90 3b a2 35 8e bc
       0.044860117 -0.053777054 0.0043998295 -0.017359558
000220 fb 52 98 bd 4c d8 be 3c bc 9a 0a bd 78 81 96 bd
       -0.07437702 0.023296498 -0.033838972 -0.07348913
000230 2d c9 22 3c 99 36 57 bd 3c 12 b7 bd 0b 70 17 3c
       0.009935659 -0.052542303 -0.08939025 0.009243022
000240 93 18 8f 3c f7 39 a1 bd b2 92 9c bd 8f 8a 99 bc
       0.017467773 -0.07872384 -0.076451674 -0.018742828
000250 8d 42 92 bd 42 1f b6 bd fa 14 b3 3b ee ff 6c bd
       -0.071416 -0.08892681 0.005465147 -0.05786126
000260 0a 99 07 bd 22 e7 9f bd 91 ad ff bd ce cd c4 bd
       -0.033104934 -0.07807757 -0.12484277 -0.09609567
000270 bd 7a 8d 3d 0e 48 cb 3d c7 9a 71 3d 70 1d 1a 3d
       0.06908176 0.09925853 0.058985498 0.03762573
000280 d6 2b c0 3c c4 fa 8e 3c ca d7 db bc 10 31 25 3d
       0.023458403 0.017453559 -0.026836295 0.040329993
000290 07 cd af 3d 82 cd 6a bc a2 a2 f9 3c be 8c 6a 3d
       0.08584028 -0.014331223 0.030473057 0.05726313
0002a0 7d eb 43 3d 48 28 08 3c 0f 6e c6 bd 58 1c 43 3d
       0.047832 0.008310385 -0.09688961 0.047634453
0002b0 f7 89 99 3d f9 bf 55 bd 3b 2a 25 3d f2 0c 4c 3b
       0.07497018 -0.052185033 0.040323477 0.0031135646
0002c0 31 ae 53 3c ce c4 01 bd 51 0b 10 bc 2e a9 d9 ba
       0.012919948 -0.03168183 -0.008791761 -0.0016606206
0002d0 50 ef 0b 3c c5 d6 6c 3c 07 dd 7d bb fd b2 a1 bd
       0.008540943 0.014455502 -0.003873648 -0.078954674
0002e0 ab af df bc 27 fa cc 3c ca e3 a5 bc b0 2e 71 bd
       -0.027305445 0.025021626 -0.02025022 -0.058882415
0002f0 ac d9 c6 ba 13 28 72 3a c8 18 0f 3d 6a 0a a5 3b
       -0.0015171072 0.0009237539 0.034935743 0.005036642
000300 da d3 db bd 2e 41 f8 bd b2 8a 7c bd 63 f3 f6 bd
       -0.10733767 -0.12121807 -0.061655708 -0.12058141
000310 fc df 98 bd a2 9c f0 bc 80 f1 c1 3d a7 7d 27 3d
       -0.07464597 -0.029371563 0.094698906 0.040891316
000320 82 0e 11 3d b3 79 99 3d 83 09 a5 3d ef d9 3c 3b
       0.035414226 0.074939154 0.08058455 0.0028816422
000330 5a f6 d6 3d 79 3e ed 3c 53 a2 b6 3c ff 79 88 3d
       0.104962066 0.028960453 0.0222942 0.06663894
000340 09 ed df ba 03 d6 8a bc 7c aa 3d 3d 7c b1 a2 39
       -0.0017084192 -0.016947752 0.046305165 0.00031031284
000350 15 5a 8a bd 7d 14 de 3d c7 06 5f 3d 36 1a ad bc
       -0.06755463 0.108437516 0.054449823 -0.021130662
000360 73 9f b2 bd 16 bc 31 be 65 8a ac bd 76 45 8b bd
       -0.08721819 -0.17356905 -0.08424834 -0.06800358
000370 50 e3 43 be 6d 95 66 bd ac 70 04 bc 6b 27 18 be
       -0.19129682 -0.056294847 -0.008083504 -0.14858787
000380 73 3b 0a be 1b ba 74 3b 16 9d d3 bd d0 72 8f bd
       -0.1349924 0.0037342373 -0.10332696 -0.070043206
000390 4f de 05 bd 61 81 8e 3d 20 58 f3 3d c1 0d 5a 3d
       -0.032682713 0.06958271 0.11882043 0.053235773
0003a0 78 b4 1f 3e 31 4f 4d 3d 36 6f 19 3d 13 2b ba 3d
       0.15596187 0.05012435 0.037459575 0.09090247
0003b0 fd cc 85 3d 63 c6 b9 3d 1f 68 f2 3d ea 62 1a 3d
       0.06533239 0.090710424 0.11836266 0.037691988
0003c0 b7 9c 02 be 55 a5 e3 bc 3d eb 51 3d ef 20 1c be
       -0.12755094 -0.027788797 0.05124973 -0.15246938
0003d0 b9 16 00 bd 28 5d 7d 3d d3 ad ad bd 07 c7 11 be
       -0.03127167 0.06185642 -0.0848042 -0.14236079
0003e0 54 1d ef bb 59 ec 13 be d2 17 15 be 07 b0 4c bd
       -0.0072971974 -0.14445628 -0.14559868 -0.04997256
0003f0 b1 2a df 3d 1a 88 de 3d 53 2c cc 3c 01 d8 a8 3d
       0.108968146 0.10865803 0.02492348 0.082443245

layer2.2.bias f4 [32]
000000 fd 1b 55 bb e7 ab ee 3c 76 3e a7 bc e2 90 6e bb
       -0.0032517903 0.029134704 -0.020415526 -0.0036402275
000010 3f fb 1f 3d c0 16 34 3c 79 22 31 3b c4 3b 3b bd
       0.039057966 0.010991752 0.0027028604 -0.045711294
000020 39 99 49 bc 16 8f 58 bc c2 bc 4b ba 1c f5 42 3c
       -0.0123045975 -0.013217708 -0.00077719626 0.011899259
000030 65 9d 40 3c 37 35 0b bd 05 fb 0b bc 41 cd ba bc
       0.011756276 -0.033986297 -0.008543734 -0.02280295
000040 ea 24 36 3d 40 41 0c 3d 07 aa 53 3a 0f 28 0c bd
       0.044468798 0.034241915 0.0008074347 -0.03421789
000050 27 cf 60 bd 90 60 04 bd f1 d9 2e bd a5 57 80 3d
       -0.054885056 -0.03231865 -0.042688314 0.06266717
000060 e6 d1 a6 bc 81 aa 18 3d 09 4d 2c bd c4 6e 7f bd
       -0.02036376 0.03727198 -0.042065654 -0.062361494
000070 07 b0 de bb 79 73 3e bd 0f ae a5 bd cc f4 91 3d
       -0.0067958864 -0.046496842 -0.0808984 0.071267694

layer2.3.weight f4 [32]
000000 d0 c0 09 3f fb 96 af 3e de f9 1a 3f 3f c1 3a 3f
       0.53809834 0.34294876 0.6053752 0.7295112
000010 a5 57 23 3f 6e 9e c0 3e af ac 3a 3f f1 da 81 3e
       0.6380561 0.37620872 0.72919744 0.25362352
000020 c2 21 2a 3f 59 37 1b 3f 0e 5b 09 3f 7a 60 88 3e
       0.6645776 0.6063133 0.53654563 0.26636106
000030 cb 69 94 3e 47 2d d2 3e e3 27 21 3f 76 da 03 3f
       0.28986964 0.4105017 0.6295149 0.5150522
000040 37 ee cd 3e e4 4d 2a 3f ce f8 ba 3e 84 03 a7 3e
       0.40220806 0.665251 0.36517948 0.3261987
000050 4b b5 81 3e 7a 42 91 3e d6 69 08 3f 16 c2 7e 3e
       0.25333628 0.2837103 0.5328649 0.24878725
000060 1f f8 ad 3e 9d 3a 4b 3f 88 e8 a6 3e 1d 30 7d 3e
       0.33978364 0.7938631 0.32599282 0.24725385
000070 1a 5f 03 3f 83 39 16 3f d0 03 0d 3f 24 6d 54 3f
       0.5131699 0.58681506 0.5508394 0.82979035

layer2.3.bias f4 [32]
000000 68 ef af bc 86 2e a5 bd dc 98 eb 3d dd 6d fa bc
       -0.021476462 -0.08065514 0.11503765 -0.030569965
000010 31 18 d1 bd 1e 3f 80 3c 6f 67 d4 bd b3 62 92 3b
       -0.10209692 0.015655097 -0.10371291 0.0044673323
000020 c2 a6 90 bd 7b d1 03 3c 11 2b 60 3c 90 88 15 3d
       -0.070630565 0.0080455495 0.013682143 0.03650719
000030 88 32 ed bd ef 22 80 bd 5b f1 8b bd 67 9b 7c 3d
       -0.11581904 -0.06256663 -0.06833144 0.06167164
000040 8b 29 9b bd 4b 58 c9 3c b9 3d ed bc ce 71 21 3d
       -0.07576283 0.024578234 -0.028960096 0.039415173
000050 1f d9 3f bd c3 a0 bf 3d 38 b8 25 be d6 2f 12 3d
       -0.046837922 0.09356835 -0.16183555 0.03569015
000060 41 e7 f1 bd 3e 5a e7 bd 66 89 5a bd 43 21 55 bd
       -0.11811686 -0.11296509 -0.05335369 -0.052033674
000070 ac 95 86 3d ce cb 7f bd 1c 80 89 bd 87 9c 10 bd
       0.065715164 -0.062450223 -0.06713888 -0.035305526

layer2.3.running_mean f4 [32]
000000 bb 5c 12 bd 8d 8f 8b bd 22 09 c1 3d 2c ef 23 bf
       -0.035732966 -0.068144895 0.0942557 -0.6403682
000010 5d 40 dc bd 44 fb 57 be c9 79 9b bc 55 94 10 bf
       -0.10754464 -0.21091944 -0.01897897 -0.56476337
000020 cd 5a 46 be 1f b4 3d bd 5a 3e af be b9 46 c9 be
       -0.19370575 -0.046314355 -0.34227258 -0.3931177
000030 46 13 b1 be 87 23 5e be 4c 40 b6 be 32 0e 3a be
       -0.34585017 -0.2169324 -0.3559593 -0.18169478
000040 08 35 5e bd ae 55 92 be 96 f8 8d bd fa a6 b2 be
       -0.054249793 -0.28580993 -0.0693218 -0.34893018
000050 c8 7a af be b6 97 f1 be 61 a6 56 be 9b 30 0e bf
       -0.34273362 -0.4718606 -0.20961906 -0.55542916
000060 1d 08 df bd cf 62 d5 be 3b 95 d6 be 74 f0 a7 be
       -0.10890219 -0.41676947 -0.4191073 -0.3280064
000070 78 49 37 be 48 57 77 be 74 2f bd be 78 ea 9b be
       -0.1789912 -0.24154389 -0.36950266 -0.30452323

layer2.3.running_var f4 [32]
000000 c6 72 1d 3e 62 97 15 3e ac 5f c2 3e aa 57 ce 3e
       0.15375814 0.14608529 0.37963617 0.40301257
000010 29 25 33 3e ef 3c 2e 3e cc fa 18 3e 9d fe d0 3d
       0.17494644 0.17015432 0.14939421 0.10204814
000020 78 40 96 3e b4 f6 4b 3e f7 83 42 3e d3 2c 0e 3e
       0.2934606 0.19918329 0.18995653 0.13884287
000030 50 81 04 3e ed b7 57 3e d2 88 b2 3e dc 87 56 3e
       0.12939954 0.21066256 0.3487001 0.20950264
000040 99 66 42 3e 2a 92 66 3e a8 4f 27 3e a2 52 40 3e
       0.1898445 0.22516695 0.1633898 0.18781522
000050 66 e4 17 3e ce 93 d0 3d af ab 0e 3e 3a 7b a7 3d
       0.14833221 0.101844415 0.1393268 0.081778005
000060 fe 8d 10 3e c8 e1 d0 3e 55 60 c0 3d bb c9 ce 3d
       0.14116666 0.40797257 0.09393374 0.10097071
000070 2a 7c ac 3e da 36 47 3e 8a a7 68 3e bb 55 a7 3e
       0.3368848 0.19454518 0.22720161 0.32682595

layer3.0.weight f4 [32, 32, 3, 3]
000000 bb a3 8d bd 2c 0f 9f bd e9 56 63 bd ba c3 cd bc
       -0.06915995 -0.07766566 -0.055502806 -0.025117744
000010 30 1c e7 3c a3 15 a5 3a 1b 6e d4 3a 76 1f 76 bc
       0.028211683 0.0012594949 0.001620713 -0.015022149
000020 21 c8 a3 bc 52 b9 17 be 3c 80 8c bd c0 40 db bb
       -0.01999289 -0.14816788 -0.06860396 -0.0066910684
000030 d5 7d 12 bd ad 75 c9 bd a7 ae 83 bd e8 36 34 3d
       -0.035764534 -0.09836898 -0.06429797 0.043997675
000040 80 74 08 be 13 14 77 3c 88 3b 3c bd 8f a4 86 3d
       -0.13325691 0.01508047 -0.04595521 0.06574356
000050 84 fe 88 3c 88 db 5d bd 2f 81 d1 3d f1 c5 89 bc
       0.016722925 -0.05416444 0.10229718 -0.016818019
000060 c4 6c 68 3d 15 72 cf 3d 01 ca 16 bc 26 4f e3 bd
       0.056744352 0.10129181 -0.009203435 -0.11099081
000070 d6 78 7e 3c 1d 5e ab 3d 83 db 08 3d 45 bc fe 3d
       0.015531739 0.0836756 0.033412468 0.12438253
000080 d8 04 9e 3d e2 0c 6c 3d f1 1f 98 3d 00 d4 a0 bc
       0.077157676 0.057629474 0.07427967 -0.01963234
000090 12 ae b0 3d f6 9d 8a bd 25 95 2f bd 02 3e 29 be
       0.08626951 -0.0676841 -0.042866845 -0.1652756
0000a0 1a 01 91 bd c7 d7 58 3d 8a 67 b6 bd ec 5d 04 bd
       -0.07080288 0.052940156 -0.08906467 -0.032316133
0000b0 bf 96 40 bd 05 82 c5 3d 7a ed 19 3e b1 5d 0f 3c
       -0.047018763 0.0964394 0.15031996 0.008750365
0000c0 11 16 2c 3d ba f5 8c 3d da a0 0b 3e 9c 91 0d 3e
       0.04201323 0.06882806 0.13635579 0.13825077
0000d0 da 8a 6e 3e 78 92 d1 3d 17 d3 bf bd 12 34 6b bd
       0.23295155 0.10233015 -0.09366434 -0.057422705
0000e0 57 d7 83 3a 14 d5 0f be 20 a0 10 be 70 40 21 be
       0.0010058683 -0.14046127 -0.14123583 -0.15747237
0000f0 8d 88 00 bc a1 d3 6e be d7 3f 27 be a2 0a fb bd
       -0.007845056 -0.23322918 -0.16332947 -0.122578874
000100 0e 10 92 be 57 24 4e 3d d2 9f be 3d b9 f7 b0 3d
       -0.28527874 0.050327625 0.09307827 0.08640999
000110 14 8a aa 3d be 0d b8 3d 11 8c 0c 3e 79 d9 fc 3d
       0.083271176 0.08986996 0.13725306 0.12346167
000120 f1 99 20 be 79 00 ae 3d d2 4e 26 3c 2f 3f 76 3c
       -0.15683724 0.08496184 0.010150628 0.015029713
000130 9c 36 30 3d 39 56 6a 3c 9d f5 56 bd e7 1e c5 bd
       0.04302083 0.014302784 -0.05248033 -0.09625035
000140 20 64 93 3d 81 8e e9 3c 2d e3 ec bb 16 7d 07 be
       0.07196832 0.028510334 -0.00722923 -0.1323131
000150 30 ab c7 3c d6 d8 9b 3d 89 f7 88 bc 33 03 05 3c
       0.02437362 0.076097175 -0.016719596 0.008118439
000160 25 05 77 be e6 60 1d 3e 85 0f ca 3d 4f 0a 96 bd
       -0.24123056 0.15368995 0.09866241 -0.07326185
000170 51 3b 49 bd b7 8b b8 3c 75 af 50 3d 32 aa 36 bd
       -0.049128834 0.022527559 0.05094858 -0.044595905
000180 33 48 5a 3c c7 cf a7 bd 9f 93 9a bc 81 4b c9 3b
       0.013322878 -0.08193927 -0.01886922 0.006143034
000190 1d 12 84 be 45 a0 cc bd eb 00 0b bb 18 6b 1b bd
       -0.2579507 -0.099915065 -0.0021210264 -0.03794393
0001a0 4e fe 7d ba 83 3b 10 3d 78 a8 2f 3e 9a f3 cd bc
       -0.00096890784 0.035213005 0.1715411 -0.025140572
0001b0 04 17 c2 be fd 05 61 bd 55 ac 33 3e 69 23 af bd
       -0.37908185 -0.05493735 0.17546208 -0.08551676
0001c0 44 ae bd bd 75 a3 12 3d b7 15 18 be bf 52 bf bc
       -0.09261754 0.035800416 -0.14852034 -0.023354886
0001d0 59 6c ec 3d 16 07 18 be 97 1d 66 bc be 3b ce 3d
       0.11544103 -0.14846453 -0.014045141 0.10069989
0001e0 7b 38 29 3e c2 d6 4a bc ee 17 3b 3d d7 f5 1a 3e
       0.16525452 -0.012380304 0.045677118 0.15132843
0001f0 16 12 68 3d 16 f8 65 3d 5f 69 67 bd 9d 79 c1 bd
       0.056657873 0.056144796 -0.056496974 -0.09447024
000200 58 8d 96 3c 6e 7a b0 bc 02 aa 8e bd 18 59 a1 bd
       0.018377945 -0.021542754 -0.0696602 -0.078783214
000210 49 a8 66 3c c0 0f 17 bd 37 52 85 bd eb 23 ff 3c
       0.014078208 -0.036880255 -0.06509822 0.031145057
000220 3c 74 b8 3d c6 a2 cb bd 38 91 5b bc ad f8 78 3d
       0.09006545 -0.09943156 -0.013401322 0.06078403
000230 06 e7 5a 3d 8c 71 f5 bd ee 1f c9 bd d9 06 85 3d
       0.053442977 -0.11984548 -0.09820543 0.06495447
000240 77 48 a0 3c 4b b1 11 be 01 e7 03 3d 08 e7 49 be
       0.019565804 -0.14227788 0.032202724 -0.19717038
000250 49 bc 6a be 76 98 a2 bc 53 1e 01 be 72 6c a6 be
       -0.22923388 -0.01984809 -0.12609224 -0.32504612
000260 af 3b 67 bd d8 e1 8f bd d5 f5 18 bd 2f ec 59 bd
       -0.056453403 -0.07025498 -0.03734382 -0.053203758
000270 7c d7 8c bb 53 d7 9b 39 c4 3c b9 3c 49 59 f1 bc
       -0.0042981487 0.00029724333 0.022611983 -0.02946152
000280 dd 24 59 bd ce 43 92 3c 53 12 0d bd 1b 52 7a bd
       -0.05301367 0.017854597 -0.034441303 -0.061113458
000290 87 6d 94 3d 4c bf bd 3d 4a da e5 bd 94 01 e9 bc
       0.07247453 0.092650026 -0.11223276 -0.028443135
0002a0 08 1d af 3d e8 42 27 be d1 d2 1a 3d 72 06 8e bb
       0.08550459 -0.16334116 0.037798706 -0.0043342644
0002b0 73 d9 93 3c 06 a9 32 3e 93 82 8f bc ce 62 f3 3b
       0.018048024 0.1744729 -0.017518317 0.00742755
0002c0 16 18 0e 3e 08 34 2d ba 41 22 04 3e 86 85 0f 3e
       0.13876376 -0.00066071795 0.12903692 0.14015779
0002d0 87 b6 52 bd de a5 7e 3d 51 65 81 3d 63 f1 8d 3d
       -0.051443603 0.062169902 0.06318153 0.069308065
0002e0 db e6 44 bc af fe 7d 3c a7 54 c3 bb 03 54 c6 bd
       -0.012017931 0.015502616 -0.005961019 -0.09683993
0002f0 67 b3 43 3d db a1 85 be 8e d4 95 3d f5 61 ab bd
       0.047778513 -0.26100048 0.07315932 -0.08368293
000300 18 1f 4e 3c 62 e9 59 3d 18 b4 6c bd 92 0a 6c 3d
       0.0125806555 0.053201087 -0.05778894 0.057627268
000310 6c 32 b3 3d 4f 38 bd bd e0 64 b0 bd f7 a9 45 bd
       0.087498516 -0.09239256 -0.086129904 -0.048257794
000320 3b 7f 3c bc 85 47 0f be 25 2c 45 be 17 4c 20 3d
       -0.0115049435 -0.13992126 -0.19255121 0.039135065
000330 aa c4 b3 bc 19 2f ab bd 75 17 9c 3d 4d b9 87 bd
       -0.021944363 -0.083585925 0.076216616 -0.0662714
000340 9d 3b d8 bc 4c bd b2 3d cf 09 82 3d 87 9b 20 3e
       -0.026395613 0.08727512 0.06349527 0.15684329
000350 c5 ee 8e bd 12 1e 0e bd 9c 99 6d bc 89 73 5e 3d
       -0.069791354 -0.034696646 -0.014501955 0.0543094
000360 d4 5e c7 bd 18 7c c8 bb 13 b3 25 be e8 69 3d 3b
       -0.09734884 -0.0061183088 -0.16181593 0.0028902236
000370 9f 65 ee bc fd d3 d8 bc c2 c8 8c bd 41 21 27 bd
       -0.029101191 -0.026468271 -0.06874229 -0.040803198
000380 b7 2b 92 bd 2e fb 41 3d b2 e1 3c 3d f7 9d 20 3d
       -0.07137244 0.047358684 0.046113677 0.039213147
000390 a2 06 a6 bd ac 7c 1c 3d b8 6d 04 3d 05 e6 1b bd
       -0.08106734 0.038204834 0.0323312 -0.03806116
0003a0 1d 06 21 be 41 0d ea bc f8 43 d0 bd 0f 4a 33 be
       -0.15724988 -0.028570773 -0.10169214 -0.1750872
0003b0 4d a1 83 bd ea c8 a4 bd c1 7a 4e be c4 7f c1 bc
       -0.0642725 -0.08046134 -0.20164014 -0.023620494
0003c0 6a c3 29 3c c9 20 2a bd ed 85 3b 3c 33 4d 18 3a
       0.010361532 -0.041535173 0.011445505 0.00058098434
0003d0 0a 08 82 3c 40 e8 8e bd d1 d7 84 3c 11 8b 36 bd
       0.015872974 -0.06977892 0.01621619 -0.044566218
0003e0 7e b5 93 3c b6 0b a9 bb b1 0e 1e be d3 59 f9 bd
       0.018030878 -0.0051588668 -0.15435292 -0.12175336
0003f0 cf 0c 13 be 92 68 92 3d ba e6 5e 3d 80 e3 89 3d
       -0.14360355 0.071488515 0.054419257 0.06732845

layer3.0.bias f4 [32]
000000 c3 8a 86 bd 5b 22 aa 3c b4 19 81 3c 7d 41 92 3c
       -0.065694354 0.020768335 0.015759327 0.017853493
000010 9f d6 bb 3d e6 b9 d4 3d 06 af 47 3d 1a e8 66 3d
       0.09171795 0.1038702 0.0487509 0.056373693
000020 b2 a5 f5 bc 35 12 19 3d e0 bf a4 3c 0e 2a 0b bd
       -0.029986236 0.03737088 0.020111024 -0.033975653
000030 2e f7 e6 3b a3 0d 9c 3c 4e 1f a3 3c ef 6a df 3c
       0.007048509 0.019049471 0.019912388 0.02727267
000040 c3 f3 6a bc b1 22 a6 3c df f2 c2 3c f2 f4 0c 3e
       -0.014340344 0.020280214 0.02379745 0.13765314
000050 46 c5 a3 bc e4 99 37 bd 8b 35 17 3e 2f 7c 11 bb
       -0.019991528 -0.044824496 0.14766519 -0.0022199263
000060 08 31 ae 3c 3c ff 9f bb 6d 47 0d bd 39 94 c9 bc
       0.021263614 -0.004882721 -0.034491945 -0.02460681
000070 a3 88 a3 3d c3 16 9f bb e0 73 8d 3d 9a 35 01 3c
       0.07985046 -0.0048550083 0.06906867 0.007886315
