data/seq2seq_model.pth (torch_old, 961727 bytes, 29 tensors)

encoder.layer1.0.weight f4 [32, 3, 3, 4]
0.015595249 0.029621007 -0.09961862 -0.13178003 -0.05316532 -0.10874011 0.15021095 0.704116
-0.053151578 0.35771796 0.15820864 -0.22666445 -0.025263745 -0.06767892 -0.24905686 -0.06316646
0.04815194 -0.12915221 0.35073793 0.675023 -0.21600993 0.3316148 0.25844562 -0.42461532
0.121088356 -0.020111965 -0.21337424 0.067422114 -0.11571139 -0.0063158995 0.057410304 0.35981676
0.010261986 0.28297865 0.16283722 -0.23812112 -0.16776204 0.44943342 0.26654753 0.2532887
-0.3400995 -0.13905874 -0.25780421 -0.124834195 0.036709268 0.09059204 -0.005691938 -0.020823864
-0.118328355 0.17505221 0.2779688 0.19706206 -0.38093394 -0.104373574 -0.25756562 -0.05092053
-0.081976034 -0.017422013 0.14226803 -0.010445626 -0.021629302 0.38285053 0.28024274 0.1018656
-0.17515883 -0.04230502 -0.41252968 -0.32512164 -0.1547709 0.28848127 0.11401736 0.029722057
-0.24245195 0.2114211 0.2011059 -0.12788974 -0.12176737 0.3397918 -0.041702908 -0.16589114
-0.119982176 0.2172184 -0.08504136 0.02345893 -0.35937423 0.2985021 0.30812263 -0.25609076
-0.18403576 0.5512963 -0.048594605 -0.17310011 -0.19797064 0.35046285 -0.04779629 -0.13634954
-0.1977281 0.23669367 0.112199105 -0.08841098 -0.082257606 0.1275054 -0.07891954 -0.046231072
-0.05072654 0.24317913 -0.17746797 0.04208297 -0.07700264 0.008096988 0.045523383 -0.04196396
0.0014937783 -0.34644553 -0.18703857 -0.05136929 -0.050523408 -0.27524698 0.0028683743 0.44112155
-0.26095352 -0.18717536 0.21248882 -0.0013734502 -0.0236923 -0.13037696 -0.22790228 0.08675685
-0.047358237 -0.3057596 -0.38507146 0.4425055 0.082235694 -0.08163539 0.06624359 -0.08720641
0.015000707 -0.3325479 -0.18472318 -0.110229634 0.07377953 -0.17024177 -0.05149305 0.34615663
0.06903948 0.11801099 -0.3043077 0.17415474 -0.25487542 0.2898519 -0.09330642 -0.05222442
0.015025335 0.3434833 -0.26286486 0.0055788103 -0.06466508 0.08181834 -0.33893403 0.17109342
-0.14851739 0.36700857 -0.19538644 0.03214205 -0.03306084 0.6235847 -0.33016464 -0.031513304
0.12247298 0.07377797 -0.15431893 -0.023894865 -0.26343867 0.121802464 -0.0010611789 0.121272326
-0.011777996 0.31344938 -0.28091866 -0.030956268 0.02705563 -0.1406594 -0.08293046 0.429233
0.09078196 -0.05021105 0.36645713 0.04447743 -0.30300567 0.07200084 0.20467035 -0.33221608
-0.14077897 -0.13745528 0.019787796 0.7978245 0.0017633528 0.1468172 0.3752188 0.120110884
-0.062089216 -0.09207926 0.16898182 -0.27453583 0.13603057 -0.12918092 -0.23121263 0.51214325
-0.07068098 0.100807436 0.34864327 -0.06642062 -0.24885625 0.14696665 -0.04158312 -0.21354735
0.6643286 0.16362216 0.2345499 -0.011945362 -0.2678793 -0.17922474 -0.013212855 -0.10475655
-0.011869364 -0.07919827 0.1767903 -0.042679243 0.9160532 0.6217713 0.2222839 -0.05528778
-0.17428254 -0.3609115 -0.042007547 -0.032831218 -0.108025834 -0.08729901 0.022839682 -0.05485753
0.31426474 0.13879487 -0.065038264 0.1007959 -0.17728491 -0.38878927 0.045051903 -0.10250869
0.01479898 0.028698897 0.25558966 -0.08169642 0.06663225 0.22439133 0.03918293 -0.042577956
00000000: 3783 7f3c c1a7 f23c d904 ccbd 58f1 06be
00000010: e1c3 59bd 23b3 debd e6d0 193e f240 343f
00000020: 78b5 59bd cf26 b73e 7201 223e ba1a 68be
00000030: eaf5 cebc 3f9b 8abd c308 7fbe 6b5d 81bd
00000040: f83a 453d 7a40 04be ec93 b33e 4fce 2c3f
00000050: b531 5dbe 6ac9 a93e fc52 843e 2e67 d9be
00000060: 2cfd f73d d9c1 a4bc c77e 5abe 9b14 8a3d
00000070: 18fa ecbd 9bf5 cebb 1127 6b3d e739 b83e
00000080: e421 283c 94e2 903e cdbe 263e 06d6 73be
00000090: d0c9 2bbe 231c e63e eb78 883e 0eaf 813e
000000a0: 8621 aebe 6a65 0ebe eafe 83be 12a9 ffbd
000000b0: 755c 163d 5288 b93d 7083 babb cf96 aabc
000000c0: 2356 f2bd e340 333e ed51 8e3e a3ca 493e
000000d0: c609 c3be d0c1 d5bd a4df 83be 0c92 50bd
000000e0: 0de3 a7bd 9cb8 8ebc b6ae 113e 2224 2bbc
000000f0: ef2f b1bc fc04 c43e fa7b 8f3e e99e d03d
00000100: d65c 33be 0748 2dbd 1737 d3be 5876 a6be
00000110: 437c 1ebe d1b3 933e ef81 e93d ac7b f33c
00000120: 5345 78be c67e 583e b4ee 4d3e 87f5 02be
00000130: 2c61 f9bd 31f9 ad3e abd0 2abd 5edf 29be
00000140: 37b9 f5bd 806e 5e3e 2a2a aebd f12c c03c
00000150: e6ff b7be 44d5 983e 40c2 9d3e 541e 83be
00000160: df73 3cbe c121 0d3f 230b 47bd 2841 31be
00000170: d1b8 4abe de6f b33e 0bc6 43bd 379f 0bbe
00000180: 3c79 4abe d35f 723e a5c8 e53d d110 b5bd
00000190: ad76 a8bd c790 023e 91a0 a1bd cb5c 3dbd
000001a0: a2c6 4fbd f303 793e 2aba 35be 315f 2c3d
000001b0: 8fb3 9dbd 3ba9 043c ba76 3a3d 67e2 2bbd
000001c0: e2ca c33a 4f61 b1be 0a87 3fbe 9b68 52bd
000001d0: a2f1 4ebd 2ced 8cbe 56fb 3b3b afda e13e
000001e0: b39b 85be e6aa 3fbe ab96 593e 5705 b4ba
000001f0: 5b16 c2bc 8a81 05be 375f 69be 93ad b13d
00000200: b6fa 41bd 868c 9cbe 1628 c5be 1590 e23e
00000210: 306b a83d 7530 a7bd b8aa 873d 4699 b2bd
00000220: 86c5 753c b843 aabe 1328 3dbe 13c0 e1bd
00000230: b919 973d dc53 2ebe 60ea 52bd 713b b13e
00000240: 9264 8d3d bfaf f13d 38ce 9bbe 9f55 323e
00000250: 087f 82be 7867 943e 7017 bfbd 46e9 55bd
00000260: d32c 763c 0bdd af3e 3996 86be 74ce b63b
00000270: 206f 84bd 6090 a73d c388 adbe 1d33 2f3e
00000280: f114 18be 8ce8 bb3e 6213 48be 62a7 033d
00000290: ce6a 07bd 3fa3 1f3f 570b a9be 1814 01bd
000002a0: 1dd3 fa3d e818 973d c805 1ebe 2abf c3bc
000002b0: 6fe1 86be 9273 f93d 4117 8bba a05d f83d
000002c0: 7ff8 40bc 707c a03e 92d4 8fbe 0098 fdbc
000002d0: c5a3 dd3c 0509 10be 72d7 a9bd 6ec4 db3e
000002e0: e4eb b93d 1aaa 4dbd 45a0 bb3e f72d 363d
000002f0: 8f23 9bbe 2d75 933d 1b95 513e 3a18 aabe
00000300: 5d28 10be 14c1 0cbe 041a a23c 3a3e 4c3f
00000310: 4d20 e73a 4057 163e ae1c c03e b2fc f53d
00000320: 4351 7ebd 0d94 bcbd 9209 2d3e f68f 8cbe
00000330: 994b 0b3e 0148 04be 01c3 6cbe d21b 033f
00000340: 31c1 90bd 2174 ce3d 5f81 b23e 8907 88bd
00000350: 2cd4 7ebe 6d7e 163e 1053 2abd 28ac 5abe
00000360: 7011 2a3f 918c 273e d92d 703e 7bb6 43bc
00000370: 7a27 89be b186 37be bb7a 58bc 9a8a d6bd
00000380: b977 42bc b432 a2bd 8408 353e 6ed0 2ebd
00000390: 7682 6a3f 672c 1f3f 649e 633e 7075 62bd
000003a0: 1f77 32be 64c9 b8be 1b10 2cbd 077a 06bd
000003b0: a63c ddbd d3c9 b2bd 491a bb3c 4ab2 60bd
000003c0: 4fe7 a03e 3e20 0e3e c832 85bd 156e ce3d
000003d0: 2d8a 35be 630f c7be 5888 383d 13f0 d1bd
000003e0: 6c77 723c f319 eb3c a6dc 823e 7450 a7bd
000003f0: 7d76 883d d7c6 653e 487e 203d 3966 2ebd

encoder.layer1.0.bias f4 [32]
0.18599467 -0.08748324 0.17442241 -0.30821046 -0.029598683 -0.4265222 0.18904832 -0.017050916
-0.084405005 -0.17500748 -0.06212632 -0.0042283316 -0.10175184 0.22946873 -0.36080086 -0.04687891
0.2338821 0.26762164 -0.078644946 -0.020299006 -0.08058161 0.10806021 0.25463462 -0.24780512
-0.1984607 0.5295501 -0.09299353 -0.14545357 -0.13297772 -0.30652153 -0.08480398 -0.1537507
00000000: 6375 3e3e 6a2a b3bd ca9b 323e c3cd 9dbe
00000010: f078 f2bc 1e61 dabe e295 413e 5dae 8bbc
00000020: 88dc acbd 2935 33be 2b78 7ebd d18d 8abb
00000030: 4563 d0bd daf9 6a3e e4ba b8be 1a04 40bd
00000040: ca7e 6f3e b405 893e 9a10 a1bd 1a4a a6bc
00000050: f907 a5bd ac4e dd3d 785f 823e a0c0 7dbe
00000060: 4839 4bbe 9890 073f 6473 bebd c8f1 14be
00000070: 502b 08be 64f0 9cbe b6ad adbd d370 1dbe

encoder.layer1.1.weight f4 [32]
0.7886936 0.13497303 0.48922637 0.24787141 0.376868 0.592417 0.6951617 0.43704826
0.35310984 0.20227402 0.35865808 0.7989828 0.33052805 0.41943696 0.2464173 0.25608587
0.30944133 0.76473737 0.29825667 0.32227424 0.397877 0.33870652 0.4172839 0.20053591
0.2391161 0.31705934 -0.0005122242 0.53594685 0.47062117 0.29848716 0.4866581 0.902364
00000000: d3e7 493f 5f36 0a3e e17b fa3e 01d2 7d3e
00000010: d8f4 c03e a4a8 173f 1ef6 313f cac4 df3e
00000020: d0ca b43e ec20 4f3e 08a2 b73e 238a 4c3f
00000030: f93a a93e 71c0 d63e d154 7c3e b01d 833e
00000040: 186f 9e3e d4c5 433f 19b5 983e 2101 a53e
00000050: 89b6 cb3e f16a ad3e 3ca6 d53e 4959 4d3e
00000060: dada 743e 9a55 a23e c946 06ba d033 093f
00000070: 42f5 f03e 4fd3 983e 402b f93e 5401 673f

encoder.layer1.1.bias f4 [32]
-0.23986709 0.104578055 0.20867392 -0.10516927 0.18282513 -0.100476235 -0.16263363 -0.24175072
0.057738725 0.052088197 0.034201585 -0.15426782 0.12149777 0.05542851 0.11395847 0.0754434
-0.07547204 -0.10670917 0.07317271 0.026016958 -0.13751571 -0.3215986 -0.047737308 0.061585277
-0.02137184 0.12380736 -0.02202578 -1.1434567 -0.03007272 0.10070616 -0.95183575 -0.16953251
00000000: b89f 75be 052d d63d 9eae 553e fc62 d7bd
00000010: 8336 3b3e 7cc6 cdbd 6e89 26be 808d 77be
00000020: 717f 6c3d 6f5a 553d f616 0c3d 62f8 1dbe
00000030: d3d3 f83d 0109 633d 0f63 e93d 1282 9a3d
00000040: 1691 9abd 568a dabd 93db 953d 8421 d53c
00000050: ebd0 0cbe 92a8 a4be 3288 43bd d840 7c3d
00000060: ff13 afbc b78e fd3d 696f b4bc ca5c 92bf
00000070: 115b f6bc 083f ce3d 82ab 73bf ee99 2dbe

encoder.layer1.1.running_mean f4 [32]
1.410709 -0.1871798 0.3353227 -1.6064093 0.107220136 0.6643241 1.2604644 -0.0050720475
-0.012781337 -3.2674274 0.0014285386 0.87444085 0.14963745 0.28819883 -0.05972546 -0.6486227
0.5322756 1.5777817 -0.14316343 0.16263534 -0.20782442 0.35497877 0.61349344 -0.60792667
-0.1080069 0.68591756 -0.31030485 -1.1856834 0.13925007 -0.15543139 -1.9395598 2.8034475
00000000: 1d92 b43f 10ac 3fbe 6baf ab3e d29e cdbf
00000010: 3b96 db3d 2511 2a3f e656 a13f 6b33 a6bb
00000020: d068 51bc 881d 51c0 cd3d bb3a 5bdb 5f3f
00000030: 8f3a 193e cc8e 933e afa2 74bd 230c 26bf
00000040: 3743 083f c0f4 c93f 6f99 12be e189 263e
00000050: edcf 54be c7bf b53e e80d 1d3f 15a1 1bbf
00000060: b932 ddbd 4b98 2f3f 47e0 9ebe 79c4 97bf
00000070: 9297 0e3e 6829 1fbe 7f43 f8bf af6b 3340

encoder.layer1.1.running_var f4 [32]
0.26494905 0.075510964 0.08546859 0.35938123 0.030603958 0.29835507 0.24232441 0.018829187
0.03610823 0.97802824 0.07847081 0.16724826 0.077924274 0.04935986 0.09169575 0.43112978
0.06440054 0.466762 0.08612676 0.0857578 0.020151757 0.44584402 0.07372969 0.09416711
0.06961423 0.06636732 0.01873543 0.21632515 0.07109884 0.05319641 0.45672637 1.1217225
00000000: 67a7 873e 7ea5 9a3d 280a af3d d100 b83e
00000010: 27b5 fa3c ffc1 983e e423 783e ab3f 9a3c
00000020: 39e6 133d 0f60 7a3f 4eb5 a03d 2143 2b3e
00000030: c396 9f3d 912d 4a3d fbca bb3d 0bbd dc3e
00000040: 6ee4 833d 6efb ee3e 3a63 b03d c9a1 af3d
00000050: 4c15 a53c ab45 e43e 97ff 963d b0da c03d
00000060: e891 8e3d 97eb 873d 0b7b 993c 5784 5d3e
00000070: 459c 913d 7be4 593d 0ad8 e93e 9a94 8f3f

encoder.layer2.0.weight f4 [64, 32, 4, 3]
0.11650087 0.124897726 -0.22059187 0.13680923 -0.086860806 -0.06488927 0.09792603 0.04219695
-0.3526656 -0.044763066 -0.0011702033 -0.21910968 0.23610963 -0.21195695 0.073053375 0.0037113947
-0.25769293 0.020961251 0.035099477 -0.31555814 -0.16998443 0.019171303 -0.06713555 -0.5072324
-0.037507024 0.23461398 -0.33637005 0.06519078 0.30881962 -0.13113949 -0.011601646 0.21917666
-0.2859708 -0.052354597 0.04795568 -0.110777706 -0.2271084 -0.30550435 0.06485863 -0.08845698
-0.25098884 0.033468787 -0.030514514 -0.13405752 0.16492954 -0.036123108 -0.2092607 -0.02811395
-0.11097326 0.09136622 -0.059323076 -0.09187075 0.086559944 -0.06910378 -0.06166695 -0.034878258
-0.012052759 -0.21423301 -0.295014 0.25964525 -0.09104592 -0.2039387 -0.016173556 -0.0436063
-0.12778993 -0.0028946868 0.13642111 -0.31405032 -0.4479886 0.1030566 0.030795723 -0.6918591
-0.08324479 0.15340638 0.13904832 -0.06746294 0.12681039 -0.03758814 -0.0032363883 0.27032834
-0.06528816 -0.077538125 0.091108195 0.11981351 -0.11041648 0.18381076 -0.17462991 -0.03820058
0.2271916 -0.25944394 -0.042329032 0.23913294 -0.2725464 -0.101764634 0.11725523 0.0043956116
-0.09156152 -0.034408372 -0.3465449 0.028315337 0.002933423 -0.4717862 0.107248835 -0.12755765
-0.40122798 -0.28412348 -0.03199621 -0.096549004 -0.16236937 0.10472514 0.033154313 -0.14250606
0.057039235 0.22514951 -0.0074376166 -0.008402434 0.12099691 -0.14932172 -0.16776447 0.00379672
0.3429463 0.2364194 -0.08447561 0.25247923 0.10112384 -0.19822586 0.20984054 0.037655693
-0.46083614 0.06268754 0.050202865 -0.77598387 0.1744538 -0.11719582 -0.37119743 0.15713808
-0.204205 -0.18653336 0.11792247 -0.07799122 -0.10992731 -0.013025047 0.050846294 0.14730507
0.17289972 -0.06185683 -0.09828934 0.2162991 -0.03042021 -0.31476313 0.3135194 0.07625239
-0.22832413 0.13299216 0.6875744 -0.04057469 0.16857818 0.22710271 0.006300298 0.07793059
0.16349004 -0.021317976 0.12997226 0.15245192 -0.0986847 0.02279388 -0.26486713 -0.22177646
-0.010746549 -0.22958761 -0.045657557 0.047084015 -0.27191213 0.08693924 0.1356329 -0.13221604
0.14160709 0.068483226 -0.26618254 -0.23034532 -0.1594828 0.09761255 0.11261003 -0.055765253
0.2537877 0.23107454 -0.0187373 0.23183686 0.15527013 -0.035039023 -0.05987752 0.27312273
0.05825695 -0.1279282 -0.18276078 -0.05681796 -0.0020727487 -0.13152012 -0.22144094 0.1730735
-0.1770144 -0.39344534 0.35767668 -0.045731265 0.023858933 -0.078747876 0.15517898 -0.15183474
0.116676554 -0.08705478 -0.110231705 0.060611937 0.12257621 -0.15142007 -0.3012942 0.45095032
-0.11447053 -0.36753964 0.01983814 -0.026740335 -0.3222765 0.13615873 -0.053880654 -0.4061885
0.15843874 0.20221642 -0.7502179 0.25643015 -0.020914951 -0.081642866 -0.19555493 -0.061180275
0.23430648 -0.24396546 -0.11440656 0.13869578 -0.1388762 -0.20075406 0.10359433 0.2015539
0.08227122 0.32985717 -0.04508863 0.21056503 0.21486777 -0.1736839 0.07236324 0.39191082
-0.43664938 -0.119777456 0.33704552 -0.2553767 0.15956828 -0.20753388 -0.09622574 0.27562875
00000000: 0298 ee3d 61ca ff3d d6e2 61be b817 0c3e
00000010: 14e4 b1bd aae4 84bd 718d c83d b6d6 2c3d
00000020: 9690 b4be 7a59 37bd 8261 99ba 4a5e 60be
00000030: b9c6 713e 3e0b 59be 029d 953d df3a 733b
00000040: 54f0 83be eeb6 ab3c 78c4 0f3d d690 a1be
00000050: 6610 2ebe 230d 9d3c 5d7e 89bd fcd9 01bf
00000060: f7a0 19bd a63e 703e b238 acbe be82 853d
00000070: 9b1d 9e3e 6e49 06be d514 3ebc d96f 603e
00000080: c46a 92be c671 56bd 2d6d 443d 6cdf e2bd
00000090: 1b8f 68be 116b 9cbe 9ad4 843d ef28 b5bd
000000a0: 9c81 80be 9116 093d 93f9 f9bc 6046 09be
000000b0: 4ae3 283e d3f5 13bd 7048 56be 3a4f e6bc
000000c0: f345 e3bd 361e bb3d c1fc 72bd bb26 bcbd
000000d0: 5746 b13d 4886 8dbd 7c96 7cbd 81dc 0ebd
000000e0: ef78 45bc e65f 5bbe 130c 97be 39f0 843e
000000f0: 4976 babd 4ed5 50be 687e 84bc 859c 32bd
00000100: 5ddb 02be c9b4 3dbb fab1 0b3e 34cb a0be
00000110: c35e e5be 570f d33d 5047 fc3c ae1d 31bf
00000120: 3f7c aabd 9016 1d3e af62 0e3e 032a 8abd
00000130: 95da 013e 06f6 19bd 9619 54bb 7a68 8a3e
00000140: cdb5 85bd 4fcc 9ebd ef96 ba3d c960 f53d
00000150: 0922 e2bd e338 3c3e 2fd2 32be 3678 1cbd
00000160: eaa4 683e d6d5 84be 3561 2dbd 44df 743e
00000170: 348b 8bbe fa69 d0bd 8323 f03d 1009 903b
00000180: 9b84 bbbd cbef 0cbd 556e b1be 91f5 e73c
00000190: ac3e 403b f68d f1be 47a5 db3d 799e 02be
000001a0: c16d cdbe a278 91be 750e 03bd 7cbb c5bd
000001b0: 2844 26be 227a d63d d1cc 073d 1ced 11be
000001c0: f9a1 693d 988d 663e 40b7 f3bb 5daa 09bc
000001d0: 3acd f73d cbe7 18be 73ca 2bbe 64d2 783b
000001e0: a896 af3e ed17 723e 8c01 adbd f544 813e
000001f0: 041a cf3d b8fb 4abe 70e0 563e db3c 1a3d
00000200: b7f2 ebbe 5362 803d 85a1 4d3d e1a6 46bf
00000210: 04a4 323e 5d04 f0bd 970d bebe cee8 203e
00000220: 1e1b 51be 9a02 3fbe 5681 f13d dcb9 9fbd
00000230: 9221 e1bd 0267 55bc 3444 503d 24d7 163e
00000240: a00c 313e 965d 7dbd ec4b c9bd 837d 5d3e
00000250: ce33 f9bc a228 a1be 9d85 a03e 372a 9c3d
00000260: cdcd 69be 192f 083e e004 303f a531 26bd
00000270: c29f 2c3e 9d8d 683e bb72 ce3b 139a 9f3d
00000280: ef69 273e 09a3 aebc 7317 053e 5b1c 1c3e
00000290: 341b cabd 3bba ba3c aa9c 87be 5e19 63be
000002a0: 4b12 30bc 0419 6bbe 6b03 3bbd 2bdb 403d
000002b0: 1138 8bbe 330d b23d 5ae3 0a3e a463 07be
000002c0: 7301 113e ef40 8c3d 1449 88be a5df 6bbe
000002d0: 764f 23be 17e9 c73d 16a0 e63d 1b6a 64bd
000002e0: 76f0 813e ce9e 6c3e f77e 99bc a466 6d3e
000002f0: 22ff 1e3e 1485 0fbd 2142 75bd bed6 8b3e
00000300: d79e 6e3d 9cff 02be a425 3bbe f3b9 68bd
00000310: f4d6 07bb 36ad 06be 6ac1 62be 2e3a 313e
00000320: 4343 35be ab71 c9be 6621 b73e b550 3bbd
00000330: cf73 c33c 9146 a1bd 3de7 1e3e 917a 1bbe
00000340: 1ef4 ee3d c749 b2bd 29c1 e1bd 3944 783d
00000350: 3c09 fb3d dd0d 1bbe 3c43 9abe f6e2 e63e
00000360: 866f eabd 282e bcbe 9883 a23c 8c0e dbbc
00000370: 6d01 a5be 326d 0b3e f6b1 5cbd f0f7 cfbe
00000380: c43d 223e d211 4f3e 480e 40bf d04a 833e
00000390: d555 abbc 6034 a7bd 8d3f 48be 2b98 7abd
000003a0: 0aee 6f3e 15d2 79be fd4d eabd 4406 0e3e
000003b0: 9035 0ebe 7992 4dbe 4429 d43d 2564 4e3e
000003c0: d07d a83d 0ae3 a83e dbae 38bd 5c9e 573e
000003d0: 4c06 5c3e 31da 31be 2e33 943d 89a8 c83e
000003e0: 8290 dfbe e24d f5bd 3b91 ac3e bcc0 82be
000003f0: de65 233e c383 54be 0012 c5bd 361f 8d3e

encoder.layer2.0.bias f4 [64]
-0.05116901 0.00052853965 0.14673397 0.054783717 0.07531572 0.01922173 0.21431307 0.013085379
0.05264152 -0.15487179 -0.009690835 0.15260401 0.34291148 0.23572248 0.06860903 0.11829554
0.06808314 0.19088344 -0.2028959 0.2561473 0.031029416 0.14158666 0.09253037 0.10640676
-0.191423 -0.0052969195 0.2314359 -0.15230279 -0.020433936 0.035119824 0.10673104 -0.05780055
0.12472025 0.108643174 0.04581231 -0.071620755 -0.03438108 0.1401846 -0.069982536 0.09380871
-0.037391722 0.39275736 0.17820868 0.09781874 0.20007937 0.019814888 -0.03765784 0.19609568
-0.11318122 -0.045733694 0.03290006 0.16947839 0.09540146 0.07687143 0.066868424 0.009445132
0.27193686 0.13869046 0.039612297 0.16730383 -0.32868868 0.24016547 -0.082176946 -0.05859713
00000000: 9996 51bd b28d 0a3a 6e41 163e e464 603d
00000010: 213f 9a3d e476 9d3c e374 5b3e 0f64 563c
00000020: a29e 573d b696 1ebe 4fc6 1ebc 3a44 1c3e
00000030: 1892 af3e 3c61 713e e482 8c3d ef44 f23d
00000040: 2c6f 8b3d f376 433e f1c3 4fbe bd25 833e
00000050: 6731 fe3c 18fc 103e 9080 bd3d caeb d93d
00000060: 6404 44be c891 adbb 88fd 6c3e 43f5 1bbe
00000070: 1265 a7bc ced9 0f3d ce95 da3d 45c0 6cbd
00000080: 556d ff3d 5080 de3d b0a5 3b3d e7ad 92bd
00000090: 2dd3 0cbd 8d8c 0f3e 0153 8fbd c81e c03d
000000a0: 1028 19bd 7e17 c93e 567c 363e 3155 c83d
000000b0: 9be1 4c3e d552 a23c 1b3f 1abd 4ecd 483e
000000c0: 8ecb e7bd 4153 3bbd 37c2 063d be8b 2d3e
000000d0: d761 c33d c56e 9d3d 50f2 883d c1bf 1a3c
000000e0: 4f3b 8b3e df04 0e3e 8140 223d b251 2b3e
000000f0: e249 a8be f0ed 753e 634c a8bd 8b03 70bd

encoder.layer2.1.weight f4 [64]
0.5966175 0.56076854 0.47065198 0.5343492 0.28364912 0.19741817 0.40529615 0.64561135
0.36482394 0.30980113 0.3892799 0.43076065 0.56912625 0.52050483 0.4354714 0.5741423
0.50509477 0.48046288 0.4820596 0.3886354 0.5004648 0.6061439 0.37200603 0.6129395
0.36093313 0.51712704 0.59198934 0.5797789 0.4194948 0.48053277 0.6588212 0.5144401
0.38258806 0.5836159 0.3877594 0.44493628 0.6751831 0.40534976 0.5469466 0.50130194
0.7263416 0.49933523 0.38666785 0.52636003 0.40649047 0.4803665 0.59986424 0.45323646
0.45802096 0.45686603 0.46550733 0.4559879 0.4903686 0.6037871 0.4688968 0.60968983
0.5588081 0.54608977 0.5369103 0.47310528 0.5410262 0.53567827 0.42425284 0.6224223
00000000: edbb 183f 878e 0f3f 4cf9 f03e 1ccb 083f
00000010: 753a 913e fd27 4a3e fa82 cf3e c946 253f
00000020: 34ca ba3e 419e 9e3e b24f c73e a98c dc3e
00000030: 42b2 113f ce3f 053f 1bf6 de3e fdfa 123f
00000040: e44d 013f 3bff f53e 84d0 f63e 38fb c63e
00000050: 761e 003f 3f2c 1b3f 9377 be3e 9ae9 1c3f
00000060: 3acc b83e 7062 043f 9d8c 173f 646c 143f
00000070: 06c8 d63e 6408 f63e 82a8 283f 59b2 033f
00000080: 95e2 c33e da67 153f 6688 c63e b0ce e33e
00000090: cdd8 2c3f 018a cf3e b104 0c3f 5355 003f
000000a0: 86f1 393f dea8 ff3e 54f9 c53e 88bf 063f
000000b0: 851f d03e 99f2 f53e b490 193f 9c0e e83e
000000c0: b981 ea3e 58ea e93e fa56 ee3e 3f77 e93e
000000d0: 9811 fb3e cb91 1a3f 3e13 f03e a214 1c3f
000000e0: 0c0e 0f3f 8acc 0b3f f472 093f db3a f23e
000000f0: b180 0a3f 3622 093f ab37 d93e 1157 1f3f

encoder.layer2.1.bias f4 [64]
-0.3066703 -0.4759206 -0.1380361 -0.19532141 -0.042529773 -0.009226443 -0.20260286 -0.4000228
-0.28827536 0.28499162 0.15698187 -0.28706935 -0.5050462 -0.42515808 -0.20192596 -0.36096758
-0.39882073 -0.13388552 -0.36179584 -0.035889857 -0.5273224 -0.13301143 -0.30795315 -0.006147323
-0.09862447 -0.003906934 -0.30427438 -0.26488346 -0.26041394 -0.1225378 -0.64271986 -0.24332911
-0.13722943 -0.48174325 -0.24420613 -0.34838265 -0.2107918 0.00905886 -0.10553123 -0.06404032
-0.14948335 -0.4398203 -0.022994153 -0.3988476 -0.20057495 -0.35679132 -0.5150826 -0.075308524
-0.32479665 -0.10786144 -0.3956151 -0.24014577 -0.39071074 -0.4302308 0.12836204 -0.30297586
-0.58108187 -0.39003313 -0.39560556 -0.38686612 -0.26300746 -0.4157872 -0.17536218 -0.25338697
00000000: e403 9dbe ddab f3be 5659 0dbe 5602 48be
00000010: b333 2ebd 822a 17bc 2077 4fbe cacf ccbe
00000020: d498 93be 6cea 913e dbbf 203e c1fa 92be
00000030: b54a 01bf 52ae d9be aec5 4ebe bed0 b8be
00000040: 3b32 ccbe 4919 09be 4e3d b9be 3e01 13bd
00000050: 9afe 06bf 2634 08be 09ac 9dbe 7c6f c9bb
00000060: a0fb c9bd bd05 80bb dac9 9bbe ce9e 87be
00000070: fa54 85be 19f5 fabd 4a89 24bf 442b 79be
00000080: df85 0cbe 0da7 f6be 2c11 7abe 365f b2be
00000090: ced9 57be 9d6b 143c c220 d8bd 9227 83bd
000000a0: 2a12 19be 2030 e1be 3c5e bcbc c135 ccbe
000000b0: 8563 4dbe 5aad b6be 74dc 03bf 5b3b 9abd
000000c0: bf4b a6be 75e6 dcbd 108e cabe c6e8 75be
000000d0: 3d0b c8be 3647 dcbe 5771 033e a71f 9bbe
000000e0: c8c1 14bf 6cb2 c7be d08c cabe 5113 c6be
000000f0: eaa8 86be 0fe2 d4be 2592 33be f0bb 81be

encoder.layer2.1.running_mean f4 [64]
-1.1338089 -1.4046029 0.04914519 -0.566616 -1.0041198 -0.64424574 -0.66935915 -1.3244781
-0.871338 4.238745 -0.6797543 -1.5660683 -1.261916 -0.7288754 -0.89979374 -2.3506048
-2.2277377 -0.5535262 -2.5477812 -0.7391182 -2.228563 -1.7802505 -1.1784577 -1.7239197
-1.3500047 0.6293627 -0.8877853 -1.1054652 -0.8054272 -0.7100155 -1.1420827 -1.1054678
-1.6159683 -0.84945077 -0.44957167 -2.5622807 -0.43715897 1.0556632 -0.03964745 -0.946825
0.620383 -3.2269857 0.4963064 -1.0218693 -0.8326828 -1.2741251 -1.1169281 -0.037765037
-1.0856208 -0.2773142 -1.6278915 -1.4194762 -1.1057029 -1.3756444 1.362297 -0.78387606
-0.8176486 -1.3317481 -2.689505 -2.0643892 -1.1004951 -0.86438936 0.04017162 -1.7380334
00000000: a620 91bf 07ca b3bf 774c 493d bf0d 11bf
00000010: ff86 80bf 4aed 24bf 1f5b 2bbf 8088 a9bf
00000020: 0210 5fbf cda3 8740 6104 2ebf ed74 c8bf
00000030: 7786 a1bf 9497 3abf e258 66bf 4f70 16c0
00000040: 4193 0ec0 e5b3 0dbf d90e 23c0 da36 3dbf
00000050: c7a0 0ec0 40df e3bf b4d7 96bf 67a9 dcbf
00000060: f4cc acbf ea1d 213f e645 63bf e27f 8dbf
00000070: 7a30 4ebf 93c3 35bf c42f 92bf f87f 8dbf
00000080: 0dd8 cebf 9b75 59bf 422e e6be 68fc 23c0
00000090: 4dd3 dfbe f91f 873f 5d65 22bd 2063 72bf
000000a0: 6cd1 1e3f ef86 4ec0 df1b fe3e 9dcc 82bf
000000b0: b32a 55bf 8816 a3bf 80f7 8ebf 83af 1abd
000000c0: 9ff5 8abf 20fc 8dbe c05e d0bf 65b1 b5bf
000000d0: ac87 8dbf 1e15 b0bf c05f ae3f 1aac 48bf
000000e0: 6b51 51bf b976 aabf da20 2cc0 f41e 04c0
000000f0: 06dd 8cbf 9f48 5dbf ff8a 243d e177 debf

encoder.layer2.1.running_var f4 [64]
1.8352864 1.0116869 1.4060094 1.7512261 1.3602263 0.52014273 1.2764863 1.0880908
0.57537764 1.958069 2.0439265 1.3767511 0.69353485 0.6530207 1.5152934 1.524686
1.0120579 1.0403991 1.4058315 1.4223609 0.7199478 1.824346 0.59030336 3.352698
0.83099765 1.800891 1.6246988 1.2950019 0.95408016 0.91128224 0.66489154 2.6575716
0.8562735 0.7357055 0.795633 1.9738681 3.0481417 2.4399588 1.9639492 1.9536363
2.192109 0.8399925 1.1937354 0.71006125 0.7221527 0.79840964 0.68170553 1.6809847
0.89503515 1.3983012 0.8492432 1.3823106 0.6750033 0.65427613 3.063431 1.0061224
0.5423871 1.0031945 2.0705006 1.0007032 1.4841027 0.65449035 0.79188704 5.7279453
00000000: aaea ea3f f57e 813f 1ef8 b33f 2d28 e03f
00000010: e51b ae3f 1328 053f e763 a33f 8f46 8b3f
00000020: f34b 133f 01a2 fa3f b1cf 0240 6139 b03f
00000030: 808b 313f 5d2c 273f 22f5 c13f e928 c33f
00000040: 1d8b 813f cc2b 853f 49f2 b33f ec0f b63f
00000050: 804e 383f 2b84 e93f 1f1e 173f 9b92 5640
00000060: 43bc 543f 9983 e63f 21f6 cf3f 9fc2 a53f
00000070: 993e 743f cb49 693f 5536 2a3f a715 2a40
00000080: bd34 5b3f 3257 3c3f 9bae 4b3f b6a7 fc3f
00000090: c114 4340 4928 1c40 b062 fb3f c110 fa3f
000000a0: 844b 0c40 c009 573f 52cc 983f 93c6 353f
000000b0: 00df 383f 9364 4c3f 4184 2e3f 822a d73f
000000c0: 0621 653f 89fb b23f 0168 593f 8eef b03f
000000d0: 04cd 2c3f a47e 273f 410f 4440 9ec8 803f
000000e0: e2d9 0a3f ad68 803f 1583 0440 0b17 803f
000000f0: 14f7 bd3f ae8c 273f 1cb9 4a3f 544b b740

encoder.layer3.0.weight f4 [128, 64, 4, 2]
-0.7447763 -0.03130606 -0.08919496 0.42711863 0.15130787 0.07303247 0.023391994 -0.14991325
-0.2250935 -0.15812002 0.1171059 0.074065015 0.117487706 0.10216904 0.21927293 0.09450841
0.33850834 0.0486328 0.058467217 0.21027093 0.083061725 0.19742353 -0.10964331 0.0016268613
0.14046225 0.077600285 0.33825162 0.162166 0.035155077 -0.22531024 0.0466746 0.059216198
0.24875508 -0.4760606 0.24118811 -0.10334256 0.16977532 0.13569063 0.15277423 0.12010604
0.004866159 0.220981 0.027267706 0.043456193 0.19533718 0.09249726 0.25779685 0.34055492
0.3043605 0.0156251 0.52212656 -0.07753157 0.04563311 -0.13166273 -0.01565435 0.08899818
0.012566095 0.13160022 -0.2645583 -0.087797076 -0.08060919 -0.14463696 0.042935267 -0.18676016
-0.07493963 -0.18121442 0.050323773 -0.1885352 -0.036431585 0.09587285 -0.07315836 -0.06574423
-0.35172266 -0.35664 0.022147924 0.07229267 0.38596585 0.29347602 0.027720556 0.07556275
0.119355746 0.06564139 0.19858284 -0.26933163 -0.24555992 -0.02180846 0.113732584 -0.16231766
-0.1841782 -0.07550442 -0.34566632 0.16631702 0.015287626 -0.13059281 0.19113573 0.19993211
0.25200844 0.098466866 0.025851702 0.22588459 -0.21495971 -0.25488856 0.1814636 -0.02196369
0.23987411 -0.24247926 0.20321983 -0.7459576 -0.1855828 -0.363231 -0.020383859 -0.11762614
-0.036954235 -0.19197807 -0.061353687 0.22481196 -0.1868185 -0.03573727 0.023666857 -0.026102297
0.045459636 -0.004524694 -0.08062089 -0.2488789 -0.047075815 -0.055859152 -0.095719695 0.14904614
-0.056015816 -0.26487187 0.2904662 0.009676702 -0.020977693 0.14963613 -0.037346452 0.15536353
-0.06248316 -0.09975737 -0.0616498 0.07780173 0.099499434 -0.08192785 -0.0041643907 0.1962234
-0.0845129 -0.41728693 0.16474356 0.39161447 -0.033124782 0.042532742 0.053648673 0.41305307
0.18290663 -0.0701583 -0.34575528 -0.64497566 -0.10754357 -0.039468437 0.017730638 0.029772857
0.36302796 -0.15576507 0.34238586 0.11179834 -0.0362819 0.071991935 0.16096492 0.04488916
0.064334676 -0.3875842 -0.14505474 0.16864845 -0.00012046573 0.23967849 0.04977538 0.39485312
0.23626518 -0.06291651 0.30249524 -0.08357961 0.037351895 -0.17378342 0.14008793 -0.0686525
-0.9640511 -0.108222574 -0.0017870137 0.2294884 0.14870039 0.21526422 0.06982404 0.104349755
0.30384156 -0.009222529 0.0060231783 -0.18024808 -0.056148827 -0.06684759 -0.12800126 0.011729277
-0.29079223 -0.6140807 -0.09554538 -0.08265203 -0.25766915 0.13723665 0.13871652 0.07584155
-0.092157505 -0.5395336 0.101358205 0.24401318 -0.17306687 0.07098962 -0.09269207 0.32724085
0.08345152 -0.2556506 0.0045462046 -0.08203448 -0.18289073 0.07823672 -0.10029571 0.029528983
-0.4686267 0.41431537 0.0018997199 -0.1739459 0.0965537 0.012021972 -0.0112316 0.1147189
-0.20281701 -0.0988757 -0.22003625 0.3372507 0.052364998 -0.10486413 0.09019631 0.10321013
0.27241376 0.07315284 0.10952805 0.2423888 -0.08090339 -0.21562003 0.100656725 -0.06263994
0.047618244 -0.39386702 -0.122587346 -0.21506537 -0.12436233 0.1652018 0.2845839 0.104355074
00000000: a9a9 3ebf c83a 00bd d9ab b6bd 4baf da3e
00000010: 73f0 1a3e 0c92 953d 91a0 bf3c dc82 19be
00000020: e97e 66be 37ea 21be 38d5 ef3d 66af 973d
00000030: 659d f03d 003e d13d 1589 603e a08d c13d
00000040: f750 ad3e 3033 473d 527b 6f3d 4351 573e
00000050: 441c aa3d 6529 4a3e ac8c e0bd 683c d53a
00000060: 56d5 0f3e e6ec 9e3d 512f ad3e d80e 263e
00000070: c5fe 0f3d bab7 66be de2d 3f3d af8c 723d
00000080: a7b9 7e3e 37be f3be 04fa 763e 44a5 d3bd
00000090: 95d9 2d3e 7cf2 0a3e d970 1c3e 28fa f53d
000000a0: 4d74 9f3b d848 623e 8660 df3c 1fff 313d
000000b0: 7806 483e 346f bd3d f3fd 833e 375d ae3e
000000c0: 24d5 9b3e 3600 803c 16aa 053f dfc8 9ebd
000000d0: c9e9 3a3d 98d2 06be 8d3d 80bc ae44 b63d
000000e0: 06e2 4d3c 35c2 063e 2f74 87be f4ce b3bd
000000f0: 6e16 a5bd b61b 14be e4dc 2f3d 0e3e 3fbe
00000100: f379 99bd 4690 39be 4d20 4e3d 5f0f 41be
00000110: 4939 15bd fc58 c43d 0dd4 95bd e9a4 86bd
00000120: fe14 b4be 8599 b6be 906f b53c 2e0e 943d
00000130: 519d c53e 7d42 963e 3816 e33c a5c0 9a3d
00000140: c970 f43d fe6e 863d 4d59 4b3e d6e5 89be
00000150: 0f74 7bbe a8a7 b2bc a1ec e83d 9a36 26be
00000160: 3699 3cbe 10a2 9abd 2dfb b0be 024f 2a3e
00000170: f378 7a3c 1fba 05be 16b9 433e 01bb 4c3e
00000180: 4007 813e ffa8 c93d f3c6 d33c 4a4e 673e
00000190: 661e 5cbe c180 82be 98d1 393e 32ed b3bc
000001a0: 8fa1 753e 7c4c 78be dc18 503e 14f7 3ebf
000001b0: 6b09 3ebe 6af9 b9be 0dfc a6bc f9e5 f0bd
000001c0: 535d 17bd e695 44be 014e 7bbd 1b35 663e
000001d0: 594d 3fbe 3e61 12bd ffe0 c13c 7cd4 d5bc
000001e0: e233 3a3d e243 94bb 911c a5bd 1cda 7ebe
000001f0: 92d2 40bd 91cc 64bd b008 c4bd 8d9f 183e
00000200: d770 65bd 499d 87be fcb7 943e 088b 1e3c
00000210: 69d9 abbc 373a 193e 98f8 18bd 9e17 1f3e
00000220: 58ee 7fbd 984d ccbd 8084 7cbd 8356 9f3d
00000230: 5cc6 cb3d cac9 a7bd 7175 88bb c9ee 483e
00000240: 1915 adbd a2a6 d5be 89b2 283e b181 c83e
00000250: daad 07bd d036 2e3d b6be 5b3d b17b d33e
00000260: e04b 3b3e 28af 8fbd d606 b1be 201d 25bf
00000270: ce3f dcbd a8a9 21bd d83f 913c 35e6 f33c
00000280: cdde b93e e180 1fbe 334d af3e 87f6 e43d
00000290: 549c 14bd 8270 933d fdd3 243e b2dd 373d
000002a0: e6c1 833d 7071 c6be 3b89 14be 2eb2 2c3e
000002b0: 8ca2 fcb8 476e 753e 45e1 4b3d 302a ca3e
000002c0: 80ef 713e 5fda 80bd a8e0 9a3e c92b abbd
000002d0: 4dfe 183d 48f4 31be 3673 0f3e af99 8cbd
000002e0: 0ecc 76bf cca3 ddbd 3b3a eaba 02ff 6a3e
000002f0: ea44 183e 396e 5c3e e8ff 8e3d 53b5 d53d
00000300: 1f91 9b3e 171a 17bc 155e c53b f492 38be
00000310: 50fc 65bd 64e7 88bd c312 03be 272c 403c
00000320: b8e2 94be 6534 1dbf 4cad c3bd 7845 a9bd
00000330: 36ed 83be c487 0c3e b40b 0e3e d152 9b3d
00000340: 13bd bcbd e01e 0abf e494 cf3d 97de 793e
00000350: 7138 31be 0263 913d 57d5 bdbd 1d8c a73e
00000360: a1e8 aa3d a3e4 82be 54f8 943b b201 a8bd
00000370: b547 3bbe 933a a03d d667 cdbd c4e6 f13c
00000380: d7ef efbe 2521 d43e 0600 f93a e01e 32be
00000390: f2bd c53d cef7 443c bf04 38bc bef1 ea3d
000003a0: 43af 4fbe 587f cabd 2f51 61be 20ac ac3e
000003b0: ae7c 563d 01c3 d6bd d8b8 b83d d55f d33d
000003c0: d179 8b3e 28d1 953d 3e50 e03d c534 783e
000003d0: adb0 a5bd 7fcb 5cbe 1d25 ce3d 5e49 80bd
000003e0: 590b 433d f0a8 c9be 130f fbbd 193a 5cbe
000003f0: adb1 febd a92a 293e fbb4 913e 1db8 d53d

encoder.layer3.0.bias f4 [128]
-0.012898192 -0.0059284493 -0.19754139 -0.14683144 0.08048229 -0.087307625 0.004394258 -0.15752247
-0.016088583 -0.20022397 0.02305298 0.08955519 -0.068296075 -0.17460947 0.05278562 0.18889505
-0.051648457 0.046130482 0.10830441 0.014685804 -0.05875846 0.023744632 -0.09255021 -0.10418425
-0.14868522 -0.08683537 -0.21216741 -0.27068907 -0.020469809 -0.17232549 -0.024355644 -0.007306749
0.031538658 -0.07884553 -0.077269614 -0.19696341 -0.036972195 0.103165984 0.0075393324 0.012528444
-0.07904951 0.03364162 0.10788637 0.0047644074 0.02991678 -0.04821223 0.0070167244 -0.004880633
-0.03583888 -0.029190375 0.08906024 0.29228127 0.07638771 -0.042659804 0.08491545 -0.06506147
-0.081827305 -0.05821841 -0.24481438 0.011440295 0.019485338 -0.037623644 -0.03694589 -0.009510839
-0.0036333136 0.02200211 0.028216029 0.07498577 -0.17769657 -0.04091314 0.08949989 0.011620208
0.08779467 -0.089565605 -0.1689474 -0.1172309 -0.10085756 -0.17400706 -0.11136792 0.15577509
-0.07600304 0.03268905 0.07958448 -0.09027809 -0.06807038 0.13721943 -0.04975268 -0.10822268
-0.06223991 -0.011942726 -0.01930218 -0.010518935 0.05172121 -0.07681006 0.035810776 0.04013904
-0.08876103 0.03948806 0.07087623 -0.21283352 -0.007951427 0.0013287532 -0.28533337 -0.1627412
0.02481519 -0.15579233 0.011519814 0.02804394 0.020475144 -0.086607255 0.07476808 0.09263229
-0.07860065 -0.09189864 -0.07335955 0.078729056 0.0042092158 -0.07424008 0.074306995 -0.022412237
-0.09953298 -0.2496249 0.086874716 -0.10269983 -0.029382156 -0.0024306104 0.096096 -0.016289724
00000000: f052 53bc 7043 c2bb 4a48 4abe fb5a 16be
00000010: e6d3 a43d 57ce b2bd b5fd 8f3b 924d 21be
00000020: 34cc 83bc 8307 4dbe 9ad9 bc3c b668 b73d
00000030: d0de 8bbd d3cc 32be bc35 583d b46d 413e
00000040: 558d 53bd 51f3 3c3d b4ce dd3d ba9c 703c
00000050: b6ac 70bd 1a84 c23c f78a bdbd 8d5e d5bd
00000060: f040 18be bed6 b1bd 6a42 59be c297 8abe
00000070: 4db0 a7bc 1876 30be 7d85 c7bc 746d efbb
00000080: ae2e 013d c479 a1bd 883f 9ebd c7b0 49be
00000090: 2870 17bd b048 d33d 810c f73b 1a44 4d3c
000000a0: b6e4 a1bd cccb 093d 87f3 dc3d bf1e 9c3b
000000b0: 0914 f53c 307a 45bd 8dec e53b b8ed 9fbb
000000c0: cacb 12bd a720 efbc 3765 b63d e4a5 953e
000000d0: 2971 9c3d 0cbc 2ebd 27e8 ad3d f33e 85bd
000000e0: 1395 a7bd 6d76 6ebd 9fb0 7abe 1370 3b3c
000000f0: b79f 9f3c 401b 1abd 9354 17bd 5ad3 1bbc
00000100: e31c 6ebb c53d b43c 4d25 e73c 2492 993d
00000110: 17f6 35be 8994 27bd b84b b73d af62 3e3c
00000120: b1cd b33d 2c6e b7bd 8c00 2dbe c116 f0bd
00000130: 698e cebd e82e 32be dd14 e4bd 8183 1f3e
00000140: 7ba7 9bbd f4e4 053d 30fd a23d b8e3 b8bd
00000150: 7c68 8bbd 4083 0c3e 77c9 4bbd daa3 ddbd
00000160: 47ef 7ebd 6cab 43bc 9b1f 9ebc 9c57 2cbc
00000170: 9fd9 533d 984e 9dbd 52ae 123d d668 243d
00000180: 58c8 b5bd 3bbe 213d 8f27 913d 08f1 59be
00000190: b446 02bc 8f29 ae3a 3717 92be a1a5 26be
000001a0: 3a49 cb3c 0688 1fbe 9abd 3c3c 68bc e53c
000001b0: 7dbb a73c 255f b1bd 0220 993d 00b6 bd3d
000001c0: 61f9 a0bd 5b35 bcbd 883d 96bd b33c a13d
000001d0: 76ed 893b 2f0b 98bd 442e 983d de99 b7bc
000001e0: f2d7 cbbd ab9d 7fbe 5feb b13d 4a54 d2bd
000001f0: d9b2 f0bc e04a 1fbb fbcd c43d 0772 85bc

encoder.layer3.1.weight f4 [128]
0.4599447 0.4454089 0.3618511 0.6216863 0.4191877 0.89249235 0.26172227 0.44814724
0.92411464 0.6024922 0.7216602 0.52101046 0.7749057 1.0666631 0.75676066 0.60860175
0.5871115 0.29859912 0.992004 0.45727128 0.3778538 0.5621232 0.8156194 0.780947
0.3716784 0.47852805 0.5542925 0.55548763 0.53013176 0.44528693 0.4096101 0.5389155
0.42576358 0.52566385 0.55495054 0.49642098 0.78069276 0.36073905 0.37144098 0.44724393
0.5529556 0.32725516 0.5318614 0.44612843 0.5639897 0.53248894 0.40660757 1.2363974
0.3221985 0.7468347 0.37222436 0.79037833 1.2752525 0.53276056 0.6379359 0.4976504
0.3485518 0.7017267 0.5226392 0.5383509 0.48699886 0.45790684 0.5477544 0.7158708
0.6139255 0.67089576 0.63677835 0.56364995 0.7368569 0.66541487 0.28166455 0.58649635
0.51455575 0.4175748 0.5816896 0.8702682 0.6250321 0.59822494 0.4858906 0.3260397
0.3620894 0.6169882 0.83583623 0.5832896 0.9183206 0.5455438 0.7374753 0.32208428
0.36708343 0.37445083 0.667441 0.41660434 0.54796034 0.35385495 0.63677984 0.48867658
0.50391406 0.39203575 0.5033271 0.6345172 0.58638626 0.35195366 0.68916005 0.3202709
0.41804263 0.45585042 0.3206223 0.5272419 0.29650956 0.40209857 0.3907509 0.5416861
0.5295242 0.93059635 0.43215644 0.4757787 0.40007088 0.6687977 0.38498563 0.39026973
0.43629125 0.8148534 0.40098342 0.4113765 0.47765163 0.6139387 0.49965358 0.3710391
00000000: df7d eb3e a30c e43e 8c44 b93e d526 1f3f
00000010: c59f d63e 617a 643f 7600 863e 8e73 e53e
00000020: c792 6c3f ee3c 1a3f b9be 383f f160 053f
00000030: 3860 463f 6b88 883f 11bb 413f 53cd 1b3f
00000040: f04c 163f fce1 983e f9f3 7d3f 761f ea3e
00000050: 0e76 c13e 4ee7 0f3f 6fcc 503f 25ec 473f
00000060: a24c be3e a101 f53e 1de6 0d3f 7034 0e3f
00000070: b7b6 073f a6fc e33e 6ab8 d13e 5ef6 093f
00000080: affd d93e e891 063f 3d11 0e3f e42a fe3e
00000090: 7bdb 473f cab2 b83e 832d be3e 28fd e43e
000000a0: 808e 0d3f fd8d a73e 1228 083f f26a e43e
000000b0: a161 103f 3251 083f de2e d03e 4542 9e3f
000000c0: 34f7 a43e 8f30 3f3f 3194 be3e 3c56 4a3f
000000d0: 793b a33f ff62 083f c44f 233f 09cc fe3e
000000e0: 6275 b23e 5ca4 333f afcb 053f 5dd1 093f
000000f0: ea57 f93e c472 ea3e a239 0c3f 4f43 373f
00000100: 392a 1d3f d3bf 2b3f e803 233f 5d4b 103f
00000110: a7a2 3c3f a158 2a3f 5636 903e a024 163f
00000120: edb9 033f 5dcc d53e 9ce9 143f e6c9 5e3f
00000130: 1b02 203f 4525 193f a7c6 f83e adee a63e
00000140: c863 b93e f0f2 1d3f 5df9 553f 7852 153f
00000150: 0f17 6b3f c2a8 0b3f 2ecb 3c3f 3be8 a43e
00000160: 5cf2 bb3e 05b8 bf3e 6add 2a3f 2a4d d53e
00000170: 2147 0c3f 7a2c b53e 0104 233f d133 fa3e
00000180: 8300 013f e9b8 c83e 0bda 003f b86f 223f
00000190: 691d 163f 4533 b43e cb6c 303f 8cfa a33e
000001a0: af09 d63e 3a65 e93e 9b28 a43e 53f9 063f
000001b0: 1ad0 973e dddf cd3e 8110 c83e f1ab 0a3f
000001c0: e68e 073f 903b 6e3f 9c43 dd3e 4499 f33e
000001d0: 17d6 cc3e 5336 2b3f d61c c53e 6fd1 c73e
000001e0: 9161 df3e 3c9a 503f b34d cd3e f19f d23e
000001f0: c18e f43e 162b 1d3f 98d2 ff3e d6f8 bd3e

encoder.layer3.1.bias f4 [128]
-0.107070595 -0.300091 -0.26807922 -0.27085194 -0.19839193 -0.40661564 -0.06293191 -0.3745179
-0.22310734 -0.26436433 -0.21316956 -0.025485193 -0.120299645 -0.375993 -0.16155703 -0.14699267
-0.20112707 -0.05912986 -0.33832934 -0.21141337 -0.1482697 -0.31039652 -0.28049684 -0.28423005
-0.08962882 -0.15934306 -0.32835433 -0.1723204 -0.071946874 -0.30193368 -0.07251998 -0.12664434
-0.32012728 -0.23952289 -0.17468718 -0.08428904 -0.34291846 -0.10572227 -0.112129614 -0.13669795
-0.16836317 -0.12528346 -0.20567453 -0.19646165 -0.3308933 -0.19593404 -0.074678116 -0.32951963
-0.081108354 -0.21127757 -0.14552669 -0.3204446 -0.24025656 -0.12240693 -0.19165099 -0.16237573
-0.027520679 -0.16423863 -0.37225792 -0.12481675 -0.23866183 -0.14605623 -0.23922619 -0.08417806
-0.25628465 0.0044253143 -0.3968848 -0.17759845 -0.14041305 -0.25038785 -0.18984307 -0.22096011
-0.22846697 -0.1742795 -0.21171536 -0.26605254 -0.23702331 -0.2302652 -0.19228105 -0.18226899
-0.096639276 -0.20428184 -0.027672315 -0.3448697 -0.1697177 -0.30140457 -0.14535439 -0.090145096
-0.120784126 -0.0791167 -0.15478319 -0.21055783 -0.18415752 -0.16180399 -0.2933449 -0.43637055
-0.34404594 -0.16010796 -0.24839343 -0.12721887 -0.20299499 -0.07213492 -0.1671411 -0.026054187
-0.08893784 -0.25330222 0.03260704 -0.37850314 -0.0038293574 -0.015394299 -0.23532386 -0.1721825
-0.10961605 -0.18300773 -0.1251502 -0.17475645 -0.1340067 -0.3049225 -0.13197939 -0.19185488
-0.19407885 -0.3356402 -0.095109574 -0.09726754 -0.21945862 -0.3045708 -0.08869272 -0.14153476
00000000: d447 dbbd 87a5 99be ae41 89be 1bad 8abe
00000010: 4127 4bbe ed2f d0be 72e2 80bd cfc0 bfbe
00000020: 4076 64be c35a 87be 1f49 5abe 53c6 d0bc
00000030: a95f f6bd 2882 c0be 356f 25be 3f85 16be
00000040: 41f4 4dbe 2732 72bd 8139 adbe bf7c 58be
00000050: 03d4 17be 4bec 9ebe 489d 8fbe 9a86 91be
00000060: 518f b7bd d42a 23be 0f1e a8be c274 30be
00000070: e258 93bd 0d97 9abe 5b85 94bd 0eaf 01be
00000080: b9e7 a3be 7d45 75be 32e1 32be bb9f acbd
00000090: 0293 afbe eb84 d8bd 36a4 e5bd 8cfa 0bbe
000000a0: 6567 2cbe 4f4a 00be 589c 52be 3e2d 49be
000000b0: d96a a9be efa2 48be d7f0 98bd ccb6 a8be
000000c0: 231c a6bd 2659 58be f304 15be 5111 a4be
000000d0: d105 76be 7cb0 fabd 2840 44be d345 26be
000000e0: 0c73 e1bc 2c2e 28be 9798 bebe ed9f ffbd
000000f0: c463 74be c48f 15be b6f7 74be 8c65 acbd
00000100: be37 83be 3a02 913b 7c34 cbbe 5edc 35be
00000110: 70c8 0fbe d632 80be 3966 42be 5e43 62be
00000120: 3ff3 69be 5376 32be e9cb 58be 0a38 88be
00000130: 3db6 72be a4ca 6bbe 53e5 44be b9a4 3abe
00000140: d0ea c5bd 422f 51be 0db1 e2bc c392 b0be
00000150: 7aca 2dbe b351 9abe c8d7 14be fe9d b8bd
00000160: ab5d f7bd f007 a2bd 7c7f 1ebe 799c 57be
00000170: ca93 3cbe f2af 25be 4d31 96be f66b dfbe
00000180: ca26 b0be 57f3 23be d95a 7ebe aa45 02be
00000190: ebdd 4fbe 79bb 93bd 0927 2bbe 976f d5bc
000001a0: 0b25 b6bd d4b0 81be f68e 053d 2acb c1be
000001b0: f5f5 7abb 5f38 7cbc bdf8 70be 9c50 30be
000001c0: 617e e0bd 6166 3bbe 6027 00be 5bf3 32be
000001d0: 0d39 09be cd1e 9cbe 9b25 07be 9b75 44be
000001e0: 9bbc 46be 08d9 abbe cfc8 c2bd 3434 c7bd
000001f0: c3b9 60be b4f0 9bbe 87a4 b5bd 7dee 10be

encoder.layer3.1.running_mean f4 [128]
-0.33193707 -0.37575743 -0.29788816 -0.593088 -0.6430358 -2.3360646 2.1928027 -1.1429302
-3.7195997 -1.0023504 -1.4401455 -1.1446514 -3.5493054 -3.0753431 -1.756775 -0.8082856
-1.2719011 0.035686918 -4.5513153 -0.5852433 0.24299316 -0.2514155 -2.0886173 -2.758297
-0.5647052 -0.90634274 -0.6769844 -0.89151144 -1.1024439 -0.8798086 -1.1331742 -0.12815411
-0.64092875 -0.65082407 0.49205682 -1.3503177 -1.6178795 -0.03890525 0.2705821 -1.4974719
-1.1727842 0.0741604 -0.15169702 -1.0034956 -1.2751166 -1.712208 -0.6361403 -3.7545912
0.479864 -1.5512595 0.121778026 -0.7736375 -4.8044014 -1.3540416 0.029002925 0.093608305
-1.841916 -2.0936885 -0.78540295 2.6326983 0.16463175 0.26441854 -1.2341584 -2.2995229
-2.3553236 -3.0299263 -1.8048271 0.19873706 -1.7037709 -0.781945 -0.103187546 -1.3107878
-0.7385029 -1.4698132 -0.3734416 -4.230542 -1.54274 -1.5745792 -0.04522807 -0.4059875
0.6572918 -2.3862438 -2.8424227 -0.7069268 -2.7321687 -0.81294566 -1.3236486 0.91221154
-1.039727 -0.6001488 -1.1412464 -0.27138865 -0.6638758 -0.5958901 -0.9366384 0.9732775
-0.793164 -0.07107348 -0.6066656 -1.3942755 -1.1545303 0.15612786 -2.6015897 -0.33077216
0.6196309 -0.49914035 -0.13589236 -0.5468458 -0.33821145 -0.6228836 -0.4708018 -1.6604626
-2.1229084 -2.62104 -0.8642842 -0.8094675 -0.52788377 -2.0627348 -0.42439216 -1.917907
-0.27976137 -1.4778683 -0.45638096 -0.8633762 1.2911719 2.5294983 -2.927892 -0.6108114
00000000: a8f3 a9be 4763 c0be cc84 98be 9dd4 17bf
00000010: ff9d 24bf 1582 15c0 e156 0c40 894b 92bf
00000020: ec0d 6ec0 054d 80bf b056 b8bf f083 92bf
00000030: d227 63c0 6cd2 44c0 01de e0bf ceeb 4ebf
00000040: a8cd a2bf 722c 123d 60a4 91c0 81d2 15bf
00000050: 33d3 783e 88b9 80be e8ab 05c0 f087 30c0
00000060: 8590 10bf 1406 68bf da4e 2dbf 183a 64bf
00000070: e21c 8dbf 233b 61bf da0b 91bf d53a 03be
00000080: e813 24bf 689c 26bf dfee fb3e 36d7 acbf
00000090: ad16 cfbf 1d5b 1fbd bd89 8a3e 29ad bfbf
000000a0: cb1d 96bf 68e1 973d 7756 1bbe 8b72 80bf
000000b0: 0537 a3bf a229 dbbf 17da 22bf 394b 70c0
000000c0: bcb0 f53e ac8f c6bf c266 f93d 1b0d 46bf
000000d0: a8bd 99c0 3c51 adbf 8b97 ed3c b6b5 bf3d
000000e0: e7c3 ebbf fefe 05c0 2b10 49bf 217e 2840
000000f0: 3a95 283e de61 873e e7f8 9dbf 622b 13c0
00000100: 9fbd 16c0 50ea 41c0 9304 e7bf ba81 4b3e
00000110: 2a15 dabf 8c2d 48bf fe53 d3bd e5c7 a7bf
00000120: 870e 3dbf d722 bcbf bd33 bfbe 9a60 87c0
00000130: 8178 c5bf d08b c9bf 1241 39bd 98dd cfbe
00000140: 4744 283f 38b8 18c0 41ea 35c0 28f9 34bf
00000150: dadb 2ec0 351d 50bf 516d a9bf b286 693f
00000160: c615 85bf 5aa3 19bf 5d14 92bf 74f3 8abe
00000170: c4f3 29bf 418c 18bf 89c7 6fbf b728 793f
00000180: cc0c 4bbf f98e 91bd 704e 1bbf 9f77 b2bf
00000190: a6c7 93bf fbdf 1f3e 7280 26c0 f85a a9be
000001a0: 21a0 1e3f 538f ffbe 5e27 0bbe 16fe 0bbf
000001b0: 0d2a adbe 4d75 1fbf ef0c f1be 0a8a d4bf
000001c0: bbdd 07c0 1fbf 27c0 bb41 5dbf 4339 4fbf
000001d0: 6423 07bf d903 04c0 ee49 d9be fa7d f5bf
000001e0: e23c 8fbe ca2a bdbf c4aa e9be 3906 5dbf
000001f0: 1f45 a53f 4de3 2140 9562 3bc0 235e 1cbf

encoder.layer3.1.running_var f4 [128]
3.2152908 1.709534 1.5461885 2.9311712 2.0629592 4.5424128 1.8407718 1.9543653
4.1112437 3.0464091 3.0017245 2.7494447 3.2794187 5.3788037 3.1180432 2.415527
2.9405787 1.8407015 10.07699 1.7121367 2.2297938 2.4043548 2.9636252 3.6896815
1.9310731 2.2855418 2.3744314 2.779411 2.8252208 1.5310452 3.0950298 2.5303602
1.7164195 2.7267275 2.8224812 2.764712 2.9619312 1.5902526 1.926374 3.3707092
4.512665 1.6628807 2.4792485 2.620606 2.1002114 4.5394516 2.3914804 10.416518
1.937119 2.8332272 1.8129846 3.9472382 7.8831577 4.354237 3.1199138 3.2692516
2.3942983 4.211834 1.8092363 4.723359 1.7015387 3.5155718 2.7060676 4.37602
3.1153479 4.5019674 1.9977175 3.3342445 4.2783003 2.6808255 1.3187097 2.229582
1.9755237 1.7706597 2.47665 8.2919445 4.7041736 1.9668431 2.7620077 1.2879257
1.8086593 3.0401592 3.5396464 1.5385716 6.3225913 2.1837568 4.0758758 1.4296013
2.529555 1.8121564 6.0403376 1.9884378 2.8944464 1.3079425 2.2544453 1.4341689
2.7547772 1.83554 2.2811108 2.977331 3.721886 2.4615755 3.8347237 1.4909806
1.958355 1.5122596 2.228314 1.6479006 2.7363896 2.1061645 1.7272279 2.6660824
4.885109 4.015172 1.5465407 2.7769444 2.3401845 2.7818031 2.5015318 1.5834706
2.5315533 3.1368518 2.7382095 2.1424394 2.2927468 3.7152603 4.269689 2.588322
00000000: 53c7 4d40 03d2 da3f 81e9 c53f 4f98 3b40
00000010: 8607 0440 725b 9140 699e eb3f a428 fa3f
00000020: 4f8f 8340 5ef8 4240 411c 4040 e7f6 2f40
00000030: ffe1 5140 291f ac40 058e 4740 ff97 1a40
00000040: 7132 3c40 1b9c eb3f 5a3b 2141 4c27 db3f
00000050: f1b4 0e40 f3e0 1940 09ac 3d40 be23 6c40
00000060: 672d f73f 5146 1240 aff6 1740 dfe1 3140
00000070: 6bd0 3440 4af9 c33f f814 4640 6cf1 2140
00000080: a2b3 db3f b482 2e40 88a3 3440 0bf1 3040
00000090: 4890 3d40 668d cb3f 6c93 f63f b3b9 5740
000000a0: c067 9040 46d9 d43f 02ac 1e40 02b8 2740
000000b0: dd69 0640 3043 9140 040e 1940 0faa 2641
000000c0: 84f3 f73f 9853 3540 e10f e83f 8d9f 7c40
000000d0: d442 fc40 e955 8b40 abac 4740 6b3b 5140
000000e0: 2f3c 1940 58c7 8640 0e95 e73f c225 9740
000000f0: 05cc d93f 21ff 6040 3630 2d40 5b08 8c40
00000100: dc61 4740 1e10 9040 35b5 ff3f 4364 5540
00000110: d6e7 8840 a592 2b40 7bcb a83f 79b1 0e40
00000120: f6dd fc3f faa4 e23f 6f81 1e40 ceab 0441
00000130: 9788 9640 84c1 fb3f bcc4 3040 c0da a43f
00000140: 2682 e73f f891 4240 9189 6240 eaef c43f
00000150: ab52 ca40 acc2 0b40 936d 8240 2dfd b63f
00000160: 3be4 2140 bef4 e73f 724a c140 2185 fe3f
00000170: 9c3e 3940 a96a a73f d548 1040 d992 b73f
00000180: 454e 3040 faf2 ea3f b8fd 1140 978c 3e40
00000190: 6133 6e40 748a 1d40 1d6c 7540 74d8 be3f
000001a0: 60ab fa3f b991 c13f b29c 0e40 68ee d23f
000001b0: 0221 2f40 66cb 0640 ce15 dd3f 18a1 2a40
000001c0: d052 9c40 4a7c 8040 0cf5 c53f 75b9 3140
000001d0: 95c5 1540 1009 3240 1919 2040 2aaf ca3f
000001e0: f804 2240 2ec2 4840 d33e 2f40 ba1d 0940
000001f0: 5dbc 1240 d3c6 6d40 4ba1 8840 11a7 2540
