data/seq2seq_model.pth (torch_old, 961727 bytes, 29 tensors)

encoder.layer1.0.weight f4 [32, 3, 3, 4]
0.010738064 0.0437926 -0.1136394 -0.1393579 -0.053563535 -0.1281912 0.17037216 0.7719633
-0.039996468 0.36505944 0.07415664 -0.25374612 -0.020399429 -0.068997584 -0.2659132 -0.079179764
0.057874568 -0.16228448 0.37399638 0.70985484 -0.19098285 0.3235968 0.21275288 -0.47704536
0.11147551 -0.007937048 -0.22152403 0.06019405 -0.14172149 -0.062612176 0.052918095 0.36048603
0.025837924 0.25927165 0.14953867 -0.26217932 -0.1527848 0.48722482 0.28768495 0.25518686
-0.36176708 -0.12695844 -0.2703027 -0.121662624 -0.0026079922 0.10358769 0.008944698 0.004266826
-0.11656619 0.20105323 0.30810523 0.23183295 -0.38601312 -0.10297116 -0.29207924 -0.051066883
-0.09335714 -0.013640605 0.14294688 0.015211279 -0.011648792 0.38297185 0.26195517 0.079002336
-0.16487655 -0.048335515 -0.4552163 -0.33256796 -0.14004508 0.29704744 0.098184414 0.043065168
-0.24884875 0.22371891 0.21505421 -0.13232131 -0.11139341 0.36787233 -0.059289403 -0.17826033
-0.121690534 0.19779557 -0.0994569 0.018812072 -0.38393635 0.32002732 0.33059204 -0.27412266
-0.19336781 0.5801598 -0.06359101 -0.19775103 -0.21871437 0.34103325 -0.031298388 -0.12006485
-0.21842404 0.23358078 0.1389762 -0.09260378 -0.08092945 0.1459538 -0.079172485 -0.05101621
-0.073920295 0.21889941 -0.16474074 0.06760897 -0.035941765 0.02432834 0.13042057 -0.013633502
0.022894729 -0.36563963 -0.19005005 -0.105948634 -0.026675731 -0.2578216 0.019326197 0.44572395
-0.24340351 -0.16624162 0.29083222 -0.012522254 -0.004905407 -0.12370315 -0.22241993 0.015309416
-0.033316687 -0.27950352 -0.34818158 0.46344954 0.08872466 -0.111580215 0.13295104 -0.05828759
-0.0044621206 -0.433048 -0.20236139 -0.15477934 0.06695391 -0.21039791 -0.04478275 0.36505368
0.06434886 0.11575673 -0.312363 0.18328895 -0.27329332 0.28815204 -0.0934038 -0.045570247
0.033201538 0.3649189 -0.27754855 0.013025484 -0.04779171 0.10464483 -0.3490775 0.18602675
-0.1751848 0.37600666 -0.19096029 0.039488263 -0.049261533 0.644376 -0.35054314 -0.031866793
0.13203338 0.096200734 -0.15174852 -0.040909454 -0.28699136 0.13430376 0.012766945 0.111265436
-0.019805193 0.32859954 -0.29446703 -0.034431797 0.03802242 -0.115991294 -0.0915868 0.4548943
0.09057335 -0.039882753 0.3639666 0.06117638 -0.32806918 0.071555436 0.20169467 -0.33416745
-0.15335685 -0.14301987 0.07367398 0.90130687 -0.008676861 0.12930861 0.40674707 0.1439287
-0.09273101 -0.12265264 0.1749441 -0.29141185 0.13926232 -0.1320884 -0.25868297 0.50695693
-0.048607133 0.10238723 0.33692843 -0.070143685 -0.23385817 0.15684102 -0.03825411 -0.2324626
0.66310453 0.20210564 0.24144875 0.003518336 -0.26362446 -0.22366226 -0.026273591 -0.106848866
0.00013543946 -0.05914883 0.17298509 -0.055673663 0.93495274 0.6706324 0.22147384 -0.06355411
-0.186871 -0.4169806 -0.04588536 -0.045009445 -0.115252875 -0.06254738 0.041616898 -0.049854353
0.27863678 0.14642835 -0.07507551 0.09833631 -0.18616001 -0.41484642 0.0548171 -0.096201524
0.0028432992 0.05126103 0.2706844 -0.079342246 0.06057311 0.22238131 0.022710921 -0.037958637
00000000: b4ee 2f3c df5f 333d c6bb e8bd d6b3 0ebe
00000010: 7065 5bbd 8e44 03be 0a76 2e3e 639f 453f
00000020: 56d3 23bd 12e9 ba3e 70df 973d 03eb 81be
00000030: b41c a7bc 9b4e 8dbd c625 88be 0029 a2bd
00000040: e20d 6d3d e72d 26be 747c bf3e 0cb9 353f
00000050: 0291 43be 7bae a53e e4db 593e 4a3f f4be
00000060: 464d e43d 640a 02bc 32d7 62be 098e 763d
00000070: 701f 11be d03a 80bd a5c0 583d a091 b83e
00000080: 0eaa d33c 41bf 843e aa20 193e 5e3c 86be
00000090: 9e73 1cbe 8875 f93e 714b 933e daa7 823e
000000a0: 8939 b9be 6501 02be 1e65 8abe 412a f9bd
000000b0: d9ea 2abb c825 d43d c88c 123c bbd0 8b3b
000000c0: 41ba eebd e6e0 4d3e f8bf 9d3e 9e65 6d3e
000000d0: 83a3 c5be 8be2 d2bd 698b 95be 822b 51bd
000000e0: 0732 bfbd d87c 5fbc ab60 123e ba38 793c
000000f0: 93da 3ebc e314 c43e fd1e 863e facb a13d
00000100: 66d5 28be 76fb 45bd 1c12 e9be 5946 aabe
00000110: fa67 0fbe 9a16 983e e914 c93d 1a65 303d
00000120: 35d2 7ebe 9216 653e 2c37 5c3e 3d7f 07be
00000130: 3a22 e4bd c359 bc3e 72d9 72bd e089 36be
00000140: e338 f9bd ec8a 4a3e 0fb0 cbbd c61b 9a3c
00000150: 4e93 c4be 9fda a33e 5c43 a93e ce59 8cbe
00000160: 3602 46be 5a85 143f 013c 82bd 3f7f 4abe
00000170: a9f6 5fbe e99b ae3e bd32 00bd 8fe4 f5bd
00000180: 8daa 5fbe cd2f 6f3e c74f 0e3e 0da7 bdbd
00000190: 57be a5bd ea74 153e 2f25 a2bd 60f6 50bd
000001a0: 8663 97bd 2b27 603e ccb1 28be 9276 8a3d
000001b0: ac37 13bd 3a4c c73c f88c 053e 0d5f 5fbc
000001c0: ba8d bb3c 1e35 bbbe 7b9c 42be 99fb d8bd
000001d0: 1087 dabc 3101 84be f951 9e3c ee35 e43e
000001e0: c53e 79be 3e3b 2abe f6e7 943e 242a 4dbc
000001f0: 89bd a0bb 1458 fdbd 0dc2 63be 58d4 7a3c
00000200: 1477 08bd 161b 8fbe db44 b2be 4249 ed3e
00000210: 46b5 b53d 2b84 e4bd 5124 083e f8be 6ebd
00000220: fb36 92bb 78b8 ddbe d337 4fbe 7a7e 1ebe
00000230: 221f 893d 8d72 57be 1e6e 37bd 51e8 ba3e
00000240: 56c9 833d dd11 ed3d 0bee 9fbe 19b0 3b3e
00000250: 1aed 8bbe aa88 933e 7e4a bfbd dea7 3abd
00000260: 56fe 073d a6d6 ba3e d81a 8ebe d768 553c
00000270: 3dc1 43bd 0750 d63d 49ba b2be cc7d 3e3e
00000280: a563 33be f283 c03e 188b 43be 72be 213d
00000290: 76c6 49bd d3f5 243f 647a b3be c186 02bd
000002a0: c233 073e e404 c53d f763 1bbe ac90 27bd
000002b0: 88f0 92be ed86 093e 732c 513c 22df e33d
000002c0: 803e a2bc 333e a83e 62c4 96be 5b08 0dbd
000002d0: 66bd 1b3d d88c edbd dc91 bbbd e8e7 e83e
000002e0: 857e b93d 195c 23bd d559 ba3e 1594 7a3d
000002f0: aff8 a7be a88b 923d 0c89 4e3e ff17 abbe
00000300: 9409 1dbe cd73 12be 62e2 963d 0cbc 663f
00000310: 6529 0ebc 7a69 043e 2741 d03e 0c62 133e
00000320: c1e9 bdbd 4f31 fbbd 8c24 333e ef33 95be
00000330: c89a 0e3e 2e42 07be 1872 84be eec7 013f
00000340: 4618 47bd 65b0 d13d e281 ac3e 7ea7 8fbd
00000350: 8478 6fbe ef9a 203e 57b0 1cbd ad0a 6ebe
00000360: 38c1 293f c8f4 4e3e 573e 773e e293 663b
00000370: c9f9 86be b807 65be b73b d7bc 94d3 dabd
00000380: c104 0e39 0b46 72bd 0123 313e 110a 64bd
00000390: 1059 6f3f 91ae 2b3f 0aca 623e a828 82bd
000003a0: 1d5b 3fbe 7b7e d5be 4af2 3bbd d35b 38bd
000003b0: b309 ecbd d718 80bd 7b76 2a3d 1434 4cbd
000003c0: 7ba9 8e3e 50f1 153e 30c1 99bd 8c64 c93d
000003d0: bba0 3ebe c066 d4be e587 603d 4e05 c5bd
000003e0: a556 3a3b 16f7 513d 2597 8a3e 307e a2bd
000003f0: 821b 783d edb7 633e 410c ba3c 847a 1bbd

encoder.layer1.0.bias f4 [32]
0.07126137 -0.0013907419 0.30875897 -0.28822076 -0.024365373 -0.4792751 0.22012074 0.018434089
-0.15372312 -0.11638163 -0.072356164 -0.008700256 -0.1562754 0.16718923 -0.2731425 -0.018447569
0.20257601 0.2074695 -0.07662916 -0.047322087 -0.09421123 0.11485489 0.16960305 -0.21975267
-0.29923883 0.6883537 -0.09299353 -0.10393233 -0.10417759 -0.32726166 -0.11399835 -0.17766723
00000000: 7bf1 913d 8e49 b6ba a815 9e3e ac91 93be
00000010: e499 c7bc 8c63 f5be 5567 613e 1603 973c
00000020: 9869 1dbe 7e59 eebd 782f 94bd 858b 0ebc
00000030: a906 20be a733 2b3e 55d9 8bbe 5b1f 97bc
00000040: 1670 4f3e e272 543e c0ef 9cbd ced4 41bd
00000050: d1f1 c0bd 0a39 eb3d 6cac 2d3e d806 61be
00000060: d535 99be f337 303f 6473 bebd 79da d4bd
00000070: 0f5b d5bd d78e a7be f877 e9bd 66ee 35be

encoder.layer1.1.weight f4 [32]
0.79144 0.16139723 0.47874182 0.24409245 0.36904356 0.60196733 0.69126326 0.4354543
0.33602896 0.2185611 0.33829245 0.7626397 0.32166263 0.39028955 0.25920495 0.2588107
0.32088476 0.76854295 0.3081009 0.31507015 0.39473453 0.35707983 0.39290208 0.2036922
0.24277896 0.28972885 -0.0005122242 0.55017185 0.45344368 0.30530593 0.51604253 0.9451917
00000000: d09b 4a3f 5145 253e a61d f53e 5ff3 793e
00000010: 47f3 bc3e 881a 1a3f a1f6 303f def3 de3e
00000020: fd0b ac3e 7bce 5f3e ab34 ad3e 5b3c 433f
00000030: f7b0 a43e 08d4 c73e 83b6 843e d682 843e
00000040: 024b a43e 3bbf 443f 67bf 9d3e e050 a13e
00000050: a51a ca3e 2bd3 b63e 762a c93e b094 503e
00000060: 0c9b 783e 5757 943e c946 06ba 10d8 0c3f
00000070: c529 e83e 0f51 9c3e 5d1b 043f 15f8 713f

encoder.layer1.1.bias f4 [32]
-0.23468609 0.10121174 0.20181847 -0.12129586 0.19689229 -0.11059818 -0.16578332 -0.24182151
0.06301744 0.056427363 0.002209976 -0.13461897 0.113550946 0.058178216 0.12365954 0.06749923
-0.0866007 -0.10012539 0.052697755 0.016629934 -0.11485942 -0.3129249 -0.046820164 0.06208884
-0.017208872 0.10860889 -0.02202578 -1.1807029 -0.01549251 0.10136817 -1.0279139 -0.19806144
00000000: 8d51 70be 1a48 cf3d 80a9 4e3e f769 f8bd
00000010: 229e 493e 4c81 e2bd 1ac3 29be 0fa0 77be
00000020: 4a0f 813d 6120 673d 3fd5 103b 8ed9 09be
00000030: 668d e83d 484c 6e3d 3741 fd3d 093d 8a3d
00000040: b55b b1bd 8a0e cdbd 9ad9 573d 803b 883c
00000050: 6a3b ebbd b137 a0be 80c6 3fbd de50 7e3d
00000060: 9ff9 8cbc 566e de3d 696f b4bc 4621 97bf
00000070: 4cd4 7dbc 1d9a cf3d af92 83bf 9ed0 4abe

encoder.layer1.1.running_mean f4 [32]
1.1178161 -0.038377333 0.45922905 -1.445408 0.12762682 0.70138985 1.295286 0.009831253
-0.07920317 -3.4819086 -0.025245028 0.82892144 0.08176852 0.20265155 0.04622429 -0.64552164
0.52228796 1.4861436 -0.09873249 0.17497312 -0.21769087 0.42966348 0.52315694 -0.6297425
-0.1968673 0.86326236 -0.31117728 -1.1353995 0.18657398 -0.19069083 -1.9135299 2.9499686
00000000: 9914 8f3f 8d31 1dbd 1220 eb3e 2103 b9bf
00000010: 9bb0 023e 498e 333f efcb a53f 4413 213c
00000020: 4635 a2bd 97d7 5ec0 a9ce cebc 3234 543f
00000030: 4176 a73d e383 4f3e ae55 3d3d e840 25bf
00000040: aab4 053f f439 be3f 4234 cabd 272c 333e
00000050: 5bea 5ebe dafc db3e 9ded 053f ce36 21bf
00000060: 9597 49be c3fe 5c3f a152 9fbe c554 91bf
00000070: 400d 3f3e 7544 43be 8cee f4bf 49cc 3c40

encoder.layer1.1.running_var f4 [32]
0.20526882 0.080250986 0.089722395 0.3149953 0.032036476 0.3451395 0.2423464 0.021557208
0.03741063 1.1722009 0.083496094 0.16316089 0.07801005 0.049709782 0.109305516 0.44770172
0.07089946 0.44744208 0.08944778 0.0881035 0.022239773 0.4893037 0.07798115 0.09634689
0.075452685 0.066332124 0.018539948 0.21756317 0.07845447 0.06259417 0.4434027 1.2247438
00000000: fd31 523e a15a a43d 60c0 b73d 1047 a13e
00000010: ae38 033d 20b6 b03e a829 783e be98 b03c
00000020: e43b 193d ae0a 963f 0000 ab3d a613 273e
00000030: bcc3 9f3d 7c9c 4b3d 92db df3d 2939 e53e
00000040: bc33 913d 2117 e53e 6630 b73d 9c6f b43d
00000050: 2f30 b63c 0486 fa3e 95b4 9f3d 8551 c53d
00000060: f086 9a3d 23d9 873d 17e1 973c e1c8 5e3e
00000070: bdac a03d 5f31 803d ae05 e33e 68c4 9c3f

encoder.layer2.0.weight f4 [64, 32, 4, 3]
0.17323124 0.14541693 -0.104635246 0.13666697 -0.15185052 0.01821612 0.06266932 0.020605154
-0.3873803 0.060517948 0.04206504 -0.23120046 0.29456204 -0.17564273 0.0782301 0.035023272
-0.2259818 0.12679635 0.20028813 -0.30417672 -0.2903158 0.14976116 -0.045166876 -0.41742092
-0.031305242 0.23668323 -0.37773842 0.01900293 0.294236 -0.14438483 -0.1094334 0.2145021
-0.27289236 0.025477659 -0.044001386 -0.088963486 -0.2393279 -0.38527805 0.08472942 -0.12971795
-0.17202105 0.009041225 -0.0065071736 -0.16410056 0.24325645 -0.04359563 -0.20905544 0.02718101
-0.09391187 -0.006380895 -0.16489673 -0.077417456 0.100178994 -0.07962906 -0.038702182 -0.023671757
0.08288627 -0.257052 -0.28404954 0.28704736 -0.07892286 -0.19159344 0.074498184 0.039207272
-0.3443148 0.04203 0.12100596 -0.26854178 -0.53858405 0.103399396 0.069980636 -0.62514466
-0.03776795 0.14950353 0.16068313 -0.11607689 0.22932768 -0.1236858 -0.025510464 0.2613985
-0.005882596 -0.17130321 0.07238758 0.12990327 -0.08382114 0.25327328 -0.13810898 -0.067296855
0.2105376 -0.20441045 0.07164507 0.21283044 -0.38051385 -0.02240947 0.047854725 -0.0923301
-0.09493186 0.02042321 -0.4932989 0.08827767 -0.06873536 -0.5307415 0.025044832 -0.20744848
-0.33458728 -0.36127707 0.011104271 -0.08817134 -0.17317545 0.14221609 0.107055604 -0.22755535
0.016472578 0.2381274 -0.08639147 -0.042298846 0.111705095 -0.16187844 -0.22843164 -0.008319097
0.29256964 0.2747616 -0.1641265 0.27074373 0.098648824 -0.23041333 0.154447 0.008398768
-0.4998397 0.06333094 -0.017789153 -0.83502436 0.22346893 -0.1757626 -0.37215394 0.17361823
-0.2179386 -0.2498799 0.15329944 -0.11028763 -0.059167396 -0.053729728 -0.037011743 0.16931698
0.22763865 -0.07292855 -0.1188909 0.2242395 -0.11360445 -0.33923483 0.27918378 0.0527051
-0.20292687 0.2007484 0.6591296 -0.10809574 0.12795827 0.24394573 0.03281289 0.009582436
0.19353111 -0.060515244 0.14109918 0.12127238 -0.08896958 0.07528586 -0.32741398 -0.27228794
-0.020043446 -0.14172642 0.010666057 0.029366994 -0.23973663 0.10235235 0.10255678 -0.16616082
0.2435653 0.021227581 -0.29639775 -0.32195118 -0.17596486 0.118869744 0.13449238 -0.010547783
0.2734982 0.24361163 -0.04366167 0.24966402 0.17057464 -0.026275825 -0.017708423 0.29573926
0.11579939 -0.14811961 -0.25041687 -0.086157754 0.031943996 -0.18869679 -0.14955854 0.31795228
-0.20215788 -0.41074017 0.49627927 -0.046584226 0.046415813 -0.044685677 0.18540864 -0.1858749
0.057687104 -0.007694728 -0.016144143 0.095127776 0.11869241 -0.32836568 -0.29621688 0.47967663
-0.09791495 -0.41954198 0.04242556 0.00023166489 -0.28537658 0.12518679 -0.042320795 -0.43679687
0.17623098 0.10037263 -0.7016408 0.23150189 0.012535595 -0.10750675 -0.17003508 -0.013028472
0.38577497 -0.41445673 -0.10057599 0.16558038 0.02254739 -0.20245498 0.12479964 0.30791953
0.13887347 0.26966828 -0.05180286 0.15182859 0.35298616 -0.16214263 0.09113185 0.33770266
-0.41929418 -0.027931403 0.31328478 -0.38468918 0.08324309 -0.11527308 -0.032889348 0.21194848
00000000: 8863 313e 2de8 143e 014b d6bd 6df2 0b3e
00000010: b47e 1bbe f939 953c c658 803d 24cc a83c
00000020: b656 c6be abe1 773d 644c 2c3d d0bf 6cbe
00000030: d6d0 963e b0db 33be 1a37 a03d 9074 0f3d
00000040: c667 67be e7d6 013e 5518 4d3e 0dbd 9bbe
00000050: 46a4 94be fd5a 193e e700 39bd 32b8 d5be
00000060: ed39 00bd 175d 723e ee66 c1be 08ac 9b3c
00000070: 1aa6 963e 9ed9 13be 9e1e e0bd 70a6 5b3e
00000080: 8cb8 8bbe 86b6 d03c cc3a 34bd 7d32 b6bd
00000090: 5f12 75be 2a43 c5be 9e86 ad3d c8d4 04be
000000a0: 4926 30be a521 143c 213a d5bb fa09 28be
000000b0: 3818 793e 5591 32bd a112 56be b6aa de3c
000000c0: de54 c0bd d416 d1bb b0da 28be 0b8d 9ebd
000000d0: a52a cd3d 9014 a3bd 2e86 1ebd 46eb c1bc
000000e0: 47c0 a93d 529c 83be f16e 91be dff7 923e
000000f0: 4fa2 a1bd 1231 44be 8192 983d ce97 203d
00000100: 084a b0be a627 2c3d f9d1 f73d 4f7e 89be
00000110: a5e0 09bf 10c3 d33d 0252 8f3d 7b09 20bf
00000120: 91b2 1abd 7417 193e 1e8a 243e b8b9 edbd
00000130: e0d4 6a3e fb4e fdbd 52fb d0bc 06d6 853e
00000140: cbc2 c0bb 1c6a 2fbe f13f 943d 5d05 053e
00000150: 6baa abbd 09ad 813e 716c 0dbe efd2 89bd
00000160: 2b97 573e f950 51be a7ba 923d 39f0 593e
00000170: b6d2 c2be 1194 b7bc 5103 443d 9017 bdbd
00000180: a36b c2bd 934e a73c ac91 fcbe ecca b43d
00000190: 20c5 8cbd adde 07bf d22a cd3c 606d 54be
000001a0: 064f abbe 4ff9 b8be b0ee 353c 2d93 b4bd
000001b0: e854 31be 18a1 113e f83f db3d 4504 69be
000001c0: 80f1 863c abd7 733e 03ee b0bd 8e41 2dbd
000001d0: a4c5 e43d 76c3 25be fce9 69be d24c 08bc
000001e0: b0cb 953e 8dad 8c3e c710 28be ec9e 8a3e
000001f0: 6508 ca3d 79f1 6bbe 5b27 1e3e fc9a 093c
00000200: fdea ffbe a7b3 813d 8fba 91bc 28c4 55bf
00000210: 0ad5 643e 1cfb 33be f68a bebe fac8 313e
00000220: 4c2b 5fbe 84e0 7fbe 87fa 1c3e 7bde e1bd
00000230: 8359 72bd b413 5cbd a099 17bd 6e61 2d3e
00000240: 1b1a 693e 905b 95bd 127d f3bd 0a9f 653e
00000250: 73a9 e8bd 30b0 adbe 2df1 8e3e 4ee1 573d
00000260: 10cc 4fbe fd90 4d3e b8bc 283f 4d61 ddbd
00000270: 7e07 033e e9cc 793e cf66 063d a6ff 1c3c
00000280: 052d 463e d5de 77bd 4e7c 103e a75d f83d
00000290: af35 b6bd 792f 9a3d cea2 a7be 5369 8bbe
000002a0: 2732 a4bc bb20 11be afc0 2e3c 0d93 f03c
000002b0: 857d 75be 1c9e d13d 4a09 d23d 1026 2abe
000002c0: 2f69 793e 77e5 ad3c 72c1 97be c9d6 a4be
000002d0: 2230 34be fb71 f33d 5fb8 093e 9cd0 2cbc
000002e0: f507 8c3e 5475 793e 94d6 32bd eda7 7f3e
000002f0: 1eab 2e3e 6640 d7bc 4111 91bc 236b 973e
00000300: 3b28 ed3d abac 17be a436 80be 7a73 b0bd
00000310: b5d7 023d bb39 41be e025 19be a4ca a23e
00000320: 7a02 4fbe 894c d2be 5118 fe3e 1acf 3ebd
00000330: 821e 3e3d 5408 37bd c3db 3d3e fd55 3ebe
00000340: 5049 6c3d 0f24 fcbb b940 84bc 5ad2 c23d
00000350: 0215 f33d 8c1f a8be bda9 97be 2d98 f53e
00000360: a287 c8bd 35ce d6be 6dc6 2d3d 12eb 7239
00000370: e11c 92be f730 003e 9258 2dbd d7a3 dfbe
00000380: e575 343e 2a90 cd3d bb9e 33bf d50e 6d3e
00000390: 1962 4d3c 802c dcbd ad1d 2ebe 5f75 55bc
000003a0: 4c84 c53e ac33 d4be c9fa cdbd e78d 293e
000003b0: 4eb5 b83c 5c50 4fbe f496 ff3d a1a7 9d3e
000003c0: d934 0e3e f611 8a3e 3c2f 54bd f478 1b3e
000003d0: 9aba b43e b808 26be 56a3 ba3d 5de7 ac3e
000003e0: baad d6be 66d0 e4bc dd66 a03e fbf5 c4be
000003f0: 5a7b aa3d 4b14 ecbd fbb6 06bd 0609 593e

encoder.layer2.0.bias f4 [64]
-0.016965149 0.04020684 0.126712 0.020103931 0.10049248 0.011757712 0.21578085 -0.0035063662
-0.0014818778 -0.20121917 0.008270058 0.17353727 0.28940028 0.17282876 0.038410068 0.10014673
0.07213846 0.13930121 -0.2127365 0.24547137 0.03226916 0.14360201 0.02760199 0.049204625
-0.20399398 -0.012195623 0.22845301 -0.15888731 0.00077070075 0.03636498 0.096554376 -0.059293807
0.12850237 0.109670185 0.05051938 -0.08426663 -0.057426617 0.13522904 -0.08073746 0.0931135
0.031124271 0.43612608 0.19660613 0.11166328 0.18543345 0.016048742 -0.013837486 0.21824981
-0.104245566 -0.08221099 0.032869782 0.21942107 0.077814795 0.12713186 0.0932523 0.025768338
0.29179004 0.09633511 0.05954086 0.19902322 -0.3310541 0.26267248 -0.06385702 -0.049555592
00000000: 7ffa 8abc edaf 243d cac0 013e 00b1 a43c
00000010: 00cf cd3d 6ba3 403c a8f5 5c3e 10cb 65bb
00000020: 913b c2ba 660c 4ebe 237f 073c c1b3 313e
00000030: 462c 943e 06fa 303e e053 1d3d bb19 cd3d
00000040: 54bd 933d faa4 0e3e 99d7 59be d95c 7b3e
00000050: ab2c 043d 680c 133e 921d e23c ca8a 493d
00000060: cce3 50be 26d0 47bc 96ef 693e 5bb3 22be
00000070: da08 4a3a 72f3 143d 4dbe c53d 10de 72bd
00000080: 2096 033e c39a e03d 69ed 4e3d fc93 acbd
00000090: 2c38 6bbd 7b79 0a3e ae59 a5bd 4ab2 be3d
000000a0: 54f8 fe3c eb4b df3e 1e53 493e b8af e43d
000000b0: 44e2 3d3e a778 833c 9fb6 62bc e17c 5f3e
000000c0: b37e d5bd 3c5e a8bd 77a2 063d ebaf 603e
000000d0: 5d5d 9f3d db2e 023e 10fb be3d 1f18 d33c
000000e0: 8165 953e 584b c53d 1ee1 733d becc 4b3e
000000f0: ec7f a9be 027d 863e 78c7 82bd cefa 4abd

encoder.layer2.1.weight f4 [64]
0.61149704 0.5435028 0.5087315 0.54776686 0.3343179 0.21397296 0.4301904 0.63323635
0.3797866 0.313525 0.40484405 0.44185728 0.5579221 0.5287612 0.45224592 0.561628
0.51258975 0.4791545 0.51039624 0.37756193 0.5110935 0.62309974 0.39364448 0.6080001
0.37296817 0.5359229 0.60247904 0.56703687 0.41478935 0.4761545 0.6637076 0.516631
0.40303478 0.5866614 0.3846095 0.44096783 0.67379594 0.41614553 0.5476856 0.5252659
0.70089656 0.50984156 0.4211102 0.51643175 0.42904434 0.4967031 0.5965649 0.4700025
0.48558235 0.46218655 0.47089386 0.4850835 0.49128056 0.64367574 0.47152916 0.6005899
0.5580039 0.576084 0.557818 0.4749458 0.52700084 0.5520423 0.39761478 0.6008119
00000000: 128b 1c3f 0023 0b3f 3a3c 023f 733a 0c3f
00000010: b72b ab3e ba1b 5b3e eb41 dc3e c71b 223f
00000020: 6473 c23e 5986 a03e b847 cf3e 1e3b e23e
00000030: fcd3 0e3f e55c 073f c78c e73e dac6 0f3f
00000040: 1539 033f bd53 f53e 54a9 023f cc4f c13e
00000050: 06d7 023f 7783 1f3f c58b c93e e5a5 1b3f
00000060: aff5 be3e 3e32 093f 113c 1a3f 5429 113f
00000070: 455f d43e 86ca f33e bee8 293f ee41 043f
00000080: 935a ce3e 712f 163f 89eb c43e 89c6 e13e
00000090: e47d 2c3f 0711 d53e 2035 0c3f d377 063f
000000a0: f56d 333f fa84 023f c29b d73e df34 043f
000000b0: b3ab db3e de4f fe3e 7ab8 183f 2ba4 f03e
000000c0: 409e f83e b7a3 ec3e 0019 f13e dd5c f83e
000000d0: 2089 fb3e efc7 243f 456c f13e 42c0 193f
000000e0: 58d9 0e3f 3e7a 133f 29cd 0e3f 192c f33e
000000f0: 87e9 063f a552 0d3f 2a94 cb3e cfce 193f

encoder.layer2.1.bias f4 [64]
-0.28310022 -0.46406654 -0.16638987 -0.16645329 -0.03786625 -0.024207255 -0.19192007 -0.40828753
-0.2690591 0.2832059 0.1532367 -0.30958933 -0.50687146 -0.4259602 -0.20157777 -0.36339104
-0.3810375 -0.12915331 -0.35440728 -0.008941473 -0.55145186 -0.10759414 -0.30594122 0.023303067
-0.10393302 -0.008987127 -0.30907118 -0.26800957 -0.27941003 -0.107571065 -0.6710721 -0.22152641
-0.17825109 -0.46764314 -0.21621327 -0.35653603 -0.1895402 -0.008419901 -0.14963539 -0.036927845
-0.13514334 -0.4315624 -0.04496851 -0.39971647 -0.20334867 -0.37897447 -0.5437154 -0.07415973
-0.34366807 -0.10125156 -0.42242548 -0.24868573 -0.36314365 -0.45532003 0.13991487 -0.315526
-0.58115476 -0.4277425 -0.43678242 -0.41134396 -0.26117742 -0.4299129 -0.15858829 -0.27565
00000000: 83f2 90be 219a edbe 1b62 2abe bb72 2abe
00000010: a419 1bbd 4b4e c6bc b286 44be 100b d1be
00000020: 1dc2 89be 5d00 913e 15ea 1c3e 7e82 9ebe
00000030: 54c2 01bf 7517 dabe 676a 4ebe 640e babe
00000040: 5917 c3be c440 04be df74 b5be 427f 12bc
00000050: f32b 0dbf 515a dcbd 54a4 9cbe 13e6 be3c
00000060: d6da d4bd be3e 13bc 943e 9ebe 8d38 89be
00000070: d50e 8fbe 384e dcbd 62cb 2bbf d2d7 62be
00000080: 7487 36be ec6e efbe 0367 5dbe e48b b6be
00000090: d416 42be a0f3 09bc 053a 19be a741 17bd
000000a0: 0463 0abe bff5 dcbe e630 38bd a3a7 ccbe
000000b0: a23a 50be f108 c2be ef30 0bbf 0ee1 97bd
000000c0: 43f5 afbe fa5c cfbd 2748 d8be 79a7 7ebe
000000d0: f7ed b9be b51f e9be d845 0f3e a08c a1be
000000e0: 8fc6 14bf 1101 dbbe f2a1 dfbe ad9b d2be
000000f0: 0cb9 85be 8b1d dcbe f864 22be ff21 8dbe

encoder.layer2.1.running_mean f4 [64]
-1.1058954 -1.4108766 -0.183218 -0.51028603 -1.0957474 -0.8146988 -0.42547005 -1.3615903
-0.9841076 4.181737 -0.70055 -1.332522 -1.5836971 -1.0020517 -0.81059104 -2.5050066
-2.0450823 -0.79818076 -2.633635 -0.6219854 -2.091793 -1.6599385 -0.8721265 -1.98649
-1.4742582 0.25611877 -0.6854817 -1.4459767 -1.0259389 -0.5896809 -1.3874689 -1.2184448
-1.773986 -1.024721 -0.5049156 -2.5232153 -0.560345 1.213592 0.025344653 -0.9366945
0.57759756 -3.1142695 0.46315777 -1.1928858 -0.77663964 -1.072072 -0.92655385 0.109091625
-1.2055658 -0.30976075 -1.7646759 -1.3948122 -1.4252961 -1.2603898 1.6520973 -1.0296249
-0.8091745 -1.4525526 -2.4100013 -2.1780288 -0.9076133 -0.8269492 0.07738931 -1.5897088
00000000: fb8d 8dbf 9b97 b4bf 809d 3bbe 1ba2 02bf
00000010: 7341 8cbf 1a90 50bf 36d7 d9be 9748 aebf
00000020: 7aee 7bbf cad0 8540 3f57 33bf 1590 aabf
00000030: 96b6 cabf 3b43 80bf e582 4fbf 0752 20c0
00000040: a1e2 02c0 9355 4cbf 7a8d 28c0 6f3a 1fbf
00000050: f0df 05c0 dd78 d4bf af43 5fbf 4e45 febf
00000060: 7eb4 bcbf 0022 833e bb7b 2fbf c415 b9bf
00000070: f751 83bf 54f5 16bf 9598 b1bf 00f6 9bbf
00000080: f911 e3bf 0f2a 83bf 2642 01bf 5c7c 21c0
00000090: c572 0fbf fc56 9b3f 979f cf3c 36cb 6fbf
000000a0: 6fdd 133f 3150 47c0 0423 ed3e 7bb0 98bf
000000b0: dbd1 46bf a839 89bf a232 6dbf 6e6b df3d
000000c0: fb4f 9abf f698 9ebe e6e0 e1bf 3589 b2bf
000000d0: 1a70 b6bf 7454 a1bf ed77 d33f c0ca 83bf
000000e0: 0f26 4fbf 3eed b9bf 763d 1ac0 d364 0bc0
000000f0: 5859 68bf f1b2 53bf 497e 9e3d 947b cbbf

encoder.layer2.1.running_var f4 [64]
1.9793012 1.1607783 1.5477568 1.8404105 1.5524614 0.5831975 1.232301 1.1372265
0.6562184 1.8506627 1.9802879 1.3307023 0.7268898 0.721137 1.6562258 1.5460838
1.1515956 1.1389627 1.607272 1.5126958 0.7136327 2.006415 0.6027016 3.5044572
0.80453813 1.8084444 1.5019252 1.4631213 0.9447869 1.0141996 0.74842715 2.6895878
0.9180277 0.7673785 0.84287995 1.8930374 3.0628006 2.5793624 2.040217 2.0563388
2.287635 0.8874544 1.1856532 0.7810274 0.74688643 0.8894385 0.6689596 1.7260412
0.93936414 1.4139725 0.96491235 1.6298057 0.73211414 0.72824585 3.1940815 1.0576328
0.54476976 1.1051441 1.9846957 1.0238825 1.5354322 0.62786686 0.82500446 5.445634
00000000: be59 fd3f 6294 943f e51c c63f 9292 eb3f
00000010: 0eb7 c63f 6e4c 153f 0abc 9d3f a390 913f
00000020: eefd 273f 84e2 ec3f 137a fd3f 7454 aa3f
00000030: 7315 3a3f 6f9c 383f 35ff d33f 13e6 c53f
00000040: 7c67 933f 88c9 913f 17bb cd3f 04a0 c13f
00000050: a2b0 363f 1a69 0040 a74a 1a3f 0749 6040
00000060: 36f6 4d3f 1b7b e73f 163f c03f 8f47 bb3f
00000070: 8edd 713f 4bd1 813f ec98 3f3f 3522 2c40
00000080: dd03 6b3f eb72 443f fbc6 573f 0d4f f23f
00000090: ed04 4440 4614 2540 ea92 0240 0e9b 0340
000000a0: 9d68 1240 3630 633f 7cc3 973f 69f1 473f
000000b0: f333 3f3f 3eb2 633f f040 2b3f ebee dc3f
000000c0: 2b7a 703f 0dfd b43f 7f04 773f 799d d03f
000000d0: d56b 3b3f 526e 3a3f d56b 4c40 8360 873f
000000e0: 0876 0b3f 5d75 8d3f 820a fe3f 950e 833f
000000f0: 0b89 c43f e2bb 203f 7e33 533f a242 ae40

encoder.layer3.0.weight f4 [128, 64, 4, 2]
-0.8115961 0.04344971 0.0024508117 0.3760782 0.15593727 -0.06750545 0.07640109 -0.1347746
-0.20242916 -0.14444947 0.028545963 0.0066457246 -0.0675554 0.12705372 0.18430601 0.116835356
0.24765487 0.101012886 0.16263218 0.010276449 0.11525793 0.2948264 -0.103156544 -0.0927609
0.06521958 0.04046853 0.40828258 0.19130594 0.06669878 -0.21347769 0.05254917 -0.07795524
0.113726005 -0.51222837 0.37321985 -0.12615497 -0.04849122 0.05245137 0.054777645 0.05047975
-0.26515403 0.23373865 0.04553411 0.17101619 0.1576042 0.071867004 0.18385102 0.30253527
0.42433298 0.018630886 0.39545006 -0.060183764 0.0789016 -0.11198156 -0.000498168 0.08709712
0.14540562 0.048007946 -0.22196476 -0.010053127 0.025958797 -0.20663302 -0.066976786 -0.1988229
-0.12087243 -0.031853337 0.15148503 -0.06059984 0.038200352 0.041377436 -0.09417141 -0.078618616
-0.41810775 -0.34110373 0.13183716 0.100237824 0.3888854 0.3145638 0.087416865 0.08020225
0.019869665 0.01599137 0.16298996 -0.26342413 -0.1560066 -0.1058236 0.11225436 -0.021019248
-0.29509035 0.103759974 -0.37514398 0.17066711 -0.119679905 -0.04854587 0.23073341 0.19015044
0.29504362 0.024251662 0.11676256 0.29283366 -0.09210131 -0.20792522 0.33408836 -0.102868095
0.26388368 -0.2950334 0.2253891 -0.74125785 -0.25918955 -0.23985873 0.07964213 -0.069778055
-0.09769083 -0.23093109 -0.10677154 0.17728646 -0.13905124 -0.0979654 -0.034309123 0.0893337
0.06886186 -0.020488981 0.07480896 -0.13963693 -0.070998885 -0.056083947 -0.19114988 0.053779412
-0.13975078 -0.20486508 0.18927434 0.011501153 0.03297853 0.118834436 -0.058079332 -0.05719147
-0.26274556 -0.030279879 0.035067473 -0.019561721 0.06478565 -0.003160803 -0.024672292 0.25050735
-0.24902041 -0.40041795 0.22443768 0.26997614 0.12690702 0.06949493 0.0928892 0.42928568
0.26295027 -0.1703082 -0.26221383 -0.5640106 -0.19536088 -0.10532239 0.09240007 -0.12033909
0.4058233 -0.019822942 0.6262482 0.10589421 -0.12080438 0.07332901 0.12611784 0.027996497
0.005303526 -0.44288984 -0.10588651 -0.162663 0.050702233 0.10060345 0.12721974 0.28181562
0.21388668 -0.12714455 0.31433573 -0.13485594 -0.08776998 -0.10216087 0.11791417 0.007091704
-1.0757359 -0.2224712 -0.027192812 0.17813143 0.15643187 0.25880814 0.03042638 0.11313283
0.3215177 -0.0069140387 0.15506785 -0.29005933 0.15689586 -0.16676554 -0.13599345 0.07687108
-0.21645701 -0.7411867 -0.095994346 0.057815846 -0.1796687 0.09968095 0.1754913 0.11536822
-0.13629901 -0.41444755 0.13857457 0.46615496 -0.1307075 0.09991553 -0.07774687 0.2569734
0.004041125 0.018354861 0.04250579 -0.09748265 -0.15276773 0.13014592 -0.1879271 -0.01701829
-0.24637973 0.31378317 -0.018556086 -0.3377237 0.071880065 0.09047763 -0.10461157 0.049586367
-0.27383295 -0.091151185 -0.17915893 0.40679657 -0.016266888 -0.14502515 0.039607204 0.033560947
0.23658966 0.068216726 -0.012202415 0.39660478 0.042179726 -0.3740873 -0.110614516 -0.080786325
0.02747243 -0.43295255 -0.13914426 -0.3912127 -0.03483061 0.17500482 0.3083072 0.20885035
00000000: c3c4 4fbf 53f8 313d cc9d 203b 528d c03e
00000010: 05ae 1f3e 4c40 8abd 2d78 9c3d 5a02 0abe
00000020: 9749 4fbe 90ea 13be 39d9 e93c 61c4 d93b
00000030: 7c5a 8abd 5f1a 023e b7ba 3c3e 6047 ef3d
00000040: 3d99 7d3e d8df ce3d 0d89 263e 8d5e 283c
00000050: 590c ec3d 7cf3 963e bd43 d3bd 6df9 bdbd
00000060: d891 853d 54c2 253d 6a0a d13e b4e5 433e
00000070: 5f99 883d e599 5abe cc3d 573d ffa6 9fbd
00000080: 2ee9 e83d 6621 03bf ac16 bf3e c52e 01be
00000090: bb9e 46bd 3fd7 563d 865e 603d dbc3 4e3d
000000a0: 45c2 87be 2f59 6f3e fa81 3a3d de1e 2f3e
000000b0: ff62 213e 022f 933d 7143 3c3e e7e5 9a3e
000000c0: 2c42 d93e cd9f 983c 6e78 ca3e 4083 76bd
000000d0: 2997 a13d 9756 e5bd 7d97 02ba fa5f b23d
000000e0: 36e5 143e fba3 443d bb4a 63be dfb5 24bc
000000f0: 8ba7 d43c 9b97 53be 202b 89bd 3b98 4bbe
00000100: f78b f7bd a578 02bd e41e 1b3e 8a37 78bd
00000110: f977 1c3d 637b 293d f1dc c0bd cc02 a1bd
00000120: 3812 d6be 26a5 aebe 5200 073e 7d49 cd3d
00000130: fd1b c73e 820e a13e 9d07 b33d 1441 a43d
00000140: b5c5 a23c 5500 833c d7e6 263e 87df 86be
00000150: 32c0 1fbe 0bba d8bd 9de5 e53d 8f30 acbc
00000160: 1516 97be 1c80 d43d df12 c0be 5cc3 2e3e
00000170: bd1a f5bd 09d8 46bd 6145 6c3e ccb6 423e
00000180: f50f 973e 6cab c63c 3621 ef3d 4bee 953e
00000190: 9d9f bcbd 59ea 54be a10d ab3e 82ac d2bd
000001a0: c31b 873e 9e0e 97be 66cc 663e 13c3 3dbf
000001b0: 7eb4 84be 879d 75be 6a1b a33d cce7 8ebd
000001c0: 2112 c8bd 3379 6cbe 0aab dabd 958a 353e
000001d0: 7363 0ebe 15a2 c8bd b987 0cbd 96f4 b63d
000001e0: 7207 8d3d 82d8 a7bc 7135 993d fcfc 0ebe
000001f0: dd67 91bd 48b8 65bd cbbc 43be cd47 5c3d
00000200: d41a 0fbe 27c8 51be 22d1 413e 556f 3c3c
00000210: 7f14 073d 785f f33d 98e4 6dbd 9a41 6abd
00000220: 9686 86be 820d f8bc e9a2 0f3d e73f a0bc
00000230: 57ae 843d 7a25 4fbb 8c1d cabc 8042 803e
00000240: 35ff 7ebe 9503 cdbe fed2 653e 503a 8a3e
00000250: eaf3 013e 5c53 8e3d b13c be3d 55cb db3e
00000260: 6ba1 863e 4665 2ebe e440 86be 0063 10bf
00000270: af0c 48be 44b3 d7bd 3f3c bd3d 5774 f6bd
00000280: 12c8 cf3e b963 a2bc cd51 203f 10df d83d
00000290: 4968 f7bd 852d 963d 0925 013e e958 e53c
000002a0: 33c9 ad3b 75c2 e2be 07db d8bd 2191 26be
000002b0: 25ad 4f3d 2e09 ce3d e445 023e 234a 903e
000002c0: 1c05 5b3e 2e32 02be 9df0 a03e ad17 0abe
000002d0: bfc0 b3bd b839 d1bd fc7c f13d 8661 e83b
000002e0: b7b1 89bf 7ecf 63be 76c3 debc 1668 363e
000002f0: ad2f 203e 8082 843e be40 f93c 2fb2 e73d
00000300: f89d a43e 298f e2bb 1bca 1e3e a882 94be
00000310: 4fa9 203e 96c4 2abe de41 0bbe 966e 9d3d
00000320: e8a6 5dbe 69be 3dbf af98 c4bd 4fd0 6c3d
00000330: 12fb 37be 8725 cc3d feb3 333e 2c46 ec3d
00000340: f891 0bbe 7832 d4be 7ee6 0d3e ddab ee3e
00000350: 30d8 05be 83a0 cc3d c039 9fbd 0492 833e
00000360: 6a6b 843b ef5c 963c 8d1a 2e3d fca4 c7bd
00000370: 256f 1cbe f944 053e f66f 40be f169 8bbc
00000380: f84a 7cbe 30a8 a03e ef02 98bc 1fea acbe
00000390: db35 933d 564c b93d 973e d6bd 131b 4b3d
000003a0: d533 8cbe 79ad babd 7075 37be a447 d03e
000003b0: 2342 85bc 7981 14be 2a3b 223d 3477 093d
000003c0: 8f44 723e 36b5 8b3d a3ec 47bc c80f cb3e
000003d0: a6c4 2c3d 5f88 bfbe dd89 e2bd 4d73 a5bd
000003e0: dd0d e13c f5ab ddbe d57b 0ebe 084d c8be
000003f0: 8baa 0ebd 7734 333e 71da 9d3e dedc 553e

encoder.layer3.0.bias f4 [128]
-0.019438535 -0.015584783 -0.1920006 -0.14033693 0.07295639 -0.10489896 -0.014619893 -0.13920459
0.028031852 -0.16917081 0.045363653 0.08402197 -0.116380356 -0.17448883 0.023878984 0.20873857
-0.05925765 0.03447123 0.11488815 0.0005890879 -0.06895216 0.044646293 -0.11334858 -0.13986005
-0.14667617 -0.11048457 -0.2181364 -0.28307804 -0.044974037 -0.1908541 -0.009697646 0.0015332946
0.0374345 -0.085724816 -0.102011904 -0.17913125 -0.0447609 0.097879596 0.0155274505 0.026743686
-0.07506817 0.019259544 0.1264317 -0.026448678 -0.011380909 -0.052759692 0.0107245855 0.012584367
-0.03337239 9.3943774e-05 0.072179906 0.31439993 0.074862495 -0.039693177 0.071384184 -0.07582961
-0.041007847 -0.043060463 -0.23012593 0.025954504 0.016426744 -0.051030952 -0.012985349 -0.030131796
-0.017885566 0.046971537 0.01939848 0.059101507 -0.1873627 -0.023593983 0.08550589 -0.0044356505
0.09641335 -0.083712205 -0.18149793 -0.12088654 -0.12749408 -0.1357552 -0.106558904 0.14302982
-0.07625129 0.06859067 0.093187936 -0.066807 -0.08405582 0.14173535 -0.044331893 -0.1009266
-0.06464352 -0.013012884 -0.01229057 -0.026648156 0.04000397 -0.08397172 0.07966337 0.07461524
-0.09477616 0.047133345 0.06352632 -0.19132504 -0.0025183419 -0.004842763 -0.31763536 -0.19217624
0.0025266684 -0.15641302 0.012935255 0.006033378 0.0033376054 -0.09674798 0.08455007 0.06727141
-0.10269082 -0.12982927 -0.09512714 0.09732365 0.0005851449 -0.076557636 0.092731 -0.043836668
-0.086824045 -0.22731563 0.07054076 -0.08943516 -0.04915816 0.020600842 0.10006356 -0.03108226
00000000: 903d 9fbc 5157 7fbc ce9b 44be 7cb4 0fbe
00000010: 296a 953d 44d5 d6bd 4788 6fbc a68b 0ebe
00000020: 0ea3 e53c 1d3b 2dbe 3dcf 393d b613 ac3d
00000030: d358 eebd 33ad 32be dc9d c33c 90bf 553e
00000040: 26b8 72bd b431 0d3d 7a4a eb3d 056d 1a3a
00000050: ca36 8dbd 08df 363d 4d23 e8bd 7937 0fbe
00000060: 4732 16be bc45 e2bd 265f 5fbe 9bef 90be
00000070: b236 38bd 426f 43be e0e2 1ebc d4f8 c83a
00000080: eb54 193d 7e90 afbd 9eeb d0bd 2f6e 37be
00000090: 3557 37bd 1975 c83d d966 7e3c 9315 db3c
000000a0: 57bd 99bd 31c6 9d3c 5077 013e e6aa d8bc
000000b0: fe76 3abc 8c1a 58bd 2cb6 2f3c a92e 4e3c
000000c0: 7db1 08bd ae03 c538 0fd3 933d 07f9 a03e
000000d0: 8251 993d 5095 22bd df31 923d 8e4c 9bbd
000000e0: d8f7 27bd 2b60 30bd 22a6 6bbe 8a9e d43c
000000f0: 6191 863c d505 51bd 80c0 54bc f5d6 f6bc
00000100: c084 92bc 3a65 403d 90e9 9e3c 6c14 723d
00000110: 02dc 3fbe 2b48 c1bc b61d af3d ef58 91bb
00000120: 5d74 c53d 4e71 abbd 98da 39be 5d93 f7bd
00000130: cf8d 02be 6903 0bbe 8e3b dabd 6976 123e
00000140: a329 9cbd 4479 8c3d 51d9 be3d 1cd2 88bd
00000150: 7525 acbd 1223 113e 5c95 35bd 9bb2 cebd
00000160: d263 84bd fe33 55bc 635e 49bc 3c4d dabc
00000170: 34db 233d 5df9 abbd 8d26 a33d e0cf 983d
00000180: 011a c2bd e50e 413d 161a 823d b6ea 43be
00000190: c40a 25bb 0ab0 9ebb 1aa1 a2be d9c9 44be
000001a0: 7696 253b bc2a 20be 64ee 533c a5b3 c53b
000001b0: babb 5a3b ce23 c6bd 9628 ad3d 98c5 893d
000001c0: 914f d2bd f7f1 04be 05d2 c2bd 9f51 c73d
000001d0: 6964 193a 40ca 9cbd c0e9 bd3d 148e 33bd
000001e0: ced0 b1bd 6ec5 68be ad77 903d c829 b7bd
000001f0: 115a 49bd 19c3 a83c 20ee cc3d 39a0 febc

encoder.layer3.1.weight f4 [128]
0.47633505 0.48600292 0.40427077 0.643341 0.4403041 0.9198494 0.26781794 0.4575903
0.93749475 0.605732 0.713463 0.5185408 0.7888542 1.0678216 0.7524997 0.65309024
0.62058467 0.3308523 1.0333846 0.47490233 0.39599288 0.57736266 0.8230879 0.7704309
0.40191472 0.49854115 0.5659067 0.5590659 0.54216653 0.44508752 0.46159148 0.5482509
0.44370294 0.5267856 0.5762007 0.52582234 0.8185144 0.38377854 0.38544065 0.48942184
0.57474947 0.34206903 0.5527497 0.45706972 0.59794414 0.5862536 0.40533757 1.2978654
0.36413625 0.7452666 0.4032041 0.80794287 1.32588 0.5499978 0.6352865 0.4885757
0.36599422 0.7065303 0.56214976 0.55816907 0.51494396 0.4991602 0.5669676 0.72197914
0.6521971 0.6841897 0.6813231 0.5592708 0.74617255 0.6971532 0.31168425 0.603413
0.50558174 0.445375 0.62150365 0.93289226 0.64276886 0.63179165 0.50584203 0.34706998
0.40189072 0.62366694 0.8301088 0.6061012 0.9446858 0.5736655 0.7185458 0.34013918
0.3877302 0.36286873 0.6757727 0.4226128 0.5665294 0.39564487 0.66036075 0.5300101
0.52932954 0.3944434 0.53264683 0.64860433 0.626398 0.39956853 0.6791468 0.36638477
0.4191897 0.50204796 0.32810786 0.551409 0.32708833 0.4236007 0.4063977 0.5488949
0.5426288 0.97424287 0.45506713 0.5180203 0.4394099 0.7015083 0.40985566 0.40148938
0.46652746 0.8205327 0.4192359 0.4284361 0.45684436 0.61805135 0.5111582 0.40089065
00000000: 30e2 f33e 60d5 f83e 94fc ce3e ffb1 243f
00000010: 8a6f e13e 407b 6b3f 6f1f 893e 4749 ea3e
00000020: a8ff 6f3f 4111 1b3f 83a5 363f 17bf 043f
00000030: 59f2 493f 61ae 883f d2a3 403f ec30 273f
00000040: a3de 1e3f 7965 a93e f245 843f 6626 f33e
00000050: 94bf ca3e 0ace 133f e3b5 523f f63a 453f
00000060: c4c7 cd3e c940 ff3e 43df 103f f11e 0f3f
00000070: 6dcb 0a3f 83e2 e33e b855 ec3e 2c5a 0c3f
00000080: 082d e33e 6cdb 063f e481 133f 4b9c 063f
00000090: 298a 513f 9f7e c43e 7a58 c53e 8095 fa3e
000000a0: c822 133f ac23 af3e 0181 0d3f 0b05 ea3e
000000b0: de12 193f b714 163f 6888 cf3e 7420 a63f
000000c0: 1170 ba3e cbc9 3e3f c570 ce3e 58d5 4e3f
000000d0: 70b6 a93f a8cc 0c3f 23a2 223f 9826 fa3e
000000e0: 9863 bb3e 2bdf 343f 0ce9 0f3f 2be4 0e3f
000000f0: 5ed3 033f ed91 ff3e ca24 113f a0d3 383f
00000100: 64f6 263f 0e27 2f3f 316b 2e3f 5f2c 0f3f
00000110: 2a05 3f3f a278 323f 1495 9f3e 4679 1a3f
00000120: ce6d 013f 3108 e43e dd1a 1f3f 07d2 6e3f
00000130: 808c 243f 19bd 213f dd7e 013f 28b3 b13e
00000140: 9fc4 cd3e a3a8 1f3f 0382 543f 7329 1b3f
00000150: eed6 713f bedb 123f 9ef2 373f b926 ae3e
00000160: 9384 c63e eec9 b93e 71ff 2c3f b460 d83e
00000170: 1208 113f f791 ca3e 670d 293f beae 073f
00000180: 2482 073f 7cf4 c93e 8b5b 083f ef0a 263f
00000190: 9f5b 203f 3f94 cc3e 91dc 2d3f c996 bb3e
000001a0: 08a0 d63e 3786 003f c1fd a73e 2429 0d3f
000001b0: 1f78 a73e 31e2 d83e 5c13 d03e 6084 0c3f
000001c0: b9e9 0a3f fb67 793f 8ffe e83e fa9c 043f
000001d0: 56fa e03e 0c96 333f 9ad8 d13e 0490 cd3e
000001e0: b0dc ee3e 6e0e 523f 16a6 d63e fa5b db3e
000001f0: 81e7 e93e 9d38 1e3f 44db 023f 8a41 cd3e

encoder.layer3.1.bias f4 [128]
-0.13843155 -0.2859516 -0.2710997 -0.2759236 -0.23686619 -0.39926165 -0.088256344 -0.4144488
-0.22415307 -0.27093378 -0.22087102 -0.0014337321 -0.11711133 -0.37664908 -0.16908057 -0.16764398
-0.21845374 -0.068939105 -0.29186097 -0.2153855 -0.15548167 -0.33092818 -0.27532986 -0.30812618
-0.09905837 -0.15244146 -0.32767352 -0.16901843 -0.03794663 -0.33591142 -0.09541129 -0.13999026
-0.35249582 -0.23617357 -0.16555916 -0.100398794 -0.339122 -0.0973451 -0.102856725 -0.15408903
-0.1685291 -0.1294887 -0.21582055 -0.19206934 -0.36424154 -0.14145033 -0.06415598 -0.34304684
-0.0924524 -0.23658144 -0.13628742 -0.33324623 -0.25398347 -0.11609612 -0.20345938 -0.15693568
-0.037803113 -0.17580895 -0.36451083 -0.13101286 -0.28545108 -0.13606521 -0.23435152 -0.07554139
-0.24702749 -0.0005316194 -0.37121117 -0.19273736 -0.15972981 -0.20516883 -0.19686623 -0.22609825
-0.23789652 -0.16723129 -0.21711229 -0.26731965 -0.30198845 -0.22033586 -0.17830749 -0.2127678
-0.10727544 -0.19635963 0.006354372 -0.35862574 -0.17556025 -0.30789813 -0.15171163 -0.08843963
-0.10558281 -0.060114317 -0.14357404 -0.24116439 -0.16168366 -0.13162759 -0.27122158 -0.43401277
-0.3597371 -0.12695721 -0.24579915 -0.101459965 -0.19281383 -0.08939464 -0.22069697 -0.022677463
-0.09067242 -0.2686865 0.034274366 -0.37114456 0.00780003 -0.008218391 -0.21049918 -0.17925444
-0.10086713 -0.1919912 -0.15708904 -0.1902861 -0.15658677 -0.31528783 -0.14381869 -0.2270464
-0.21979171 -0.3531187 -0.08955674 -0.07973749 -0.24278437 -0.34667018 -0.052176934 -0.1381654
00000000: 00c1 0dbe 4068 92be 94cd 8abe dc45 8dbe
00000010: 0d8d 72be 066c ccbe bebf b4bd a232 d4be
00000020: 6288 65be d5b7 8abe 032c 62be 11ec bbba
00000030: 11d8 efbd 26d8 c0be 7523 2dbe ddaa 2bbe
00000040: 56b2 5fbe f22f 8dbd cd6e 95be 048e 5cbe
00000050: 9636 1fbe 6b6f a9be 09f8 8cbe b7c2 9dbe
00000060: 1ddf cabd 9d19 1cbe d3c4 a7be 2b13 2dbe
00000070: ed6d 1bbd 95fc abbe ff66 c3bd 9b59 0fbe
00000080: 557a b4be 7cd7 71be 5788 29be e29d cdbd
00000090: 66a1 adbe de5c c7bd 8ca6 d2bd 84c9 1dbe
000000a0: e492 2cbe b098 04be 1000 5dbe d3ad 44be
000000b0: de7d babe 5bd8 10be 3664 83bd d6a3 afbe
000000c0: af57 bdbd 6842 72be ee8e 0bbe 409f aabe
000000d0: 1f0a 82be cdc3 edbd a857 50be bfb3 20be
000000e0: 70d7 1abd 4307 34be 2aa1 babe 3c28 06be
000000f0: a526 92be ae54 0bbe d8f9 6fbe 72b5 9abd
00000100: c6f4 7cbe 605c 0bba 640f bebe f15c 45be
00000110: 3690 23be c717 52be 4d97 49be 4d86 67be
00000120: 259b 73be ae3e 2bbe af52 5ebe 1fde 88be
00000130: 3b9e 9abe b99f 61be 3d96 36be cddf 59be
00000140: 3ab3 dbbd 8012 49be 5638 d03b cb9d b7be
00000150: 11c6 33be d3a4 9dbe 4b5a 1bbe d61f b5bd
00000160: cd3b d8bd 6e3a 76bd 1305 13be ccf3 76be
00000170: 6790 25be 62c9 06be 8edd 8abe ec36 debe
00000180: 762f b8be 1201 02be c6b2 7bbe 3eca cfbd
00000190: fd70 45be 8914 b7bd 63fe 61be 16c6 b9bc
000001a0: 76b2 b9bd 4791 89be 4763 0c3d a906 bebe
000001b0: 6597 ff3b 6ea6 06bc 198d 57be 7a8e 37be
000001c0: 6d93 cebd 5799 44be f3db 20be 5cda 42be
000001d0: 4858 20be 686d a1be 3545 13be da7e 68be
000001e0: 1411 61be f9cb b4be 8669 b7bd 694d a3bd
000001f0: 779c 78be c17e b1be 7bb7 55bd 3b7b 0dbe

encoder.layer3.1.running_mean f4 [128]
-0.34459862 -0.9677025 -0.27669203 -0.9957098 -1.2693776 -2.506699 2.0976207 -0.8856122
-3.7853346 -1.3211834 -1.475364 -0.940824 -3.9067965 -3.1906605 -1.5292809 -0.7406803
-1.5725783 0.12700209 -4.4457397 -0.69048375 0.32453272 0.0540528 -2.2781515 -2.893526
-0.15312476 -0.9200443 -0.46022856 -0.5973548 -1.3484088 -0.87103844 -1.0428886 0.15342788
-0.8406043 -0.8164836 0.47937354 -1.5325987 -1.6047773 -0.16932721 0.26613852 -1.4258481
-1.2407167 0.03243518 -0.09689674 -0.70305884 -1.1030456 -1.5107112 -0.36740857 -3.7956192
0.87423986 -1.4301898 -0.2737064 -0.34703705 -5.2189856 -1.3420223 0.36017138 0.17244828
-1.3888172 -2.04605 -0.91477954 3.09093 0.5670976 0.32069978 -1.2475885 -2.3556054
-2.5694106 -3.0380757 -1.6391262 0.6236531 -1.7644658 -1.1247817 0.39624485 -1.7257677
-0.4541925 -1.616765 -0.6820377 -4.1162457 -1.149649 -1.5646982 0.106857985 -0.17384584
0.33157003 -2.2677603 -2.9920187 -0.7368774 -3.1184905 -0.80379117 -1.0641824 0.5940493
-1.084444 -0.28460085 -1.310237 -0.1795894 -0.8412517 -0.5196929 -0.84130484 1.2150769
-0.66887945 -0.06530463 -0.5024187 -1.5108563 -1.330123 -0.09956865 -2.5125113 -0.42202434
0.46710116 -0.569262 -0.06403489 -0.8241691 -0.20912662 -0.41303596 -0.16429515 -1.6135833
-2.0322683 -2.9032798 -0.7586225 -0.9746393 -0.4598089 -1.9780009 -0.7458505 -1.7797838
0.029439362 -1.6815016 -0.6751079 -0.870013 1.7789502 2.7325504 -2.8302786 -0.5501717
00000000: 3b6f b0be 5abb 77bf 94aa 8dbe d6e6 7ebf
00000010: f77a a2bf c26d 20c0 6b3f 0640 7bb7 62bf
00000020: ec42 72c0 8a1c a9bf bad8 bcbf d7d9 70bf
00000030: f408 7ac0 c833 4cc0 7abf c3bf 399d 3dbf
00000040: 3f4a c9bf d60c 023e 8043 8ec0 8bc3 30bf
00000050: 2729 a63e 7866 5d3d 3ccd 11c0 882f 39c0
00000060: bdcc 1cbe 0688 6bbf 14a3 ebbe 3fec 18bf
00000070: a998 acbf 60fc 5ebf 607d 85bf 331c 1d3e
00000080: d831 57bf 1205 51bf 7370 f53e 322c c4bf
00000090: 5869 cdbf 1d64 2dbe 4f43 883e 3182 b6bf
000000a0: cecf 9ebf c0da 043d cc71 c6bd aafb 33bf
000000b0: 9930 8dbf fc5e c1bf fa1c bcbe 6deb 72c0
000000c0: 2fce 5f3f 7610 b7bf 3f23 8cbe d7ae b1be
000000d0: ee01 a7c0 63c7 abbf 6268 b83e 4896 303e
000000e0: c3c4 b1bf 7cf2 02c0 fe2e 6abf ccd1 4540
000000f0: 4f2d 113f c332 a43e fbb0 9fbf 3dc2 16c0
00000100: 3971 24c0 d56f 42c0 e3ce d1bf bba7 1f3f
00000110: 04da e1bf d9f8 8fbf 9be0 ca3e f5e5 dcbf
00000120: eb8b e8be 28f2 cebf 069a 2ebf 49b8 83c0
00000130: b327 93bf 0848 c8bf 5cd8 da3d a504 32be
00000140: 8cc3 a93e fc22 11c0 3c7d 3fc0 ffa3 3cbf
00000150: 5995 47c0 42c5 4dbf 2137 88bf 9d13 183f
00000160: 10cf 8abf 34b7 91be d9b5 a7bf 49e6 37be
00000170: 455c 57bf 980a 05bf c15f 57bf a487 9b3f
00000180: af3b 2bbf 6fbe 85bd 839e 00bf bd63 c1bf
00000190: 7841 aabf a6ea cbbd fccc 20c0 9313 d8be
000001a0: e227 ef3e 28bb 11bf b924 83bd bffc 52bf
000001b0: 4a25 56be 7379 d3be fd3c 28be e689 cebf
000001c0: af10 02c0 56cf 39c0 1635 42bf f681 79bf
000001d0: 126c ebbe 222f fdbf 0ff0 3ebf f5cf e3bf
000001e0: d12a f13c 723b d7bf dfd3 2cbf 2cb9 5ebf
000001f0: a4b4 e33f 1be2 2e40 4923 35c0 0dd8 0cbf

encoder.layer3.1.running_var f4 [128]
3.0713792 1.9986866 1.4904552 2.9600573 2.406836 4.868915 1.9077046 1.795637
3.906356 2.9288793 3.3994236 3.1211557 3.8585835 5.293435 2.8178813 2.5907137
3.1085205 2.099727 10.818869 1.7613388 2.3162344 2.5718577 2.9922493 3.196789
1.9193642 2.589779 2.372211 3.057717 2.956035 1.7242157 3.1838248 2.511561
1.8496916 3.0776184 3.2559154 3.039071 3.2546744 2.005948 2.1120753 3.4138997
4.274503 1.6436082 2.741175 2.6995616 2.2580786 4.70698 2.5038931 9.325439
1.7168337 3.126892 1.9298956 4.40375 8.414779 4.606131 3.2184923 3.6444745
2.1217694 3.7828877 1.9025036 5.6218977 1.6687604 3.7404819 2.763872 4.302212
3.6011028 4.7933354 2.1031544 2.9018557 4.4093823 2.8237545 1.3830148 2.1647427
1.7632093 1.7760966 2.366486 7.9731975 3.6832662 2.1293383 2.8137684 1.3322879
2.023693 3.02513 3.4871383 1.6438509 6.9872336 2.472951 3.8947406 1.756026
2.7462115 1.9491116 6.6776724 1.9527743 3.272872 1.4412336 2.3891714 1.6466049
2.9809418 2.1274984 2.4851835 3.2476597 3.6775477 2.5989757 3.8854024 1.6661799
2.1805525 1.5984018 2.417766 1.757052 2.5089784 2.2711365 1.6018742 2.7754934
5.1614094 4.0614667 1.60245 2.9289527 2.5853057 3.1461196 2.443307 1.4536426
2.6500828 2.9848874 2.772091 2.3000324 2.1526306 3.839294 4.7824826 2.8487709
00000000: 7a91 4440 f6d4 ff3f 3cc7 be3f 9471 3d40
00000010: 9a09 1a40 27ce 9b40 aa2f f43f 6fd7 e53f
00000020: bd01 7a40 c272 3b40 2890 5940 04c1 4740
00000030: 08f3 7640 d263 a940 2b58 3440 41ce 2540
00000040: 00f2 4640 ed61 0640 161a 2d41 8d73 e13f
00000050: 2f3d 1440 5199 2440 0381 3f40 3198 4c40
00000060: baad f53f f0be 2540 4ed2 1740 a3b1 4340
00000070: ad2f 3d40 1ab3 dc3f c9c3 4b40 6abd 2040
00000080: b2c2 ec3f b3f7 4440 eb60 5040 2480 4240
00000090: 964c 5040 7461 0040 3e2c 0740 557d 5a40
000000a0: bbc8 8840 c161 d23f 696f 2f40 9ec5 2c40
000000b0: 5c84 1040 959f 9640 c93f 2040 0035 1541
000000c0: 35c1 db3f 001f 4840 d206 f73f 85eb 8c40
000000d0: efa2 0641 6d65 9340 c7fb 4d40 123f 6940
000000e0: 12cb 0740 d51a 7240 3d85 f33f 96e6 b340
000000f0: f199 d53f 0e64 6f40 47e3 3040 b9ab 8940
00000100: 7878 6640 0163 9940 159a 0640 01b8 3940
00000110: a919 8d40 65b8 3440 a106 b13f 258b 0a40
00000120: d8b0 e13f 2257 e33f 8274 1740 6f24 ff40
00000130: a2ba 6b40 1447 0840 c814 3440 6988 aa3f
00000140: 3084 0140 bb9b 4140 462d 5f40 b569 d23f
00000150: 6b97 df40 d444 1e40 6e43 7940 76c5 e03f
00000160: eec1 2f40 7d7c f93f 7eaf d540 82f4 f93f
00000170: bc76 5140 587a b83f 2fe8 1840 f3c3 d23f
00000180: c0c7 3e40 ef28 0840 3f0d 1f40 a8d9 4f40
00000190: f15c 6b40 9e55 2640 6faa 7840 6245 d53f
000001a0: 2c8e 0b40 6e98 cc3f aebc 1a40 14e7 e03f
000001b0: 1a93 2040 4d5a 1140 370a cd3f afa1 3140
000001c0: 442a a540 89f7 8140 151d cd3f f673 3b40
000001d0: a675 2540 065a 4940 245f 1c40 f610 ba3f
000001e0: f59a 2940 6508 3f40 f069 3140 bb33 1340
000001f0: b3c4 0940 feb6 7540 190a 9940 4352 3640
