data/seq2seq_model.pth (torch_old, 961727 bytes, 29 tensors)

encoder.layer1.0.weight f4 [32, 3, 3, 4]
0.022696702 0.033188302 -0.104139574 -0.13838933 -0.048272964 -0.10793686 0.14758064 0.7036361
-0.052565306 0.3534092 0.16004287 -0.2195605 -0.026175179 -0.06803334 -0.2518082 -0.06677695
0.04431061 -0.13519196 0.3480043 0.6777386 -0.22176284 0.3206397 0.25968587 -0.4149842
0.12525031 -0.017803404 -0.21679741 0.06473441 -0.11478229 -0.0073034926 0.05669979 0.36273575
0.007929397 0.27429438 0.15981862 -0.2339988 -0.17184861 0.44612178 0.26216528 0.25710633
-0.34332556 -0.14118022 -0.2570317 -0.11872604 0.03588552 0.089134395 -0.0013249253 -0.013204231
-0.11758383 0.17332081 0.2707285 0.19574875 -0.376514 -0.1017698 -0.256889 -0.046585336
-0.07286749 -0.012656291 0.14711677 -0.004403733 -0.022603728 0.3837391 0.27904522 0.105529025
-0.17448704 -0.040377196 -0.41179928 -0.32248676 -0.1526927 0.28893036 0.11526211 0.03152667
-0.24641246 0.20937634 0.19973905 -0.12908843 -0.12549742 0.3331876 -0.043777026 -0.17137556
-0.12095138 0.21333691 -0.08916421 0.014749056 -0.35965794 0.29699934 0.30765992 -0.2543592
-0.18580043 0.54387814 -0.05098947 -0.17554326 -0.19777131 0.34615156 -0.051954694 -0.14083318
-0.20067014 0.23639007 0.114119835 -0.08233056 -0.0863961 0.12278131 -0.07730507 -0.04305924
-0.053468585 0.2406554 -0.17774223 0.04274818 -0.08030014 0.0012654498 0.039047755 -0.042769197
-0.0010144779 -0.34650934 -0.18612163 -0.04380168 -0.050403167 -0.26974562 0.007220274 0.4437602
-0.2559489 -0.18922052 0.20459612 -0.005665361 -0.020665102 -0.12886608 -0.2297017 0.08978096
-0.04375049 -0.30234596 -0.38424274 0.44148806 0.08503861 -0.08604532 0.05739009 -0.09170566
0.02126529 -0.33023027 -0.18776464 -0.10767972 0.07877575 -0.16806857 -0.054157298 0.34451735
0.07079707 0.11683804 -0.30590904 0.17170458 -0.2528746 0.2887829 -0.092271365 -0.052246455
0.01886396 0.34662458 -0.25798702 0.003522615 -0.0638187 0.07995778 -0.33790454 0.17105713
-0.14725411 0.36331674 -0.19455305 0.031994905 -0.028939309 0.625585 -0.32521784 -0.034042504
0.12438153 0.0726132 -0.1553413 -0.026360914 -0.26222333 0.11868299 -0.0006018901 0.122235216
-0.009606871 0.31438148 -0.27678558 -0.03087579 0.03210386 -0.13906859 -0.089724846 0.42370346
0.08880942 -0.04777759 0.36264938 0.04456096 -0.3046571 0.07332662 0.20778918 -0.3264758
-0.14053288 -0.13853037 0.011202642 0.78753823 -0.0034832216 0.14844689 0.36926275 0.114465326
-0.06609365 -0.09249819 0.16838957 -0.27565953 0.13185328 -0.13337214 -0.23834196 0.51005954
-0.08079012 0.099427484 0.3451159 -0.065831296 -0.2582055 0.14472406 -0.039720003 -0.2093627
0.6716261 0.16845591 0.23449771 -0.010437524 -0.2603952 -0.17760988 -0.015092731 -0.106886856
-0.0067654136 -0.07940733 0.17144832 -0.047636654 0.9140091 0.6198974 0.22293977 -0.050730918
-0.16508543 -0.35720628 -0.03979844 -0.03162909 -0.1006485 -0.08487919 0.021837186 -0.055632927
0.30563045 0.13348112 -0.06475405 0.105912566 -0.17893924 -0.3929553 0.04408773 -0.10113437
0.012818252 0.024797961 0.2518002 -0.08300305 0.06875254 0.22387844 0.039258588 -0.03957043
00000000: 6fee b93c 75f0 073d 2147 d5bd efb5 0dbe
00000010: dfb9 45bd 000e ddbd 611f 173e 7f21 343f
00000020: b84e 57bd 0df2 b43e 47e2 233e 78d4 60be
00000030: 546d d6bc 1055 8bbd 01ed 80be 5bc2 88bd
00000040: 0b7f 353d c36f 0abe 9f2d b23e 4780 2d3f
00000050: cc15 63be e32a a43e 8cf5 843e cf78 d4be
00000060: 9e41 003e 72d8 91bc 2400 5ebe 7993 843d
00000070: fa12 ebbd 2352 efbb 0a3e 683d 80b8 b93e
00000080: 4dea 013c 5070 8c3e 7ea7 233e 629d 6fbe
00000090: 15f9 2fbe 136a e43e 873a 863e 71a3 833e
000000a0: 5ec8 afbe 8c91 10be a999 83be a326 f3bd
000000b0: b2fc 123d 188c b63d 1ea9 adba 8f56 58bc
000000c0: cbcf f0bd 037b 313e ed9c 8a3e 5c72 483e
000000d0: 71c6 c0be af6c d0bd f486 83be 44d0 3ebd
000000e0: 8d3b 95bd 555c 4fbc c7a5 163e 314d 90bb
000000f0: 742b b9bc 7479 c43e 04df 8e3e 9a1f d83d
00000100: bbac 32be 8f62 25bd 5bd7 d2be fc1c a5be
00000110: 7a5b 1cbe aeee 933e 8b0e ec3d 1c22 013d
00000120: 8c53 7cbe c066 563e 6588 4c3e c22f 04be
00000130: 6582 00be 9197 aa3e 8a4f 33bd 137d 2fbe
00000140: 5bb5 f7bd fe74 5a3e ba9b b6bd 06a6 713c
00000150: 1625 b8be 4c10 983e 9a85 9d3e 5e3b 82be
00000160: 7842 3ebe 993b 0b3f 56da 50bd 9dc1 33be
00000170: 9084 4abe c73a b13e 72ce 54bd 9336 10be
00000180: 797c 4dbe 3d10 723e a9b7 e93d ed9c a8bd
00000190: 70f0 b0bd c474 fb3d 1f52 9ebd e35e 30bd
000001a0: e001 5bbd 5f6e 763e 0f02 36be b718 2f3d
000001b0: 6674 a4bd 73dd a53a 8af0 1f3d c12e 2fbd
000001c0: 3bf8 84ba ac69 b1be ab96 3ebe 6469 33bd
000001d0: 8d73 4ebd 191c 8abe 0c98 ec3b 8934 e33e
000001e0: bc0b 83be 06c3 41be a581 513e 7ea4 b9bb
000001f0: dc49 a9bc 78f5 03be ec36 6bbe 14df b73d
00000200: b733 33bd 17cd 9abe 77bb c4be b90a e23e
00000210: b928 ae3d 8738 b0bd df11 6b3d 2dd0 bbbd
00000220: 8c34 ae3c f113 a9be 6045 40be 2f87 dcbd
00000230: 2e55 a13d 2b1a 2cbe 0bd4 5dbd 9464 b03e
00000240: 0efe 903d c848 ef3d 1ca0 9cbe 53d3 2f3e
00000250: c878 81be 5adb 933e c5f8 bcbd 6100 56bd
00000260: 9788 9a3c c778 b13e e016 84be acdb 663b
00000270: 61b3 82bd e8c0 a33d d301 adbe 9a29 2f3e
00000280: c8c9 16be a704 ba3e ea38 47be 170d 033d
00000290: 2112 edbc 5726 203f f482 a6be 2770 0bbd
000002a0: bebb fe3d 3bb6 943d ca11 1fbe d8f2 d7bc
000002b0: 2342 86be 1110 f33d 29c8 1dba 7556 fa3d
000002c0: 2366 1dbc 9cf6 a03e d7b6 8dbe 3aef fcbc
000002d0: 567f 033d ff67 0ebe a9c1 b7bd a9ef d83e
000002e0: b7e1 b53d 6fb2 43bd 2ead b93e 8e85 363d
000002f0: 04fc 9bbe 442c 963d b0c6 543e d627 a7be
00000300: dae7 0fbe e8da 0dbe 498b 373c 1b9c 493f
00000310: c346 64bb 7602 183e 0210 bd3e cc6c ea3d
00000320: 1c5c 87bd b16f bdbd 516e 2c3e 3f23 8dbe
00000330: 8c04 073e b592 08be ea0f 74be 4393 023f
00000340: 4a75 a5bd a3a0 cb3d 08b3 b03e 8fd2 86bd
00000350: 8333 84be 8b32 143e 71b1 22bd 2d63 56be
00000360: b0ef 2b3f b57f 2c3e 2b20 703e 2602 2bbc
00000370: 8552 85be 5ddf 35be 8147 77bc 7fe7 dabd
00000380: 67b0 ddbb 4fa0 a2bd 2690 2f3e a71e 43bd
00000390: 80fc 693f 99b1 1e3f 534a 643e 39cb 4fbd
000003a0: 280c 29be bee3 b6be b003 23bd 818d 01bd
000003b0: cd20 cebd 24d5 adbd e6e3 b23c 5adf 63bd
000003c0: 987b 9c3e 46af 083e c59d 84bd b0e8 d83d
000003d0: d93b 37be 7031 c9be 5695 343d 891f cfbd
000003e0: a503 523c 1825 cb3c f5eb 803e 81fd a9bd
000003f0: 22ce 8c3d 6440 653e 9dcd 203d 9a14 22bd

encoder.layer1.0.bias f4 [32]
0.20086302 -0.07525706 0.17591573 -0.30102712 -0.036963064 -0.41353428 0.19275756 -0.013150501
-0.049468536 -0.17358233 -0.057502028 -0.010985378 -0.087240376 0.23882188 -0.35580117 -0.028520152
0.21879055 0.24708246 -0.08676539 -0.008032501 -0.07858685 0.082422204 0.2659696 -0.23539487
-0.19342592 0.5014208 -0.09299353 -0.15064403 -0.1366358 -0.30404228 -0.09590468 -0.1732177
00000000: 09af 4d3e 6020 9abd 4123 343e 3a20 9abe
00000010: 9566 17bd c4ba d3be 3d62 453e 3375 57bc
00000020: 859f 4abd 91bf 31be 3f87 6bbd 04fc 33bc
00000030: 15ab b2bd b98d 743e 922b b6be 18a3 e9bc
00000040: a10a 603e 2f03 7d3e 0eb2 b1bd c09a 03bc
00000050: 24f2 a0bd f9cc a83d 2b2d 883e 5a0b 71be
00000060: 7211 46be 1d5d 003f 6473 bebd 6e42 1abe
00000070: 41ea 0bbe 6eab 9bbe ac69 c4bd fb5f 31be

encoder.layer1.1.weight f4 [32]
0.7920461 0.13844559 0.48510426 0.249798 0.3739923 0.5908793 0.6953042 0.44432428
0.3605435 0.19931659 0.3555526 0.79990965 0.32559395 0.4189889 0.2508878 0.25569174
0.31276417 0.77073866 0.2983284 0.3219576 0.39541614 0.33759242 0.41948134 0.19469817
0.23618034 0.30955034 -0.0005122242 0.5366891 0.47772774 0.29761645 0.48624867 0.8992888
00000000: 89c3 4a3f aec4 0d3e 965f f83e 0ccb 7f3e
00000010: eb7b bf3e de43 173f 75ff 313f 797e e33e
00000020: 2899 b83e a619 4c3e fe0a b63e e1c6 4c3f
00000030: 40b4 a63e b785 d63e 5e74 803e 07ea 823e
00000040: a022 a03e 214f 453f 80be 983e a0d7 a43e
00000050: fc73 ca3e ead8 ac3e 42c6 d63e f55e 473e
00000060: 42d9 713e 627d 9e3e c946 06ba 7564 093f
00000070: bb98 f43e 2f61 983e 96f5 f83e ca37 663f

encoder.layer1.1.bias f4 [32]
-0.2360156 0.10127151 0.21006143 -0.10400705 0.18268244 -0.104878664 -0.16498828 -0.2436522
0.0568303 0.054636564 0.03942748 -0.15678932 0.12428966 0.056541666 0.11365558 0.07141736
-0.06812883 -0.10475151 0.06912937 0.035198107 -0.13789381 -0.31779456 -0.047539584 0.07184843
-0.022558304 0.12929252 -0.02202578 -1.1378043 -0.029509889 0.09503609 -0.9451623 -0.16097474
00000000: 13ae 71be 7067 cf3d 581a 573e a601 d5bd
00000010: 1b11 3b3e a0ca d6bd b0f2 28be f67f 79be
00000020: e3c6 683d 97ca 5f3d b67e 213d 618d 20be
00000030: 948b fe3d 3c98 673d 42c4 e83d 4443 923d
00000040: 2187 8bbd f687 d6bd b393 8d3d e42b 103d
00000050: 0934 0dbe f8b5 a2be deb8 42bd 4525 933d
00000060: 31cc b8bc 4265 043e 696f b4bc 92a3 91bf
00000070: b9be f1bc 48a2 c23d 28f6 71bf 90d6 24be

encoder.layer1.1.running_mean f4 [32]
1.4182179 -0.15641212 0.30637482 -1.6048965 0.10491864 0.6195754 1.2789569 -0.008165366
0.018640917 -3.3012412 0.017523082 0.8675206 0.15768716 0.30022982 -0.049818404 -0.63490653
0.53106314 1.5721767 -0.14854974 0.17952007 -0.19081151 0.33714905 0.62315935 -0.6612818
-0.12742424 0.6427428 -0.31042022 -1.1534629 0.14918353 -0.17637101 -1.9774431 2.7319262
00000000: 2a88 b53f 802a 20be 29dd 9c3e 406d cdbf
00000010: 95df d63d 7e9c 1e3f dcb4 a33f 07c8 05bc
00000020: d6b4 983c 8947 53c0 918c 8f3c d415 5e3f
00000030: be78 213e b9b7 993e 620e 4cbd 3c89 22bf
00000040: c1f3 073f 163d c93f 6c1d 18be 1cd4 373e
00000050: 1864 43be cd9e ac3e 5f87 1f3f c449 29bf
00000060: 807b 02be cb8a 243f 66ef 9ebe aca4 93bf
00000070: 91c3 183e 9a9a 34be db1c fdbf e1d7 2e40

encoder.layer1.1.running_var f4 [32]
0.26253253 0.07479805 0.08172981 0.361942 0.031577867 0.28212088 0.24532688 0.018980758
0.0355731 1.0035957 0.07648857 0.16686945 0.07859928 0.04966998 0.09100647 0.42835626
0.06508409 0.47167754 0.084806755 0.085656725 0.019785237 0.44623113 0.07373446 0.094502784
0.06873555 0.066671565 0.018657368 0.20339368 0.07244868 0.05164239 0.46555263 1.0853475
00000000: aa6a 863e b82f 993d f561 a73d 7650 b93e
00000010: cb57 013d 2672 903e f836 7b3e 897d 9b3c
00000020: 19b5 113d d375 803f 0aa6 9c3d d3df 2a3e
00000030: a9f8 a03d c072 4b3d 9a61 ba3d 8351 db3e
00000040: cf4a 853d b87f f13e 2aaf ad3d cb6c af3d
00000050: a614 a23c 6878 e43e 1802 973d ad8a c13d
00000060: 39c5 8c3d 1a8b 883d 56d7 983c 6f46 503e
00000070: f95f 943d f986 533d ea5c ee3e abec 8a3f

encoder.layer2.0.weight f4 [64, 32, 4, 3]
0.12473889 0.12636788 -0.22993936 0.12890449 -0.085750274 -0.060489293 0.10149822 0.048457645
-0.3603443 -0.03910656 0.0024425436 -0.21112719 0.2283098 -0.20891209 0.063314855 0.0062897285
-0.2550415 0.028110107 0.012695815 -0.32176232 -0.18081614 0.025073076 -0.079172686 -0.4976553
-0.042559408 0.23896277 -0.33871093 0.06694939 0.30469584 -0.13697349 -0.030533714 0.22385918
-0.28671658 -0.036007427 0.025215765 -0.11975974 -0.24370264 -0.3077447 0.06400729 -0.0920417
-0.2531974 0.030918838 -0.048620217 -0.14873844 0.1597712 -0.05311582 -0.21726821 -0.020716323
-0.106164716 0.09481156 -0.063826 -0.09703046 0.08843229 -0.0623883 -0.05485668 -0.018805072
-0.010082675 -0.19931646 -0.28690404 0.24471824 -0.09121597 -0.19460315 -0.001111053 -0.053943362
-0.11975433 0.002130399 0.14513856 -0.30681747 -0.44827265 0.10234771 0.04239421 -0.6827636
-0.07158157 0.15097058 0.13471183 -0.05992655 0.13671647 -0.03747137 -0.006974213 0.2569197
-0.059100617 -0.08152768 0.09188674 0.12542772 -0.086240344 0.1889104 -0.17629135 -0.055979487
0.24443078 -0.25104678 -0.043803614 0.2244271 -0.28398857 -0.1157262 0.11012021 -0.0045791664
-0.088227496 -0.019702306 -0.32947063 0.026083553 0.004388782 -0.47068343 0.10513858 -0.13433327
-0.41255218 -0.26120007 -0.04979279 -0.0854495 -0.16482368 0.099554814 0.037625704 -0.14694314
0.061634935 0.2389757 -0.0076734303 -0.0057599023 0.12330995 -0.15148665 -0.16746724 0.0037817794
0.341106 0.22431582 -0.093896195 0.24491273 0.10037084 -0.19913283 0.21495433 0.018290952
-0.45043188 0.04206703 0.044299655 -0.7776598 0.1818126 -0.11536719 -0.3756151 0.16943164
-0.20418401 -0.18005103 0.11874505 -0.06661019 -0.12368712 -0.0082455985 0.05641954 0.1585301
0.16217141 -0.0648737 -0.089033194 0.22023435 -0.031242536 -0.32664046 0.319477 0.06828796
-0.20572957 0.1258506 0.67108995 -0.03848023 0.16450468 0.2327815 -0.0039342926 0.07999329
0.16169281 -0.02397602 0.12964177 0.15481682 -0.104393005 0.010949379 -0.24605782 -0.22151026
-0.015692135 -0.24126288 -0.05347022 0.052706275 -0.27475482 0.06242915 0.12609403 -0.12677291
0.12996359 0.05653643 -0.26366806 -0.22481501 -0.17288683 0.100201264 0.12133827 -0.05414159
0.25380087 0.24797381 -0.016213235 0.22174692 0.1608274 -0.035202026 -0.049753435 0.26102895
0.06920697 -0.13426675 -0.20359792 -0.08178424 -0.0018855399 -0.12518656 -0.21701625 0.1560979
-0.16285919 -0.4022183 0.36045995 -0.035964753 0.04459391 -0.05659258 0.15932429 -0.16303812
0.110233426 -0.09468926 -0.108006924 0.06182411 0.1189505 -0.14724267 -0.3129962 0.45062137
-0.09875271 -0.3711632 0.016199136 -0.027419826 -0.32254162 0.13069539 -0.049605116 -0.39408433
0.1421535 0.20112431 -0.7255073 0.2488731 -0.034246694 -0.0792563 -0.19282393 -0.057712086
0.23947375 -0.24410182 -0.124510475 0.14260097 -0.13306424 -0.1885462 0.105044514 0.23115613
0.074901514 0.3258454 -0.05778147 0.19937846 0.21428269 -0.15930174 0.06695448 0.39546776
-0.42574528 -0.116052456 0.35775584 -0.26087976 0.15775843 -0.19776604 -0.09604955 0.3017144
00000000: 1a77 ff3d 9566 013e 3975 6bbe 8aff 033e
00000010: d79d afbd 9fc3 77bd 4cde cf3d 867b 463d
00000020: 0c7f b8be 332e 20bd 1513 203b ba31 58be
00000030: 0bca 693e 0ded 55be 38ab 813d 111a ce3b
00000040: cd94 82be 2b47 e63c 1c02 503c 08be a4be
00000050: de27 39be 0d66 cd3c 4a25 a2bd adcc febe
00000060: c652 2ebd a8b2 743e 856b adbe c31c 893d
00000070: 1801 9c3e c742 0cbe d721 fabc 573b 653e
00000080: 84cc 92be 867c 13bd 4b91 ce3c 9844 f5bd
00000090: 2f8d 79be b790 9dbe 4116 833d 5c80 bcbd
000000a0: 17a3 81be 8149 fd3c fe25 47bd e44e 18be
000000b0: 109b 233e f98f 59bd 8f7b 5ebe 47b5 a9bc
000000c0: e36c d9bd 902c c23d 35b7 82bd e8b7 c6bd
000000d0: fd1b b53d e08a 7fbd 66b1 60bd 180d 9abc
000000e0: ce31 25bc 9d19 4cbe 16e5 92be 6b97 7a3e
000000f0: 70cf babd 0c46 47be c1a0 91ba b7f3 5cbd
00000100: c241 f5bd 2a9e 0b3b 349f 143e 2e17 9dbe
00000110: fe83 e5be ad9b d13d 8da5 2d3d 98c9 2ebf
00000120: 5c99 92bd 0898 1a3e e6f1 093e 8b75 75bd
00000130: 67ff 0b3e 947b 19bd f087 e4bb fb8a 833e
00000140: 7d13 72bd fcf7 a6bd 1d2f bc3d 2070 003e
00000150: c79e b0bd ba71 413e b885 34be bf4a 65bd
00000160: 104c 7a3e 3489 80be 6b6b 33bd 38d0 653e
00000170: f366 91be dc01 edbd b486 e13d d50c 96bb
00000180: 9eb0 b4bd bb66 a1bc 60b0 a8be 2dad d53c
00000190: c6cf 8f3b 6bfd f0be e552 d73d a98e 09be
000001a0: 0a3a d3be 04bc 85be 86f3 4bbd 2600 afbd
000001b0: 8ac7 28be 65e3 cb3d 691d 1a3d 4378 16be
000001c0: ea74 7c3d 0cb6 743e 6671 fbbb 90bd bcbb
000001d0: ed89 fc3d 511f 1bbe 887c 2bbe bbd7 773b
000001e0: 72a5 ae3e 0cb3 653e a64c c0bd 67ca 7a3e
000001f0: 3a8f cd3d 7ae9 4bbe fd1c 5c3e e8d6 953c
00000200: 029f e6be 7a4e 2c3d 8e73 353d b614 47bf
00000210: 152d 3a3e a245 ecbd 9f50 c0be 7d7f 2d3e
00000220: 9d15 51be 4c5f 38be 9b30 f33d ec6a 88bd
00000230: ac4f fdbd 8c18 07bc 2d18 673d b755 223e
00000240: 4310 263e 81dc 84bd 0957 b6bd 1d85 613e
00000250: 59f0 ffbc 6b3d a7be 7d92 a33e 8fda 8b3d
00000260: c6aa 52be fbde 003e 8dcc 2b3f 729d 1dbd
00000270: ea73 283e 465e 6e3e 3deb 80bb 86d3 a33d
00000280: cd92 253e 5c69 c4bc d0c0 043e 4d88 1e3e
00000290: 00cc d5bd 0665 333c 95f6 7bbe 96d3 62be
000002a0: cb8c 80bc 9e0d 77be 9703 5bbd 89e2 573d
000002b0: aaac 8cbe b5b5 7f3d cb1e 013e c2d0 01be
000002c0: 2d15 053e be92 673d 80ff 86be e835 66be
000002d0: 3f09 31be 5236 cd3d 3380 f83d 92c3 5dbd
000002e0: 30f2 813e d9ec 7d3e 9ed1 84bc a011 633e
000002f0: f0af 243e 0030 10bd 42ca 4bbd 96a5 853e
00000300: 62bc 8d3d 397d 09be f97b 50be 7f7e a7bd
00000310: 3824 f7ba e830 00be 8239 5ebe 21d8 1f3e
00000320: 8fc4 26be 8fef cdbe 358e b83e c74f 13bd
00000330: 1ba8 363d 9fcd 67bd e825 233e 77f3 26be
00000340: 10c2 e13d 71ec c1bd bc32 ddbd 473b 7d3d
00000350: 529c f33d c8c6 16be 0a41 a0be d8b7 e63e
00000360: dc3e cabd 1a09 bebe 0db4 843c 8b9f e0bc
00000370: 2d24 a5be 03d5 053e bc2e 4bbd 6cc5 c9be
00000380: b090 113e 88f3 4d3e d9ba 39bf 97d8 7e3e
00000390: 4346 0cbd 2151 a2bd a373 45be 8263 6cbd
000003a0: 9b38 753e d4f5 79be 59ff febd fd05 123e
000003b0: fe41 08be 4112 41be 9421 d73d 31b4 6c3e
000003c0: f765 993d 35d5 a63e 43ac 6cbd de29 4c3e
000003d0: ec6c 5b3e ff1f 23be 6e1f 893d c07a ca3e
000003e0: 49fb d9be e9ac edbd c62b b73e 0892 85be
000003f0: 6d8b 213e 2e83 4abe a0b5 c4bd 4f7a 9a3e

encoder.layer2.0.bias f4 [64]
-0.050712194 0.011979958 0.14896311 0.06977402 0.07594311 0.016592512 0.21059664 0.0023155399
0.05481271 -0.15451664 0.0007437223 0.14192902 0.33733773 0.23934907 0.06642408 0.1184286
0.06921995 0.18412282 -0.2029003 0.26398692 0.029808247 0.1400773 0.10023732 0.106351495
-0.19632277 -0.021917328 0.23202261 -0.14610673 -0.026763745 0.025201468 0.10537479 -0.05777236
0.13075788 0.11395044 0.054482233 -0.0539597 -0.023432631 0.1439602 -0.069363154 0.09301937
-0.029084206 0.39791054 0.18667358 0.0964444 0.19970396 0.032284167 -0.03866936 0.20247155
-0.10660704 -0.052148197 0.04643001 0.17133527 0.090489544 0.06608984 0.0657225 0.006919253
0.27276447 0.13880512 0.048534766 0.16918354 -0.3305935 0.23279676 -0.085966595 -0.07171426
00000000: 97b7 4fbd 9647 443c c989 183e aee5 8e3d
00000010: 1088 9b3d 05ed 873c a5a6 573e 50c0 173b
00000020: 4b83 603d 9c39 1ebe 5cf6 423a d755 113e
00000030: 88b7 ac3e ec17 753e 5909 883d b28a f23d
00000040: 30c3 8d3d b18a 3c3e 19c5 4fbe 4b29 873e
00000050: 6d30 f43c 6c70 0f3e 3949 cd3d d0ce d93d
00000060: d608 49be f88b b3bc 5697 6d3e 019d 15be
00000070: a43f dbbc 4f73 ce3c bdce d73d b6a2 6cbd
00000080: 65e5 053e d95e e93d c328 5f3d d904 5dbd
00000090: caf5 bfbc 4d6a 133e 450e 8ebd f180 be3d
000000a0: 0042 eebc eeba cb3e 5c27 3f3e a484 c53d
000000b0: 327f 4c3e 673c 043d c363 1ebd b454 4f3e
000000c0: cb54 dabd 5999 55bd 652d 3e3d 8372 2f3e
000000d0: 9552 b93d 1c5a 873d 8599 863d e7ba e23b
000000e0: c9a7 8b3e ee22 0e3e 64cc 463d 733e 2d3e
000000f0: 8d43 a9be 4662 6e3e 410f b0bd edde 92bd

encoder.layer2.1.weight f4 [64]
0.5938743 0.5577509 0.4739515 0.5324099 0.2787553 0.20050317 0.40971115 0.6370319
0.36877576 0.31679246 0.38558704 0.43105218 0.56822026 0.5183795 0.4350003 0.5688825
0.5077884 0.48096398 0.47813267 0.38732502 0.49687123 0.6042809 0.3750063 0.61262715
0.36495838 0.51694083 0.5885363 0.58752 0.41758886 0.48473978 0.65595853 0.50739336
0.38512105 0.58660305 0.3919945 0.44277886 0.6756087 0.41131696 0.5506817 0.49222723
0.7228403 0.4994985 0.38905996 0.5281788 0.41165078 0.47865406 0.5980025 0.45288435
0.46360192 0.4581925 0.46605098 0.45812932 0.49323407 0.5999434 0.4719184 0.62086827
0.55415064 0.5478759 0.53906447 0.46644357 0.53576267 0.53468305 0.41928262 0.6177754
00000000: 2508 183f c3c8 0e3f c5a9 f23e 044c 083f
00000010: 04b9 8e3e b450 4d3e a9c5 d13e 8614 233f
00000020: 2dd0 bc3e 9f32 a23e aa6b c53e dfb2 dc3e
00000030: e276 113f 85b4 043f 5cb8 de3e 49a2 113f
00000040: 6cfe 013f e940 f63e cecd f43e 774f c63e
00000050: e865 fe3e 27b2 1a3f d300 c03e 22d5 1c3f
00000060: d3db ba3e 3c56 043f 51aa 163f b667 163f
00000070: 35ce d53e d02f f83e e6ec 273f 88e4 013f
00000080: 962e c53e 9e2b 163f 81b3 c83e e9b3 e23e
00000090: b1f4 2c3f 2398 d23e 7af9 0c3f 3505 fc3e
000000a0: 100c 393f 44be ff3e de32 c73e ba36 073f
000000b0: e4c3 d23e 2512 f53e b116 193f 75e0 e73e
000000c0: 3b5d ed3e 3598 ea3e 3c9e ee3e ed8f ea3e
000000d0: 2d89 fc3e e495 193f 4a9f f13e 39f1 1e3f
000000e0: d1dc 0d3f 9841 0c3f 2100 0a3f b1d1 ee3e
000000f0: be27 093f fde0 083f 36ac d63e 8726 1e3f

encoder.layer2.1.bias f4 [64]
-0.30664226 -0.4717031 -0.13147852 -0.19257377 -0.037900846 -0.014932054 -0.19890024 -0.4063397
-0.29037857 0.29526785 0.15772517 -0.28934613 -0.5021891 -0.4220929 -0.19582961 -0.36536375
-0.39749515 -0.114234716 -0.35927507 -0.038125735 -0.5225841 -0.12953457 -0.30306518 -0.0002609598
-0.1030383 -0.012017387 -0.30871654 -0.2582123 -0.26244557 -0.1155665 -0.64202505 -0.25823006
-0.13100974 -0.4719872 -0.23804516 -0.3489023 -0.21319911 0.007047432 -0.10746023 -0.07394026
-0.15203723 -0.44270396 -0.023093939 -0.40378025 -0.18600634 -0.3675983 -0.5187015 -0.08280839
-0.31922552 -0.09728687 -0.39195985 -0.24030645 -0.3875127 -0.42646465 0.1334626 -0.29744402
-0.5901876 -0.38108692 -0.39607868 -0.39211094 -0.26250458 -0.41423514 -0.17867716 -0.26381192
00000000: 3700 9dbe 1283 f1be 4ea2 06be 0f32 45be
00000010: eb3d 1bbd 93a5 74bc 81ac 4bbe c20b d0be
00000020: 80ac 94be 592d 973e b582 213e 2d25 94be
00000030: 778f 00bf 901c d8be 8f87 48be f510 bbbe
00000040: 7c84 cbbe e4f3 e9bd e7f2 b7be bb29 1cbd
00000050: 12c8 05bf b6a4 04be 5c2b 9bbe 6ed1 88b9
00000060: bf05 d3bd 93e4 44bc 1810 9ebe 6734 84be
00000070: 445f 86be 21ae ecbd c15b 24bf bb36 84be
00000080: 6b27 06be 4ea8 f1be 1cc2 73be 52a3 b2be
00000090: de50 5abe 25ee e63b 1c14 dcbd fe6d 97bd
000000a0: a6af 1bbe 18aa e2be 802f bdbc 49bc cebe
000000b0: 7278 3ebe d835 bcbe 9fc9 04bf 7297 a9bd
000000c0: 8771 a3be 573e c7bd f6ae c8be e512 76be
000000d0: 1168 c6be 9359 dabe 6baa 083e 954a 98be
000000e0: 8916 17bf d31d c3be d3ca cabe c4c2 c8be
000000f0: 0067 86be a116 d4be 25f7 36be 5b12 87be

encoder.layer2.1.running_mean f4 [64]
-1.1433716 -1.3991966 0.03732327 -0.54783475 -0.9829289 -0.63199675 -0.6080432 -1.3338361
-0.8172211 4.2870426 -0.5960647 -1.5564597 -1.3263402 -0.73217136 -0.92950696 -2.3216991
-2.2727454 -0.5733935 -2.606816 -0.70089984 -2.2221363 -1.8228928 -1.1665425 -1.6962676
-1.3806088 0.53257084 -0.88369334 -1.1902386 -0.8242777 -0.6895455 -1.1226704 -1.1516478
-1.557943 -0.8638603 -0.42361635 -2.5375295 -0.46003368 1.106587 0.023119431 -1.0115433
0.658144 -3.158086 0.47575486 -0.97504324 -0.83180606 -1.2496547 -1.1107509 -0.09634699
-1.0646355 -0.1570438 -1.6437215 -1.4028106 -1.0592124 -1.3950784 1.3952222 -0.78783065
-0.85524887 -1.271014 -2.706598 -2.1006026 -1.0848271 -0.8153974 0.014055004 -1.6884483
00000000: 005a 92bf e018 b3bf 49e0 183d e63e 0cbf
00000010: 3aa1 7bbf 8aca 21bf b8a8 1bbf 24bb aabf
00000020: 6735 51bf 742f 8940 b297 18bf 123a c7bf
00000030: 84c5 a9bf 956f 3bbf 2bf4 6dbf b896 14c0
00000040: a974 11c0 ebc9 12bf 13d6 26c0 2c6e 33bf
00000050: 7b37 0ec0 8d54 e9bf 4451 95bf 4c1f d9bf
00000060: cab7 b0bf 9056 083f ba39 62bf bd59 98bf
00000070: dd03 53bf 0e86 30bf aab3 8fbf 3269 93bf
00000080: ad6a c7bf f325 5dbf 3ee4 d8be e266 22c0
00000090: 8989 ebbe a5a4 8d3f f664 bd3c 407a 81bf
000000a0: 207c 283f 151e 4ac0 2496 f33e 6f9c 79bf
000000b0: 3ef1 54bf aff4 9fbf 162d 8ebf 9251 c5bd
000000c0: fa45 88bf 17d0 20be 7765 d2bf 4c8f b3bf
000000d0: 4694 87bf ee91 b2bf a496 b23f 45af 49bf
000000e0: 97f1 5abf 96b0 a2bf e738 2dc0 4670 06c0
000000f0: 9ddb 8abf e2bd 50bf f646 663c 131f d8bf

encoder.layer2.1.running_var f4 [64]
1.8538299 1.0725487 1.4109104 1.7725378 1.3165168 0.5239403 1.2865511 1.1269072
0.56573 1.9498762 2.0743778 1.418303 0.7416755 0.6636597 1.5668681 1.5563139
1.0217032 1.0714216 1.4113525 1.4190757 0.7242696 1.8356223 0.58659077 3.513313
0.83097947 1.8575407 1.7114615 1.3046398 0.9328881 0.9489884 0.6862458 2.6464348
0.8600087 0.71479994 0.81329405 1.962406 3.0753145 2.45548 2.0232415 1.9825611
2.2444158 0.81887585 1.217794 0.7141024 0.76714873 0.8267485 0.67445534 1.6945957
0.8736944 1.4341719 0.8286491 1.413787 0.67744297 0.66405594 3.0672445 1.0433726
0.5434444 0.9884309 2.1087825 1.003723 1.463401 0.656322 0.7783674 5.9816437
00000000: 4c4a ed3f 4749 893f b698 b43f 85e2 e23f
00000010: 9f83 a83f f420 063f b5ad a43f 7f3e 903f
00000020: aed3 103f 8b95 f93f 9bc2 0440 f48a b53f
00000030: 72de 3d3f 9ae5 293f 228f c83f 4b35 c73f
00000040: 2cc7 823f 5824 893f 33a7 b43f 46a4 b53f
00000050: bc69 393f acf5 ea3f d02a 163f 1fda 6040
00000060: 12bb 543f e5c3 ed3f 2c11 db3f 70fe a63f
00000070: c1d1 6e3f e7f0 723f cead 2f3f 305f 2940
00000080: 8829 5c3f 21fd 363f 0a34 503f 1f30 fb3f
00000090: f4d1 4440 9626 1d40 ca7c 0140 90c4 fd3f
000000a0: 82a4 0f40 d9a1 513f ace0 9b3f 6acf 363f
000000b0: dc63 443f caa5 533f 1ba9 2c3f 83e8 d83f
000000c0: 70aa 5f3f f292 b73f 5922 543f f9f6 b43f
000000d0: e76c 2d3f 92ff 293f bc4d 4440 3c8d 853f
000000e0: 2c1f 0b3f cf09 7d3f 4bf6 0640 ff79 803f
000000f0: b950 bb3f b804 283f 1643 473f a069 bf40

encoder.layer3.0.weight f4 [128, 64, 4, 2]
-0.7510755 -0.033071768 -0.09018094 0.41685814 0.1582985 0.07653938 0.01955936 -0.14140132
-0.21537936 -0.1454322 0.111681536 0.067388736 0.11557467 0.09392005 0.21562743 0.097905986
0.33149043 0.04212673 0.046569135 0.2166653 0.061962523 0.18903346 -0.12653694 -0.008857761
0.1518437 0.07400812 0.33058637 0.16569039 0.048195235 -0.2287012 0.040643517 0.057796903
0.25395772 -0.4675363 0.23684664 -0.10791249 0.17747462 0.1462694 0.13820948 0.09941226
0.013346387 0.2172592 0.021335797 0.037123304 0.18818438 0.084470764 0.24720447 0.3375763
0.29860422 0.020972962 0.5110394 -0.08423369 0.041958705 -0.1302869 -0.018945832 0.08624737
0.015016075 0.12121977 -0.2706979 -0.08928804 -0.06791403 -0.14395075 0.050336935 -0.19522351
-0.07504241 -0.18785635 0.046562728 -0.19098467 -0.06474134 0.10076533 -0.10767307 -0.086401284
-0.34958553 -0.34499004 0.016557964 0.08159783 0.39346948 0.2899713 0.035494808 0.07760021
0.13149557 0.06317152 0.20465317 -0.26199773 -0.23940484 -0.012645932 0.112159505 -0.15331315
-0.17946891 -0.0753006 -0.33850974 0.16365299 0.0116171045 -0.15109764 0.1923589 0.20257762
0.25481158 0.09293891 0.028172007 0.21528517 -0.2082751 -0.24409738 0.17680295 -0.022502644
0.24290892 -0.24933878 0.21137267 -0.7523194 -0.17481907 -0.35361344 -0.027593078 -0.12357083
-0.027858429 -0.19584747 -0.06561115 0.21445532 -0.19134066 -0.026041463 0.010885847 -0.027306937
0.051469695 -0.005469233 -0.06998516 -0.25001696 -0.050698183 -0.058029376 -0.09042089 0.15424773
-0.057391305 -0.26856884 0.28588888 0.018360563 -0.037578873 0.1615374 -0.038511854 0.1558196
-0.06909095 -0.09960361 -0.07561084 0.0793576 0.09834025 -0.07891487 -0.014232621 0.17897734
-0.10568053 -0.42613807 0.1578309 0.39487717 -0.06078875 0.047891244 0.051300462 0.4209882
0.18310618 -0.09583617 -0.33555612 -0.6577764 -0.11264469 -0.04180992 0.0118873725 0.023500208
0.37354025 -0.1638391 0.3313428 0.08886931 -0.030287532 0.08955061 0.15940014 0.05214762
0.057347216 -0.3874831 -0.15246488 0.17466417 -0.009132 0.23534255 0.049873766 0.4008654
0.23523869 -0.06942019 0.30541012 -0.08402097 0.048344325 -0.16827138 0.14784463 -0.06461289
-0.95268613 -0.092922926 -0.018351657 0.23253575 0.14447007 0.22203876 0.07361786 0.099548645
0.29680887 -0.028513838 0.013320967 -0.17390464 -0.061252944 -0.07053164 -0.118723325 -0.014765783
-0.28456545 -0.6153474 -0.10039263 -0.07232293 -0.25660327 0.1378031 0.13985902 0.07680698
-0.08483241 -0.5565179 0.10571827 0.24399005 -0.17809327 0.060642406 -0.09428258 0.3343395
0.08127947 -0.2765428 0.01004346 -0.078760825 -0.19481315 0.065250956 -0.095764495 0.021514723
-0.48366305 0.40374324 -0.009582696 -0.1727373 0.08878004 0.0181999 0.0015417158 0.107601285
-0.18762013 -0.08789926 -0.22578785 0.3324004 0.048853166 -0.114043325 0.0998864 0.09861374
0.2821574 0.079845436 0.11764629 0.23620722 -0.07371843 -0.21295245 0.112871505 -0.05845012
0.047867116 -0.39296347 -0.1157851 -0.22224373 -0.13901912 0.1559659 0.27776313 0.11424036
00000000: 7c46 40bf 4376 07bd c9b0 b8bd 6e6e d53e
00000010: 0119 223e aec0 9c3d f33a a03c 82cb 10be
00000020: 688c 5cbe 2eec 14be 4ab9 e43d 1b03 8a3d
00000030: 6ab2 ec3d 2859 c03d 70cd 5c3e ef82 c83d
00000040: 1db9 a93e 148d 2c3d 47bf 3e3d 82dd 5d3e
00000050: 6acc 7d3d fd91 413e e692 01be 2420 11bc
00000060: ea7c 1b3e 9291 973d 9e42 a93e beaa 293e
00000070: 5e68 453d a630 6abe d179 263d 72bc 6c3d
00000080: bf06 823e eb60 efbe ed87 723e 3901 ddbd
00000090: e8bb 353e a5c7 153e c986 0d3e a898 cb3d
000000a0: ceaa 5a3c 3279 5e3e 69c8 ae3c 9b0e 183d
000000b0: 68b3 403e 02ff ac3d 2b23 7d3e cdd6 ac3e
000000c0: a7e2 983e 7dcf ab3c 7ad3 023f b682 acbd
000000d0: e4dc 2b3d ee69 05be 4a34 9bbc 76a2 b03d
000000e0: fc05 763c 1242 f83d ea98 8abe a6dc b6bd
000000f0: 8316 8bbd d367 13be 1a2e 4e3d ace8 47be
00000100: d6af 99bd 6a5d 40be 8fb8 3e3d 7c91 43be
00000110: 1c97 84bd 0e5e ce3d b383 dcbd 28f3 b0bd
00000120: e0fc b2be 89a2 b0be 91a4 873c c31c a73d
00000130: d574 c93e 1e77 943e 0163 113d dcec 9e3d
00000140: c6a6 063e 1260 813d 9a90 513e 9124 86be
00000150: 8b26 75be e230 4fbc e2b3 e53d 1ffe 1cbe
00000160: b3c6 37be 3337 9abd 2651 adbe a694 273e
00000170: ab55 3e3c 57b9 1abe bbf9 443e 8270 4f3e
00000180: aa76 823e c156 be3d fbc8 e63c b773 5c3e
00000190: 1146 55be aaf4 79be d50b 353e 7757 b8bc
000001a0: 1ebd 783e aa52 7fbe 1472 583e 0198 40bf
000001b0: c503 33be d20c b5be e10a e2bc b412 fdbd
000001c0: 5c37 e4bc 3d8c 48be 235f 86bd 2d9a 5b3e
000001d0: ceee 43be e854 d5bc 8d5a 323c ccb2 dfbc
000001e0: e3d1 523d 4037 b3bb 6154 8fbd 3902 80be
000001f0: e6a8 4fbd 36b0 6dbd 962e b9bd 1ef3 1d3e
00000200: 2513 6bbd db81 89be 0760 923e e468 963c
00000210: 4eec 19bd 0f6a 253e 9bbe 1dbd 2c8f 1f3e
00000220: 8e7f 8dbd fafc cbbd dbd9 9abd 3d86 a23d
00000230: 9d66 c93d 1f9e a1bd f02f 69bc d645 373e
00000240: 096f d8bd c52e dabe 6c9e 213e 572d ca3e
00000250: a0fd 78bd 9c29 443d 6f20 523d c48b d73e
00000260: 3080 3b3e c145 c4bd 03ce abbe 0964 28bf
00000270: 42b2 e6bd e140 2bbd 41c3 423c 8283 c03c
00000280: ab40 bf3e 70c5 27be c3a5 a93e 1d01 b63d
00000290: 8f1d f8bc 4f66 b73d ca39 233e be98 553d
000002a0: eae4 6a3d 2f64 c6be c11f 1cbe 2adb 323e
000002b0: 629e 15bc a3fd 703e 6f48 4c3d 3b3e cd3e
000002c0: 69e2 703e 2c2c 8ebd b75e 9c3e 3013 acbd
000002d0: b304 463d 554f 2cbe 9564 173e c353 84bd
000002e0: 3de3 73bf 604e bebd 3756 96bc da1d 6e3e
000002f0: f6ef 133e 215e 633e f6c4 963d 29e0 cb3d
00000300: 55f7 973e da95 e9bc 2f40 5a3c 0f14 32be
00000310: 5ee4 7abd e472 90bd 3725 f3bd 2fec 71bc
00000320: 90b2 91be 6887 1dbf a79a cdbd 0b1e 94bd
00000330: 8161 83be 411c 0d3e 3437 0f3e fa4c 9d3d
00000340: 9dbc adbd f577 0ebf d282 d83d 87d8 793e
00000350: 155e 36be 2c64 783d 3a17 c1bd 8c2e ab3e
00000360: da75 a63d 0597 8dbe 538d 243c 5b4d a1bd
00000370: 197d 47be 4ba2 853d 2d20 c4bd a53f b03c
00000380: afa2 f7be 6fb7 ce3e bd00 1dbc 0ce2 30be
00000390: 4fd2 b53d f517 953c 6613 ca3a 105e dc3d
000003a0: 7e1f 40be 8704 b4bd ee34 67be 6330 aa3e
000003b0: 421a 483d 8c8f e9bd 3e91 cc3d 00f6 c93d
000003c0: ef76 903e 0186 a33d 8af0 f03d 4ee0 713e
000003d0: b0f9 96bd 3510 5abe 2d29 e73d 6569 6fbd
000003e0: 4f10 443d 8232 c9be bd20 edbd dc93 63be
000003f0: 075b 0ebe 86b5 1f3e f836 8e3e daf6 e93d

encoder.layer3.0.bias f4 [128]
-0.013799044 -0.0087049715 -0.19659877 -0.14453737 0.08243418 -0.09509505 0.004343945 -0.16174726
-0.01243431 -0.19515094 0.020256182 0.08644939 -0.06827495 -0.16183256 0.05836724 0.19241981
-0.051844448 0.038515966 0.1042647 0.0063812206 -0.05683665 0.020738335 -0.093798675 -0.10467501
-0.14614621 -0.090244845 -0.21473742 -0.27626154 -0.018725136 -0.17242962 -0.022623563 -0.014282263
0.0317016 -0.07440037 -0.07321443 -0.19884823 -0.03888953 0.10499743 0.010727151 0.01615242
-0.076283954 0.03562769 0.11172417 0.008595774 0.020455413 -0.048923235 0.009715191 -0.007327421
-0.038325764 -0.03290403 0.089864425 0.28921294 0.077226326 -0.04094669 0.085213214 -0.06396781
-0.087274425 -0.06542166 -0.24018991 0.010567411 0.018927675 -0.03372702 -0.031086009 -0.011376554
-0.0027530538 0.019001242 0.030440848 0.07785751 -0.1810838 -0.04273054 0.08914063 0.011964567
0.08746007 -0.08460897 -0.1758885 -0.1128379 -0.10253365 -0.18191518 -0.11526488 0.15055394
-0.07695652 0.03142562 0.07611864 -0.09492724 -0.06569175 0.12971735 -0.0483222 -0.116198696
-0.06329605 -0.01562717 -0.016248358 -0.00988497 0.056290746 -0.06966271 0.031881902 0.04250998
-0.085317634 0.039851863 0.067930326 -0.21389943 -0.0041155866 0.0014959236 -0.2800884 -0.16067801
0.028151369 -0.15191132 0.0151181305 0.025387773 0.022714656 -0.08580083 0.072242886 0.09659472
-0.07374709 -0.09903718 -0.07140628 0.07030961 0.0055149463 -0.07149275 0.07225602 -0.02443545
-0.10265424 -0.24843594 0.08492039 -0.10374728 -0.027433129 -0.0012644088 0.0980617 -0.0116381915
00000000: 6315 62bc 4c9f 0ebc 3051 49be 9b01 14be
00000010: 40d3 a83d 32c1 c2bd a757 8e3b 13a1 25be
00000020: 47b9 4bbc a6d5 47be 4bf0 a53c 610c b13d
00000030: bdd3 8bbd 6fb7 25be 7d12 6f3d b309 453e
00000040: d85a 54bd ebc2 1d3d bb88 d53d 8f19 d13b
00000050: 8ccd 68bd 71e3 a93c 8519 c0bd da5f d6bd
00000060: 5aa7 15be 4ad2 b8bd 20e4 5bbe 2772 8dbe
00000070: 7565 99bc 6491 30be 0d55 b9bc 2700 6abc
00000080: 89d9 013d 395f 98bd 72f1 95bd df9e 4bbe
00000090: a14a 1fbd e508 d73d efc0 2f3c 1452 843c
000000a0: c33a 9cbd 57ee 113d a4cf e43d 4ad5 0c3c
000000b0: 1c92 a73c bb63 48bd 772c 1f3c dd1a f0bb
000000c0: 7afb 1cbd 60c6 06bd d70a b83d b813 943e
000000d0: d628 9e3d b7b7 27bd 4484 ae3d 8e01 83bd
000000e0: efbc b2bd cbfb 85bd 58f4 75be ef22 2d3c
000000f0: 360e 9b3c 5825 0abd 16a8 febc ba64 3abc
00000100: 946c 34bb 7ea8 9b3c 165f f93c c273 9f3d
00000110: 086e 39be 3806 2fbd 5d8f b63d 0807 443c
00000120: 441e b33d 7847 adbd 1d1c 34be 8f17 e7bd
00000130: 2afd d1bd f947 3abe fe0f ecbd d02a 1a3e
00000140: 619b 9dbd 27b8 003d 17e4 9b3d 3669 c2bd
00000150: 6589 86bd a0d4 043e 80ed 45bd 95f9 edbd
00000160: 5ca1 81bd 8d04 80bc 471b 85bc 92f4 21bc
00000170: 2091 663d 53ab 8ebd 9996 023d f21e 2e3d
00000180: 03bb aebd b53b 233d 0e1f 8b3d 7408 5bbe
00000190: 0bdc 86bb de12 c43a bf67 8fbe c788 24be
000001a0: b39d e63c a48e 1bbe 09b2 773c 05fa cf3c
000001b0: 1614 ba3c 58b8 afbd 14f4 933d 74d3 c53d
000001c0: b708 97bd 01d4 cabd 753d 92bd 7cfe 8f3d
000001d0: b9b6 b43b ca6a 92bd f7fa 933d da2c c8bc
000001e0: 633c d2bd fe65 7ebe beea ad3d 7479 d4bd
000001f0: 71bb e0bc 85ba a5ba 93d4 c83d 1dae 3ebc

encoder.layer3.1.weight f4 [128]
0.4591321 0.44540936 0.36892295 0.6233261 0.41880235 0.89697605 0.26412597 0.45084867
0.9155029 0.6021955 0.7242511 0.51900506 0.7696441 1.0725774 0.76028484 0.6105653
0.5899692 0.2958663 0.9979821 0.44985628 0.37676555 0.5696226 0.81324226 0.7805761
0.37622237 0.4747371 0.55671304 0.5608796 0.5328388 0.44880682 0.41417027 0.54351866
0.4258991 0.5238971 0.5586574 0.5084077 0.78529745 0.3534251 0.37013027 0.45261303
0.5536624 0.32899684 0.5379093 0.4489125 0.56183726 0.53739685 0.40330386 1.2277342
0.32489336 0.7451407 0.36950177 0.7930459 1.2792648 0.53347576 0.638544 0.50227696
0.35741493 0.70228195 0.52484 0.54371893 0.48627153 0.4523165 0.5544388 0.72598916
0.60829586 0.6799153 0.63470525 0.56186265 0.73696864 0.6582676 0.28234068 0.58554804
0.5146153 0.42094877 0.5847501 0.8662443 0.6219675 0.5994627 0.48513713 0.32504907
0.36648166 0.6209785 0.8323135 0.58353436 0.9243945 0.5422618 0.73781306 0.32728875
0.37081802 0.37229416 0.6706689 0.4185018 0.5489774 0.355123 0.6372552 0.49053943
0.5024683 0.39479187 0.503742 0.64066535 0.58780944 0.35777247 0.6828769 0.32326326
0.41877267 0.4541289 0.31915906 0.5297275 0.295524 0.40556628 0.39359918 0.5458297
0.5310845 0.93398607 0.43402007 0.48213577 0.40018874 0.6662347 0.38684693 0.38104075
0.43847668 0.812962 0.40356126 0.4112351 0.4745297 0.6172719 0.4940907 0.3737776
00000000: 5d13 eb3e b20c e43e 78e3 bc3e 4d92 1f3f
00000010: 436d d63e 39a0 653f 853b 873e a3d5 e63e
00000020: 665e 6a3f 7c29 1a3f 8568 393f 84dd 043f
00000030: 6507 453f 374a 893f 07a2 423f 024e 1c3f
00000040: 3908 173f ca7b 973e c17b 7f3f 9053 e63e
00000050: 6ae7 c03e c9d2 113f a530 503f d6d3 473f
00000060: 38a0 c03e be10 f33e bf84 0e3f ce95 0f3f
00000070: 2068 083f 02ca e53e 200e d43e 0a24 0b3f
00000080: 720f da3e 1f1e 063f 2c04 0f3f 0227 023f
00000090: 4109 493f 22f4 b43e b781 bd3e e5bc e73e
000000a0: d2bc 0d3f 4672 a83e 6db4 093f dcd7 e53e
000000b0: 91d4 0f3f d792 093f d87d ce3e 6526 9d3f
000000c0: 6c58 a63e 8ac1 3e3f 562f bd3e 0e05 4b3f
000000d0: f3be a33f de91 083f 9f77 233f 3995 003f
000000e0: 17ff b63e c0c8 333f ea5b 063f 2a31 0b3f
000000f0: 95f8 f83e 0796 e73e b4ef 0d3f 6dda 393f
00000100: 47b9 1b3f ee0e 2e3f 0b7c 223f 3bd6 0f3f
00000110: faa9 3c3f 3a84 283f f58e 903e 7ae6 153f
00000120: d4bd 033f 9986 d73e 2fb2 153f 30c2 5d3f
00000130: 4339 1f3f 6376 193f e563 f83e d56c a63e
00000140: 7ca3 bb3e 72f8 1e3f 7f12 553f 8262 153f
00000150: 1ea5 6c3f abd1 0a3f 51e1 3c3f 6492 a73e
00000160: dcdb bd3e 579d be3e f5b0 2b3f de45 d63e
00000170: c889 0c3f afd2 b53e 2823 233f fc27 fb3e
00000180: c3a1 003f 2922 ca3e 3cf5 003f a502 243f
00000190: ae7a 163f f42d b73e 05d1 2e3f c382 a53e
000001a0: 5f69 d63e 9583 e83e d168 a33e 399c 073f
000001b0: ec4e 973e 62a6 cf3e d585 c93e 7fbb 0b3f
000001c0: 27f5 073f b619 6f3f e137 de3e 80da f63e
000001d0: 8ae5 cc3e 5b8e 2a3f cd10 c63e c617 c33e
000001e0: 0480 e03e 471e 503f 959f ce3e 688d d23e
000001f0: 8ff5 f23e 8805 1e3f 75f9 fc3e c75f bf3e

encoder.layer3.1.bias f4 [128]
-0.11226312 -0.29587132 -0.26124114 -0.2795261 -0.2044779 -0.40203583 -0.06659276 -0.3682288
-0.22219427 -0.26508763 -0.21176936 -0.026446614 -0.12518154 -0.3666216 -0.15839064 -0.15220113
-0.20181486 -0.062038817 -0.33919555 -0.2200493 -0.15474187 -0.30462053 -0.2826395 -0.2848467
-0.0865213 -0.16370773 -0.3252462 -0.1582474 -0.07314399 -0.29630005 -0.07274391 -0.12455045
-0.32301766 -0.24175517 -0.17148188 -0.08578825 -0.33957028 -0.10557265 -0.11448767 -0.14135914
-0.16864619 -0.123870194 -0.19841813 -0.19615689 -0.3333542 -0.19590518 -0.07268968 -0.33731586
-0.083622344 -0.21054843 -0.1416879 -0.31935877 -0.23727858 -0.12093399 -0.186061 -0.1575207
-0.02881612 -0.15832461 -0.3713788 -0.122703575 -0.24335659 -0.15314063 -0.23681852 -0.08594098
-0.26661122 0.0040162704 -0.40665287 -0.17789114 -0.14152348 -0.25699377 -0.18070641 -0.22580749
-0.22734664 -0.1686479 -0.20941773 -0.27375937 -0.24420688 -0.22837377 -0.18836194 -0.17923439
-0.09815333 -0.19607648 -0.029778644 -0.3431247 -0.17212836 -0.30470246 -0.14230181 -0.0889218
-0.12389905 -0.07516207 -0.15461886 -0.20744914 -0.17510471 -0.15908948 -0.2899061 -0.43124416
-0.34555554 -0.16186014 -0.23904538 -0.124600425 -0.20257063 -0.07391258 -0.17058615 -0.029330231
-0.09124967 -0.26051113 0.034075428 -0.3754963 -0.003677239 -0.013932678 -0.22551505 -0.16675189
-0.10825423 -0.18825893 -0.12890628 -0.16895454 -0.14178978 -0.31974706 -0.13214429 -0.19904836
-0.1939548 -0.33792618 -0.09535129 -0.10321358 -0.21235222 -0.30211335 -0.08842349 -0.13756149
00000000: 35ea e5bd 727c 97be 66c1 85be 0c1e 8fbe
00000010: a862 51be a4d7 cdbe c961 88bd 7c88 bcbe
00000020: e586 63be 91b9 87be 11da 58be 92a6 d8bc
00000030: 972f 00be d4b5 bbbe 2831 22be 9dda 1bbe
00000040: 8ea8 4ebe 6a1c 7ebd 0aab adbe 9b54 61be
00000050: a774 1ebe 39f7 9bbe 20b6 90be 6dd7 91be
00000060: 1432 b1bd 00a3 27be ac86 a6be 9b0b 22be
00000070: 84cc 95bd a4b4 97be c2fa 94bd 4e14 ffbd
00000080: 9262 a5be ab8e 77be f298 2fbe c0b1 afbd
00000090: 28dc adbe 7936 d8bd 8378 eabd 73c0 10be
000000a0: 96b1 2cbe a8af fdbd 1f2e 4bbe 5add 48be
000000b0: 67ad aabe 5e9b 48be 54de 94bd aab4 acbe
000000c0: 3142 abbd 029a 57be a216 11be fe82 a3be
000000d0: 28f9 72be 3dac f7bd c686 3ebe 1b4d 21be
000000e0: c90f ecbc d91f 22be 5d25 bebe 034c fbbd
000000f0: 7832 79be e6d0 1cbe 8e80 72be d301 b0bd
00000100: 4481 88be eb9a 833b ce34 d0be 1829 36be
00000110: 88eb 10be b094 83be 1a0b 39be 143a 67be
00000120: 8fcd 68be 09b2 2cbe 9a71 56be 302a 8cbe
00000130: 5e11 7abe d0da 69be f4e1 40be 3889 37be
00000140: 9d04 c9bd 46c8 48be 58f2 f3bc 0aae afbe
00000150: 6b42 30be f601 9cbe 91b7 11be a21c b6bd
00000160: c9be fdbd 92ee 99bd 6854 1ebe 8c6d 54be
00000170: a64e 33be 5ae8 22be 936e 94be 09cc dcbe
00000180: a8ec b0be aabe 25be 50c8 74be 822e ffbd
00000190: ad6e 4fbe 7b5f 97bd 23ae 2ebe f445 f0bc
000001a0: 1be1 babd b761 85be ad92 0b3d 0d41 c0be
000001b0: d5fd 70bb e345 64bc 6bed 66be 02c1 2abe
000001c0: 65b4 ddbd f3c6 40be 0200 04be 6b02 2dbe
000001d0: 5731 11be e3b5 a3be d550 07be 55d3 4bbe
000001e0: 169c 46be a904 adbe 8a47 c3bd a461 d3bd
000001f0: dc72 59be 9aae 9abe 6017 b5bd ebdc 0cbe

encoder.layer3.1.running_mean f4 [128]
-0.3237233 -0.36394203 -0.3031437 -0.5876878 -0.6482111 -2.3765142 2.2174118 -1.1386179
-3.7516973 -0.99226165 -1.4353353 -1.177005 -3.550329 -3.1885748 -1.7129977 -0.79587847
-1.2756983 0.011335614 -4.4425354 -0.6108923 0.24476656 -0.23050417 -2.1315129 -2.7136598
-0.4915255 -0.89365333 -0.655791 -0.8591358 -1.1141461 -0.86246186 -1.0842834 -0.10839824
-0.698468 -0.65444845 0.47122365 -1.37216 -1.6292238 -0.109288976 0.22176889 -1.4766897
-1.184464 0.0984839 -0.23686764 -0.9520691 -1.2844206 -1.6829098 -0.6294841 -3.6809375
0.5133483 -1.5642115 0.050226886 -0.7408663 -4.768903 -1.3304492 0.057486072 0.035221208
-1.8506233 -2.0069594 -0.7791295 2.646743 0.12521657 0.26771715 -1.2196476 -2.3273027
-2.3348007 -3.070071 -1.8345233 0.20900287 -1.6606698 -0.7631593 -0.09453874 -1.3443304
-0.70007515 -1.4913356 -0.41594326 -4.232445 -1.5896547 -1.55839 -0.054732878 -0.4227224
0.6997705 -2.4187372 -2.819775 -0.72323805 -2.7146766 -0.8241963 -1.2402557 0.9722569
-1.0334376 -0.6300145 -1.1027318 -0.2987698 -0.7393545 -0.5682524 -0.8459558 0.96535563
-0.72053534 -0.020494562 -0.6518383 -1.4675537 -1.1607552 0.10813708 -2.5852368 -0.30084068
0.6754891 -0.44635805 -0.19221622 -0.5833526 -0.43859354 -0.6632422 -0.5095019 -1.6770517
-2.1534426 -2.5881543 -0.8276336 -0.86915684 -0.5627951 -2.0446453 -0.36952135 -1.9713131
-0.26798418 -1.5333596 -0.480775 -0.85930884 1.2828454 2.5737484 -2.9645467 -0.6187577
00000000: 0fbf a5be 9c56 babe a735 9bbe b572 16bf
00000010: 2af1 25bf cf18 18c0 13ea 0d40 3bbe 91bf
00000020: cf1b 70c0 dc04 7ebf 11b9 b7bf 1aa8 96bf
00000030: 9738 63c0 9c11 4cc0 8243 dbbf b1be 4bbf
00000040: 154a a3bf 03b9 393c 4029 8ec0 7063 1cbf
00000050: 16a4 7a3e 4909 6cbe b56a 08c0 9aac 2dc0
00000060: 3ba9 fbbe 77c6 64bf ebe1 27bf 53f0 5bbf
00000070: 579c 8ebf 4dca 5cbf ccc9 8abf e5ff ddbd
00000080: cdce 32bf ef89 27bf 3a44 f13e f0a2 afbf
00000090: 688a d0bf e6d2 dfbd 6217 633e 2b04 bdbf
000000a0: 849c 97bf edb1 c93d 6e8d 72be cdba 73bf
000000b0: e567 a4bf 9769 d7bf df25 21bf 7b94 6bc0
000000c0: cb6a 033f 1538 c8bf b5ba 4d3d 6aa9 3dbf
000000d0: da9a 98c0 294c aabf 8476 6b3d 1d44 103d
000000e0: 39e1 ecbf 0672 00c0 0875 47bf 3d64 2940
000000f0: c638 003e 3912 893e 6a1d 9cbf 87f2 14c0
00000100: 606d 15c0 0b7c 44c0 a9d1 eabf d904 563e
00000110: d490 d4bf 685e 43bf 879d c1bd 0513 acbf
00000120: 2038 33bf 16e4 bebf 84f6 d4be 3070 87c0
00000130: ce79 cbbf 5379 c7bf 952f 60bd 126f d8be
00000140: 2924 333f 97cc 1ac0 3277 34c0 2126 39bf
00000150: 43bd 2dc0 87fe 52bf b3c0 9ebf d4e5 783f
00000160: af47 84bf a148 21bf 5126 8dbf 5bf8 98be
00000170: 5646 3dbf fd78 11bf 8f90 58bf 8c21 773f
00000180: 0175 38bf 36e4 a7bc e0de 26bf cdd8 bbbf
00000190: a093 94bf f976 dd3d 8574 25c0 ca07 9abe
000001a0: dbec 2c3f 0b89 e4be 54d4 44be 9956 15bf
000001b0: 558f e0be 3eca 29bf b76e 02bf a1a9 d6bf
000001c0: 01d2 09c0 52a4 25c0 ccdf 53bf 1081 5ebf
000001d0: 5713 10bf 78db 02c0 e731 bdbe fd53 fcbf
000001e0: 3935 89be 2145 c4bf 2428 f6be aafb 5bbf
000001f0: 4734 a43f 4bb8 2440 22bb 3dc0 e866 1ebf

encoder.layer3.1.running_var f4 [128]
3.3050013 1.6493757 1.505047 2.9086401 2.0432463 4.4799047 1.7571322 1.9289467
4.0554533 3.0637417 2.9159706 2.7255912 3.207922 5.5333533 3.0260477 2.3954697
2.9057882 1.8862454 9.313778 1.6900072 2.2447183 2.335117 2.9287562 3.6628006
1.9311337 2.278519 2.395548 2.7315624 2.7948267 1.493249 3.0744636 2.5195243
1.6872108 2.738198 2.8250284 2.6956596 3.127795 1.5648061 1.8575524 3.3062062
4.4725976 1.607765 2.5250056 2.5615525 2.1346629 4.476363 2.400036 9.991642
1.9300759 2.8110309 1.759176 3.9998677 7.4973173 4.3668447 3.1023076 3.369503
2.335933 3.949382 1.8544203 4.6317415 1.6571409 3.5047905 2.697045 4.125742
3.0661395 4.5408807 1.9204254 3.1816545 4.0839953 2.6852179 1.3414923 2.2540908
1.9535927 1.7841283 2.4518654 8.443647 4.7419066 1.9187661 2.7287393 1.302257
1.7043624 3.0141947 3.4869723 1.5565691 6.335585 2.2400904 3.9403436 1.4263778
2.5196376 1.827489 5.937727 1.9196492 2.8356621 1.2855843 2.2543063 1.4302346
2.5617805 1.8114985 2.3234715 2.911155 3.800842 2.360068 3.8381476 1.4989232
2.0004942 1.4543489 2.195083 1.6692886 2.684815 2.1022127 1.7644439 2.581226
4.748019 3.8588836 1.52986 2.757458 2.3190374 2.6777077 2.4489994 1.5880522
2.5025213 3.1144881 2.719908 2.1513333 2.2182057 3.6868587 4.14885 2.5882456
00000000: 2485 5340 be1e d33f 61a5 c03f 2927 3a40
00000010: 8cc4 0240 615b 8f40 b5e9 e03f bae7 f63f
00000020: 46c6 8140 5814 4440 439f 3a40 1670 2e40
00000030: 984e 4d40 3b11 b140 c4aa 4140 604f 1940
00000040: 6ff8 3940 7d70 f13f 3c05 1541 2852 d83f
00000050: 77a9 0f40 8f72 1540 be70 3b40 536b 6a40
00000060: 642f f73f 41d3 1140 a950 1940 ebd1 2e40
00000070: 71de 3240 c922 bf3f 03c4 4440 e33f 2140
00000080: 86f6 d73f a33e 2f40 44cd 3440 b085 2c40
00000090: cb2d 4840 914b c83f 47c4 ed3f e298 5340
000000a0: 851f 8f40 3ecb cd3f b199 2140 7af0 2340
000000b0: 519e 0840 5e3e 8f40 319a 1940 c4dd 1f41
000000c0: ba0c f73f eee7 3340 ae2c e13f d5fd 7f40
000000d0: 06ea ef40 31bd 8b40 358c 4640 f0a5 5740
000000e0: ed7f 1540 adc2 7c40 a55d ed3f 3a37 9440
000000f0: 311d d43f 7d4e 6040 639c 2c40 1406 8440
00000100: a13b 4440 e54e 9140 80d0 f53f 3aa0 4b40
00000110: 17b0 8240 9cda 2b40 05b6 ab3f 0643 1040
00000120: 530f fa3f 515e e43f 5deb 1c40 2e19 0741
00000130: b3bd 9740 219a f53f aaa3 2e40 5bb0 a63f
00000140: 8c28 da3f 91e8 4040 8e2a 5f40 a83d c73f
00000150: 1dbd ca40 a45d 0f40 972e 7c40 8c93 b63f
00000160: be41 2140 29eb e93f dc01 be40 11b7 f53f
00000170: 7d7b 3540 078e a43f 8e46 1040 ed11 b73f
00000180: 36f4 2340 2fdf e73f c2b3 1440 5d50 3a40
00000190: ff40 7340 5b0b 1740 36a4 7540 b7dc bf3f
000001a0: 1908 0040 1b28 ba3f 3d7c 0c40 40ab d53f
000001b0: 02d4 2b40 a78a 0640 4cd9 e13f cf32 2540
000001c0: c6ef 9740 f3f7 7640 74d2 c33f 317a 3040
000001d0: 1c6b 1440 905f 2b40 68bc 1c40 4b45 cb3f
000001e0: 4f29 2040 c653 4740 f912 2e40 72af 0940
000001f0: 15f7 0d40 7ef5 6b40 61c3 8440 d1a5 2540
